ppo_models/ppo_model_policy_try.pth (torch, 82780 bytes, 8 tensors)

shared_fc.0.weight f4 [128, 15]
-0.20497373 -0.021876216 -0.0011706948 -0.15807033 -0.008098513 -0.230696 -0.043997318 -0.07006575
0.14833042 -0.1447617 -0.20938757 0.23916823 0.10341281 -0.05220884 0.15091884 -0.112546235
-0.0561001 -0.043695122 -0.01939632 -0.11725867 -0.13257562 0.20219207 -0.22318712 -0.1858483
-0.16864228 0.07030055 0.17493787 0.23262614 0.10425678 0.13746694 0.15273397 -0.025953323
0.24085332 -0.20607992 -0.12684837 -0.11911368 0.23249464 0.19331706 0.06747189 -0.1536923
0.021662712 -0.19147936 0.2112377 0.14234182 -0.1824415 0.23600082 -0.21154194 -0.14012684
0.14612475 0.17847848 0.19083734 0.21323507 0.17420931 0.17077717 0.12857556 0.071048066
-0.17105582 0.0027084053 0.045827955 -0.008899644 -0.21789713 0.17613208 0.18411767 -0.2309428
-0.091474056 0.20475322 0.10167571 -0.22502142 -0.1670599 -0.14504807 0.24404125 -0.19476423
-0.20270024 0.011853129 0.08140907 0.05837275 -0.2584595 -0.15246807 -0.08814721 -0.20847449
0.022679316 0.19328147 0.19882256 -0.19255802 -0.11731703 -0.12987398 -0.08146159 0.21609592
0.039281934 -0.10196614 0.21359372 -0.12764274 -0.13973927 -0.11731393 -0.11916116 -0.13690151
0.23360246 0.08278396 -0.07963455 0.16308309 -0.08937041 -0.14562085 -0.15137705 -0.082132325
0.25083682 0.022609234 -0.11997822 -0.16823246 -0.21310295 0.016140252 0.08550972 -0.19512206
-0.13197485 -0.25560108 0.24827465 -0.22259058 0.040037423 -0.067684814 -0.22489835 -0.123463586
0.09434855 -0.13278286 0.17789312 0.18238966 -0.15085378 0.045430418 0.0633039 0.21311454
-0.1594812 0.20733799 0.018205099 0.099650115 0.0038407445 -0.018102407 0.11068046 0.11521682
-0.18311623 -0.015707484 -0.15441312 -0.06504085 0.036779296 0.13787591 0.17685181 -0.013675943
-0.13493666 -0.06710697 0.1523628 0.20603496 -0.16301739 0.17848724 -0.13128093 0.09678287
-0.25402743 0.22719108 0.050087415 0.1890828 -0.1780003 -0.21353063 -0.17543069 -0.26304325
-0.15353215 0.08535701 0.13621461 -0.03638026 0.0059269965 -0.1336669 -0.22512522 -0.17558908
-0.030822113 -0.021363944 0.022990733 0.0053378344 0.030720651 0.1598427 0.035620958 -0.23578095
0.015843749 0.07563713 0.09595138 0.023541927 -0.06188345 0.048983913 0.11970576 -0.024565903
0.19362456 -0.04677495 0.21740484 0.045993783 -0.064059734 -0.12821232 0.1462369 0.18064064
-0.22778608 -0.11713679 0.10780996 0.19897567 0.052723333 0.059761044 0.08102926 0.07536249
0.24926825 -0.009726839 -0.009549251 0.0012885034 -0.13798435 0.014993637 0.05859843 -0.020539582
-0.21553582 -0.16198051 -0.07267045 -0.20216443 0.19593479 0.10333697 -0.21809734 0.1845241
0.029455991 0.055369243 -0.063062385 -0.2291141 -0.0785949 -0.15098572 0.20892319 0.0733411
0.17968604 -0.15950276 -0.08345953 -0.16496539 0.22867094 0.031455066 -0.13055494 0.16082326
-0.12824991 -0.05819583 0.16970217 0.0020103776 -0.24437363 -0.13393271 -0.21534947 -0.16293788
-0.13138062 0.19992518 -0.079271 -0.08590939 -0.1990921 0.12608501 0.22938606 -0.21516971
-0.039605573 -0.19884822 -0.03336851 0.06482065 0.054356217 0.17094806 -0.0145332515 0.02430304
00000000: a2e4 51be c035 b3bc 0072 99ba 30dd 21be
00000010: a0af 04bc 923b 6cbe 8836 34bd a27e 8fbd
00000020: eee3 173e 693c 14be b269 56be 84e8 743e
00000030: 18ca d33d f0d8 55bd 788a 1a3e a47e e6bd
00000040: 38c9 65bd a8f9 32bd 08e5 9ebc 5025 f0bd
00000050: e7c1 07be 700b 4f3e 2a8b 64be 044f 3ebe
00000060: 90b0 2cbe bcf9 8f3d ea22 333e 8c35 6e3e
00000070: 9484 d53d 22c4 0c3e 4b66 1c3e 109c d4bc
00000080: 41a2 763e 9d06 53be 8ae4 01be e0f1 f3bd
00000090: 1313 6e3e e8f4 453e b42e 8a3d 8461 1dbe
000000a0: 0076 b13c 2a13 44be b24e 583e 0ec2 113e
000000b0: f2d1 3abe 33aa 713e 739e 58be 697d 0fbe
000000c0: baa1 153e 10c3 363e dd6a 433e 4b5a 5a3e
000000d0: ed63 323e 36e0 2e3e 50a9 033e a681 913d
000000e0: 4229 2fbe 807f 313b 18b6 3b3d d0cf 11bc
000000f0: 6d20 5fbe f85b 343e 5889 3c3e 457c 6cbe
00000100: c056 bbbd d4aa 513e 5b3b d03d 046c 66be
00000110: c011 2bbe 7b87 14be f3e5 793e 4670 47be
00000120: a790 4fbe a033 423c ccb9 a63d 4418 6f3d
00000130: ce54 84be 9720 1cbe 8686 b4bd 567a 55be
00000140: f9c9 b93c 94eb 453e 2498 4b3e ee2d 45be
00000150: e943 f0bd affd 04be 56d5 a6bd 4048 5d3e
00000160: 18e6 203d a0d3 d0bd 50b8 5a3e c7b4 02be
00000170: d017 0fbe 4942 f0bd c40a f4bd e92f 0cbe
00000180: 7c35 6f3e a38a a93d 7017 a3bd 41ff 263e
00000190: d507 b7bd a21d 15be 9602 1bbe fe34 a8bd
000001a0: af6d 803e 0037 b93c 24b7 f5bd 2145 2cbe
000001b0: a937 5abe 9038 843c b81f af3d 14ce 47be
000001c0: 6a24 07be 25de 82be b63b 7e3e c9ee 63be
000001d0: 48fe 233d 569e 8abd c14b 66be 7ada fcbd
000001e0: d039 c13d 3bf8 07be 9d29 363e 5bc4 3a3e
000001f0: 6a79 1abe 3f15 3a3d 7aa5 813d b33a 5a3e
00000200: 0a4f 23be 6950 543e dc22 953c 5c15 cc3d
00000210: 00b5 7b3b 804b 94bc 70ac e23d ccf6 eb3d
00000220: d282 3bbe fbac 80bc 791e 1ebe 2334 85bd
00000230: e3a5 163d 582f 0d3e a418 353e 1011 60bc
00000240: d62c 0abe 616f 89bd fe04 1c3e d4fa 523e
00000250: 08ee 26be 5cc5 363e 826e 06be 1936 c63d
00000260: e20f 82be c7a4 683e 7628 4d3d ec9e 413e
00000270: b645 36be c6a7 5abe 1aa4 33be 9bad 86be
00000280: 8837 1dbe a8cf ae3d d87b 0b3e 7803 15bd
00000290: 4037 c23b fadf 08be 3a87 66be a0cd 33be
000002a0: a87e fcbc 7003 afbc 1057 bc3c 00e9 ae3b
000002b0: e0a9 fb3c cead 233e 48e7 113d 9070 71be
000002c0: c0ca 813c a4e7 9a3d 2882 c43d 00db c03c
000002d0: 8079 7dbd 5ba3 483d 4b28 f53d 6f3e c9bc
000002e0: 8445 463e 1797 3fbd 609f 5e3e fa63 3c3d
000002f0: c031 83bd 174a 03be 20bf 153e dcf9 383e
00000300: c140 69be 6ae5 efbd 78cb dc3d 47c0 4b3e
00000310: 6cf4 573d ffc7 743d abf2 a53d a657 9a3d
00000320: 2d40 7f3e 525d 1fbc 7674 1cbc 00e3 a83a
00000330: c54b 0dbe dfa7 753c e804 703d a042 a8bc
00000340: 6cb5 5cbe 38de 25be 3fd4 94bd 3104 4fbe
00000350: 21a3 483e 55a2 d33d e954 5fbe e3f3 3c3e
00000360: b14d f13c dcca 623d da26 81bd e39c 6abe
00000370: 5df6 a0bd 009c 1abe f6ef 553e dc33 963d
00000380: 9eff 373e b154 23be d4ec aabd b0ec 28be
00000390: b728 6a3e 07d7 003d 32b0 05be daae 243e
000003a0: f253 03be c05e 6ebd 68c6 2d3e 8ac0 033b
000003b0: 153d 7abe a825 09be 9284 5cbe 30d9 26be
000003c0: a488 06be 30b9 4c3e d658 a2bd 43f1 afbd
000003d0: cdde 4bbe 6e1c 013e 2ee4 6a3e 7355 5cbe
000003e0: 7439 22bd de9e 4bbe 6bad 08bd b0c0 843d
000003f0: a0a4 5e3d 020d 2f3e e01c 6ebc 2b17 c73c

shared_fc.0.bias f4 [128]
0.18306848 0.17211035 -0.1755141 -0.02966527 0.15985774 -0.06627195 -0.08835258 0.070400596
0.24052145 0.080101766 0.09969137 0.13337621 -0.014896834 0.17669658 0.1369862 0.062322367
-0.15554295 0.1848502 0.04692132 0.23301527 -0.10048318 0.043059535 0.21919118 0.1347037
0.13960867 -0.078759424 -0.09543525 0.12412179 -0.12118758 -0.20313017 0.2027918 0.1442739
0.05698596 0.022854585 -0.25459906 -0.02210068 0.2224751 -0.18540935 -0.1554752 0.24579404
-0.00872798 -0.059457704 -0.17547938 -0.08982205 0.19291139 0.24148013 -0.16008136 0.2656765
0.22708924 -0.22515814 -0.15148349 -0.027268054 -0.056145627 -0.12914704 -0.1293433 0.08509108
0.014088376 0.08307189 -0.027622104 0.18256494 0.07363088 -0.21573168 -0.22121838 0.0027864398
0.1796397 -0.0603334 -0.019500367 -0.10231302 -0.08269283 0.09124146 0.18504502 -0.1072339
-0.21619602 -0.07601087 0.19999559 0.037540253 -0.20353167 0.080298 0.08967929 0.24513867
-0.09789275 0.1552381 0.09702502 -0.23512407 0.080228396 0.24999118 0.1481402 0.16038686
-0.00043700653 -0.21246442 0.02839694 0.17737184 -0.22085866 0.049592473 0.15607375 0.025338976
0.035220325 0.1505519 0.24036407 0.09744154 -0.16774487 0.009178849 -0.0247627 -0.13317338
-0.07312103 -0.10303172 -0.17546175 0.106351264 0.055506904 0.053816915 -0.024662763 0.026889423
-0.065816544 0.25300026 0.021997249 -0.03526101 -0.19886918 0.007758936 0.056670763 0.122759625
0.21001598 -0.2368954 0.24517079 -0.20021488 0.06560345 -0.13887562 -0.063974544 0.17535962
00000000: 4e76 3b3e b23d 303e f8b9 33be 9504 f3bc
00000010: bfb1 233e 97b9 87bd 33f2 b4bd 302e 903d
00000020: 414b 763e 650c a43d fd2a cc3d c693 083e
00000030: da11 74bc f3ef 343e 1c46 0c3e bd45 7f3d
00000040: a746 1fbe 5f49 3d3e 9230 403d 8e9b 6e3e
00000050: 20ca cdbd 325f 303d a773 603e c4ef 093e
00000060: 93f5 0e3e 9f4c a1bd 8e73 c3bd 9133 fe3d
00000070: 3231 f8bd 5b01 50be a7a8 4f3e 8abc 133e
00000080: 1c6a 693d 8a39 bb3c cf5a 82be 7c0c b5bc
00000090: 83d0 633e f3db 3dbe e434 1fbe 6fb1 7b3e
000000a0: cdff 0ebc ec89 73bd deb0 33be 9ff4 b7bd
000000b0: 908a 453e 9146 773e 5eec 23be c006 883e
000000c0: 158a 683e db8f 66be 7d1e 1bbe 4161 dfbc
000000d0: f5f8 65bd 1f3f 04be 9272 04be 3b44 ae3d
000000e0: efd2 663c 9821 aa3d c047 e2bc 4ef2 3a3e
000000f0: c9cb 963d c4e8 5cbe 1287 62be b49c 363b
00000100: 78f3 373e 2820 77bd 3cbf 9fbc 7d89 d1bd
00000110: dc5a a9bd cddc ba3d 717c 3d3e 729d dbbd
00000120: 7d62 5dbe 96ab 9bbd a5cb 4c3e cfc3 193d
00000130: 9b6a 50be 4773 a43d c7a9 b73d a205 7b3e
00000140: fe7b c8bd bdf6 1e3e 0eb5 c63d 5dc4 70be
00000150: c94e a43d b0fd 7f3e 11b2 173e 743c 243e
00000160: 061e e5b9 4690 59be b3a0 e83c f7a0 353e
00000170: c628 62be 7a21 4b3d ccd1 1f3e af93 cf3c
00000180: 3043 103d 472a 1a3e 0022 763e 6e8f c73d
00000190: 50c5 2bbe e262 163c 25db cabc 9a5e 08be
000001a0: 7bc0 95bd 4b02 d3bd 3fac 33be b1ce d93d
000001b0: 355b 633d 206f 5c3d 9009 cabc 3547 dc3c
000001c0: d3ca 86bd 4089 813e 9333 b43c d96d 10bd
000001d0: 5da4 4bbe ac3e fe3b 9a1f 683d 6669 fb3d
000001e0: 6e0e 573e b594 72be 0d0e 7b3e 2105 4dbe
000001f0: 1a5b 863d 6935 0ebe 1605 83bd 7991 333e

shared_fc.2.weight f4 [128, 128]
0.06956824 0.0047674477 0.06852513 0.06324079 0.040294234 0.0064635426 0.0283423 -0.05746197
0.021804731 -0.07174844 0.0038925637 -0.08420293 -0.008349917 -0.08378365 -0.010213771 -0.050786585
-0.015791662 0.06335288 -0.048567913 -0.042751558 -0.019106232 -0.079886094 0.007421714 0.0399657
0.011911213 -0.086704195 -0.06733166 -0.015572095 -0.0696747 -0.05578386 -0.069892704 0.04688284
-0.07575091 0.059451323 -0.055377334 -0.06253421 0.069246136 0.0817038 -0.082441606 0.07262888
-0.04049271 -0.059592538 -0.032074932 0.08426127 -0.04364282 0.050759487 -0.008213729 -0.090066195
-0.05189954 0.044850763 -0.049093038 -0.0150329415 0.0029094112 0.0039919103 -0.025607904 0.059764974
-0.007974161 0.054683693 0.03292734 -0.026385983 -0.051942136 0.0035980865 -0.08046411 0.016101621
-0.04850351 0.059627004 -0.041970696 0.0038168372 -0.015919933 0.023067959 -0.046247825 0.008570695
-0.06674512 0.08198687 -0.0014535189 -0.06704923 -0.0036333008 -0.062383633 0.070858024 -0.0107469475
0.055920593 -0.013425365 0.009580567 0.028644826 -0.013673604 0.07357148 -0.046139907 -0.011535995
-0.03549909 0.043760832 -0.057885133 -0.054981146 0.07463616 -0.003565833 0.0521575 -0.043594297
-0.07935703 -0.04873947 -0.06478566 0.027087828 -0.077347115 0.026297832 -0.03372791 -0.04110442
0.0251389 -0.037927054 0.009698791 -0.04713033 -0.015891626 -0.0746089 -0.04834435 0.07254665
0.014780149 -0.02195064 -0.05665006 0.029634006 0.04155367 -0.016472058 0.071928374 0.046016663
0.012507214 0.044643633 0.006275147 0.008632772 0.08769696 0.050077453 -0.074722745 -0.01337862
0.039940514 -0.03784127 -0.0031891053 0.022984399 -0.044502627 0.07339212 -0.03636395 0.034617998
0.0319948 -0.029180886 -0.017526507 -0.068100765 -0.02992431 0.042558316 -0.07820634 -0.006010059
0.074188955 0.0031924292 0.04082248 0.025223862 -0.04708164 -0.0057502063 0.016165705 0.013198107
0.022617128 0.06384225 0.013569454 -0.059966795 -0.051979244 -0.083612815 0.07510404 0.03929295
-0.06429602 -0.0011610042 0.02462391 0.027996773 -0.057545036 0.042253055 0.0013296455 0.046860084
0.01477396 -0.0133096995 -0.054489363 0.019557828 -0.07902988 -0.0015840456 -0.06544503 0.0028433267
0.022139922 -0.052369747 -0.061017465 0.061019976 0.05619916 -0.05303447 -0.042647466 0.02392188
-0.03115558 0.004023389 -0.00013396144 -0.05065088 0.06728708 0.009158126 -0.027351348 0.0007903313
-0.0017454252 0.022686243 -0.071855 -0.08441491 -0.027435692 0.012370228 -0.013357334 0.014540311
0.008073622 0.004155894 -0.017393539 -0.063867904 0.009658234 0.019103998 0.0008273636 -0.0010450359
-0.040551335 -0.05092444 0.032620024 -0.04708098 -0.07362304 -0.015583193 0.03937079 0.00018575042
-0.014652287 -0.021755531 0.049683735 -0.05812162 -0.053720042 -0.061292335 -0.031790942 0.013639416
0.023242483 0.07146403 -0.0016997904 -0.018425293 0.02126466 0.014508267 -0.05243262 0.0621168
-0.03474577 0.078657374 0.018498275 0.039870165 -0.0754074 0.07067352 0.074290134 0.018348277
-0.06596894 -0.012227607 0.08085435 -0.03639854 -0.06669945 0.06281101 0.012635804 -0.0029355108
0.011552101 0.08206654 -0.041261494 -0.023888126 -0.0022319555 0.0066661695 -0.07242013 0.063059464
00000000: cb79 8e3d 4038 9c3b e756 8c3d 6384 813d
00000010: 910b 253d 20cc d33b 1c2e e83c 3e5d 6bbd
00000020: d69f b23c d9f0 92bd 621a 7f3b 9672 acbd
00000030: 17ce 08bc c396 abbd a957 27bc 9805 50bd
00000040: 845d 81bc 28bf 813d 26ef 46bd 421c 2fbd
00000050: ac84 9cbc 529b a3bd d931 f33b 13b3 233d
00000060: 4027 433c f891 b1bd 2ee5 89bd 1a22 7fbc
00000070: 9cb1 8ebd 9e7d 64bd e823 8fbd 3908 403d
00000080: 4b23 9bbd 3b83 733d 58d3 62bd f011 80bd
00000090: ebd0 8d3d 5254 a73d 25d7 a8bd 73be 943d
000000a0: afdb 25bd 4e17 74bd 0161 03bd 2c91 ac3d
000000b0: d0c2 32bd 2ee9 4f3d e092 06bc a074 b8bd
000000c0: 9d94 54bd 6fb5 373d c815 49bd ba4c 76bc
000000d0: d2ab 3e3b 92ce 823b abc7 d1bc 1ecc 743d
000000e0: 0ea6 02bc 02fc 5f3d d2de 063d 6b27 d8bc
000000f0: 47c1 54bd e0cd 6b3b 5eca a4bd 8ce7 833c
00000100: 9eab 46bd 723b 743d 77e9 2bbd e723 7a3b
00000110: 856a 82bc 04f9 bc3c 5c6e 3dbd 1a6c 0c3c
00000120: aab1 88bd bbe8 a73d 0084 beba 1b51 89bd
00000130: ac1c 6ebb fb85 7fbd 031e 913d f713 30bc
00000140: fe0c 653d 10f6 5bbc cff7 1c3c 8ea8 ea3c
00000150: 4007 60bc a5ac 963d 33fd 3cbd 7801 3dbc
00000160: 7e67 11bd 8f3e 333d f618 6dbd e933 61bd
00000170: d8da 983d c0b0 69bb 1aa3 553d ef8f 32bd
00000180: f085 a2bd 0aa3 47bd 58ae 84bd 4be7 dd3c
00000190: 2a68 9ebd 8d6e d73c 4726 0abd 1c5d 28bd
000001a0: 18f0 cd3c 6659 1bbd aee7 1e3c bc0b 41bd
000001b0: 282f 82bc 8dcc 98bd ba04 46bd 5793 943d
000001c0: 7028 723c d4d1 b3bc e509 68bd 04c3 f23c
000001d0: 2e34 2a3d 69f0 86bc 2f4f 933d f87b 3c3d
000001e0: 0feb 4c3c 3edc 363d c09f cd3b 7870 0d3c
000001f0: 779a b33d 041e 4d3d 3d08 99bd 0032 5bbc
00000200: aa98 233d 73ff 1abd 4f00 51bb c749 bc3c
00000210: 6348 36bd 9c4e 963d 5ef2 14bd 9acb 0d3d
00000220: fb0c 033d c10c efbc c093 8fbc 6a78 8bbd
00000230: d423 f5bc a151 2e3d a52a a0bd 07f0 c4bb
00000240: 61f0 973d 1338 513b 7935 273d 46a2 ce3c
00000250: aed8 40bd 3a6c bcbb f16d 843c df3c 583c
00000260: 8e47 b93c babf 823d 6a52 5e3c be9f 75bd
00000270: 30e8 54bd 323d abbd 26d0 993d a5f1 203d
00000280: a2ad 83bd d62c 98ba 15b8 c93c 7d59 e53c
00000290: 58b4 6bbd 8a11 2d3d 8047 ae3a 5cf0 3f3d
000002a0: 7b0e 723c ed10 5abc 3d30 5fbd bd37 a03c
000002b0: 6bda a1bd c09f cfba 0b08 86bd 1b57 3a3b
000002c0: c85e b53c a981 56bd 73ed 79bd 15f0 793d
000002d0: 1731 663d ac3a 59bd 1caf 2ebd d2f7 c33c
000002e0: fd39 ffbc a2d6 833b 0078 0cb9 4c77 4fbd
000002f0: cfcd 893d f70b 163c ef0f e0bc 3c2e 4f3a
00000300: c0c6 e4ba 80d8 b93c b728 93bd b9e1 acbd
00000310: d1c0 e0bc 7fac 4a3c b8d8 5abc 7c3a 6e3c
00000320: 3a47 043c 2a2e 883b e57c 8ebc 2dcd 82bd
00000330: 923d 1e3c fd7f 9c3c 6ee3 583a 96f9 88ba
00000340: 2819 26bd 2596 50bd 939c 053d fcd7 40bd
00000350: adc7 96bd a650 7fbc 4443 213d 00c6 4239
00000360: 2510 70bc a838 b2bc 2c81 4b3d f010 6ebd
00000370: 8c09 5cbd ac0d 7bbd 3837 02bd db77 5f3c
00000380: 0567 be3c bc5b 923d 80cb deba a4f0 96bc
00000390: 3933 ae3c 15b4 6d3c 96c3 56bd 306e 7e3d
000003a0: 9551 0ebd 1e17 a13d b289 973c e64e 233d
000003b0: 326f 9abd 47bd 903d 6d25 983d 204f 963c
000003c0: b91a 87bd 4d56 48bc f796 a53d a316 15bd
000003d0: b999 88bd 0fa3 803d 6706 4f3c b361 40bb
000003e0: 0645 3d3c 8112 a83d d001 29bd 08b1 c3bc
000003f0: 0046 12bb e26f da3b 0151 94bd 5225 813d

shared_fc.2.bias f4 [128]
-0.039731286 -0.018657325 -0.022349581 -0.0901414 0.07966771 0.017952835 0.045939054 -0.07802716
0.010795275 -0.05302519 -0.09010968 -0.06125663 0.032439217 0.05980695 0.015597083 -0.07857756
-0.01824326 0.028012272 -0.022130713 0.013041007 0.08071994 -0.011002918 0.04449222 0.08202154
0.012625301 -0.009316069 0.049878612 0.06104045 0.0917631 -0.04817375 -0.09789071 0.013502917
-0.014953698 0.007980436 -0.073109694 0.02605579 0.049503513 -0.036011793 0.008203383 -0.062622905
-0.044407997 -0.0072958567 0.0077240593 -0.014342516 0.029675582 0.075823724 0.059067983 0.017448254
-0.065701306 0.08909056 -0.06827229 -0.0028443187 -0.04224648 -0.045996547 -0.055168044 -0.014617363
0.040802233 -0.02228716 -0.07806744 0.044219527 0.09283642 -0.09197561 -0.02294786 -0.06567027
0.08416871 0.021049049 -0.06718258 0.04264347 -0.03990161 -0.033187144 0.07703638 0.08266489
0.005004859 0.03470269 0.04170975 0.029334266 0.075555734 0.019795865 -0.020117879 -0.051579468
-0.044465326 0.0047993483 0.08199472 -0.037340697 -0.044589743 0.082189515 0.062349275 -0.03831963
0.057657007 0.029577628 -0.035706025 -0.08330508 0.025884854 0.07795135 -0.016547835 0.037248936
0.07853762 -0.06684709 0.030312464 0.040793974 0.028917745 -0.049295347 -0.05968624 -0.01999895
0.0844196 -0.039230265 0.04560674 -0.064972624 0.03619319 0.026486292 0.045697533 0.071738295
0.07454497 0.06369106 -0.023444219 -0.08516458 -0.090162374 -0.077049 -0.037827976 0.046113756
-0.043777954 0.04106506 0.051339 0.053007536 0.02891847 -0.064809956 -0.009876181 -0.06432618
00000000: 46bd 22bd 3fd7 98bc 7816 b7bc 0e9c b8bd
00000010: d328 a33d d311 933c 972a 3c3d b4cc 9fbd
00000020: aade 303c f130 59bd 6d8b b8bd 3be8 7abd
00000030: fcde 043d 22f8 743d e88a 7f3c 46ed a0bd
00000040: e472 95bc fe79 e53c 784b b5bc f3a9 553c
00000050: 7f50 a53d 9545 34bc 793d 363d e9fa a73d
00000060: 5ada 4e3c 6da2 18bc 844d 4c3d 8d05 7a3d
00000070: 4bee bb3d d751 45bd ed7a c8bd 573b 5d3c
00000080: 5b00 75bc 60c0 023c 89ba 95bd f472 d53c
00000090: 32c4 4a3d 1a81 13bd 7b67 063c 7040 80bd
000000a0: 29e5 35bd 1512 efbb 1b1a fd3b dffc 6abc
000000b0: 351a f33c 7849 9b3d 45f1 713d a4ef 8e3c
000000c0: 688e 86bd 1d75 b63d 58d2 8bbd c067 3abb
000000d0: a50a 2dbd e066 3cbd e3f7 61bd aa7d 6fbc
000000e0: 3e20 273d 9093 b6bc d2e1 9fbd 891f 353d
000000f0: 0521 be3d b55d bcbd 27fd bbbc 227e 86bd
00000100: a560 ac3d 0e6f ac3c 0597 89bd ebaa 2e3d
00000110: df6f 23bd 3eef 07bd 40c5 9d3d 364c a93d
00000120: cdff a33b 6824 0e3d d8d7 2a3d 6a4e f03c
00000130: f7bc 9a3d f02a a23c 40ce a4bc fe44 53bd
00000140: 4621 36bd da43 9d3b d9ec a73d 8ff2 18bd
00000150: bca3 36bd fa52 a83d f461 7f3d 0bf5 1cbd
00000160: c129 6c3d c84c f23c 7b40 12bd db9b aabd
00000170: 790c d43c f5a4 9f3d 538f 87bc 5792 183d
00000180: 55d8 a03d 21e7 88bd d851 f83c 9517 273d
00000190: e8e4 ec3c ebe9 49bd 8f79 74bd d7d4 a3bc
000001a0: 2fe4 ac3d eaaf 20bd 22ce 3a3d 5e10 85bd
000001b0: 4f3f 143d c8f9 d83c 562d 3b3d 87eb 923d
000001c0: 09ab 983d 7570 823d 170e c0bc c46a aebd
000001d0: 0da7 b8bd decb 9dbd 82f1 1abd c7e1 3c3d
000001e0: 8350 33bd d633 283d d848 523d 6e1e 593d
000001f0: 6de6 ec3c 15bb 84bd b5cf 21bc 72bd 83bd

banker_fc.weight f4 [5, 128]
0.013048003 0.05298286 0.046059705 -0.06564792 0.0009431957 -0.06581839 0.040652256 0.088247254
-0.03900967 -0.08189771 0.044343833 0.04484862 -0.073633865 -0.033880416 0.05294563 0.001329273
0.03072723 -0.020831877 -0.020148493 0.044383388 0.0343092 0.029109322 0.06747953 -0.08412335
-0.046991386 0.059317 0.07832329 -0.06565832 -0.043205556 -0.055819303 -0.00628831 -0.03542011
0.06372823 0.069878474 -0.062351372 -0.0061032944 -0.065228455 -0.05154139 0.019573731 -0.08071606
-0.081276454 0.053208277 -0.022363814 -0.032731544 0.07760397 0.021179652 -0.05932758 0.015237406
0.0085339695 -0.041556858 0.006936866 0.037666418 0.07875423 0.06488228 0.06875194 -0.067568265
0.04085673 -0.04981098 -0.029269889 -0.0074143587 0.09372243 0.017350985 -0.036987286 0.08204912
0.033286434 -0.07490495 0.07168437 0.077195436 -0.06540183 0.047001548 -0.081454135 0.025782939
-0.010371294 -0.022612626 0.045910794 0.0788615 -0.074894734 -0.0586143 -0.025244936 0.03585773
0.012722656 0.091005564 0.020150075 0.051034622 -0.03915002 0.007904284 0.0065101394 -0.056638326
0.039665557 -0.037050344 -0.0853612 0.09480159 -0.019898115 0.090643466 -0.054195933 0.03000329
0.048728164 -0.011323821 0.07540906 -0.0011197984 -0.084442325 -0.020759923 -0.00030675792 -0.035346285
0.09103436 -0.05837942 0.0803902 0.0007586914 -0.02509386 -0.044986725 0.0044766366 -0.00024656206
0.05621635 8.672476e-06 0.0012873233 -0.05935002 -0.047202818 -0.008856157 -0.08452039 0.0060668983
0.07678404 0.0427429 -0.01516878 0.044916622 -0.061172508 0.05955484 0.09623209 0.0061765444
0.0062163146 0.06716426 0.022767067 0.012535635 -0.08704394 -0.02972641 -0.0058377846 -0.022930833
0.047926273 0.040033095 0.032361947 -0.035328902 -0.0035039564 -0.04005255 0.028460655 0.03755326
0.08746988 -0.0155805405 0.07626777 -0.0034477343 0.005459957 -0.047013327 0.082509816 0.08699406
-0.072156504 -0.001635276 -0.039664336 0.051414438 -0.04621343 0.083767004 0.053624745 0.023755874
0.007145585 0.07897046 0.019642055 0.00022840082 -0.0888548 0.07717696 0.014247761 -0.08267301
0.00052150624 -0.007165912 0.019305948 0.05250618 0.010254364 0.05884802 0.081133604 -0.07636543
0.037988834 -0.03379316 0.02211514 -0.08829469 -0.034418933 -0.012283998 0.019676976 -0.026072996
0.053895716 -0.015215769 0.017916203 0.07648661 0.047589757 0.054980434 0.049364477 0.06972791
0.07093332 -0.044651113 -0.0816849 -0.0013577744 -0.08252577 0.039036445 0.0013730474 -0.035443068
-0.08076277 -0.061268967 -0.03831346 0.062150005 0.059321065 -0.029646805 -0.0820907 -0.03208152
-0.055045415 -0.0006679788 0.079797395 -0.014436267 0.031298753 -0.011201585 0.062687285 -0.05624799
-0.059791274 -0.06442405 -0.029720817 0.061674822 -0.040450346 -0.055896886 -0.04782083 0.071232356
-0.07814871 0.07828747 -0.0005232617 0.057961423 -0.058836695 -0.024251046 -0.03546413 0.027332766
-0.07608347 0.02459734 -0.022132343 0.013624974 0.073730774 0.044830684 -0.0063707903 0.050346114
0.06933637 0.023998566 0.028486654 0.011276773 -0.01064666 -0.07241668 -0.0016888678 -0.08616884
0.07148551 0.07813614 0.07202616 -0.026329864 -0.02792093 -0.06182604 -0.026836962 0.05900946
00000000: 4bc7 553c 8e04 593d 1aa9 3c3d 6b72 86bd
00000010: cb40 773a cbcb 86bd fb82 263d faba b43d
00000020: 9bc8 1fbd fdb9 a7bd e1a1 353d 30b3 373d
00000030: 5acd 96bd 31c6 0abd 84dd 583d 003b ae3a
00000040: acb7 fb3c 9da7 aabc 740e a5bc 5bcb 353d
00000050: ce87 0c3d ac76 ee3c b532 8a3d dd48 acbd
00000060: 0a7a 40bd 62f6 723d f667 a03d df77 86bd
00000070: 4ff8 30bd c8a2 64bd 2b0e cebb ad14 11bd
00000080: f283 823d 721c 8f3d 2764 7fbd 25fe c7bb
00000090: 7f96 85bd 111d 53bd 1759 a03c 764e a5bd
000000a0: 4574 a6bd ecf0 593d 5134 b7bc 8311 06bd
000000b0: d5ee 9e3d f380 ad3c 7a01 73bd 50a6 793c
000000c0: 10d2 0b3c 8637 2abd a64e e33b 1a48 1a3d
000000d0: e649 a13d 00e1 843d d1cd 8c3d 3b61 8abd
000000e0: 6359 273d 9906 4cbd 68c7 efbc 26f4 f2bb
000000f0: 8cf1 bf3d a723 8e3c fb7f 17bd 5e09 a83d
00000100: 5b57 083d c467 99bd 41cf 923d a418 9e3d
00000110: 65f1 85bd b284 403d 6dd1 a6bd be36 d33c
00000120: 5cec 29bc 1d3e b9bc f50c 3c3d 2382 a13d
00000130: 6962 99bd 8c15 70bd 78ce cebc 8edf 123d
00000140: b072 503c 2061 ba3d c511 a53c ae09 513d
00000150: c55b 20bd f880 013c 0253 d53b 97fd 67bd
00000160: 5a78 223d 1ac2 17bd dad1 aebd 5627 c23d
00000170: 5f01 a3bc 48a3 b93d 8efc 5dbd 76c9 f53c
00000180: 2f97 473d 8c87 39bc 1170 9a3d 33c6 92ba
00000190: 19f0 acbd b710 aabc 5ad4 a0b9 44c7 10bd
000001a0: 3970 ba3d 421f 6fbd 9ea3 a43d ebe2 463a
000001b0: a491 cdbc 0044 38bd c0b0 923b 0045 81b9
000001c0: 1e43 663d 0080 1137 67bb a83a 0219 73bd
000001d0: be57 41bd 6a19 11bc 0719 adbd d5cc c63b
000001e0: f340 9d3d 2e13 2f3d 7a86 78bc 7efa 373d
000001f0: 0690 7abd c7ef 733d 5415 c53d 9c64 ca3b
00000200: 3ab2 cb3b 6a8d 893d 0082 ba3c 4462 4d3c
00000210: 1844 b2bd cd84 f3bc e34a bfbb 71d9 bbbc
00000220: 574e 443d bef9 233d f68d 043d 0ab5 10bd
00000230: a2a2 65bb 250e 24bd 5226 e93c 72d1 193d
00000240: 6923 b33d 8645 7fbc 4732 9c3d 62f3 61bb
00000250: 70e9 b23b 0c91 40bd e8fa a83d f129 b23d
00000260: cac6 93bd c256 d6ba 1277 22bd f297 523d
00000270: 4b4a 3dbd 098e ab3d 9fa5 5b3d ae9b c23c
00000280: 8325 ea3b 44bb a13d 60e8 a03c e17e 6f39
00000290: 81f9 b5bd f40e 9e3d 716f 693c 7850 a9bd
000002a0: b1b5 083a 07d0 eabb 8227 9e3c b810 573d
000002b0: ec01 283c 9f0a 713d 6029 a63d 7b65 9cbd
000002c0: 2e9a 1b3d b26a 0abd cf2a b53c d9d3 b4bd
000002d0: defa 0cbd d242 49bc 9c31 a13c 0997 d5bc
000002e0: c1c1 5c3d 904b 79bc 00c5 923c 03a5 9c3d
000002f0: 7aed 423d 2a33 613d 6832 4a3d 82cd 8e3d
00000300: 7d45 913d 16e4 36bd 6a4a a7bd 59f7 b1ba
00000310: 4503 a9bd aee4 1f3d d3f7 b33a c02c 11bd
00000320: f366 a5bd 2bf5 7abd 93ee 1cbd 0191 7e3d
00000330: a5fa 723d dbdd f2bc 2b1f a8bd e967 03bd
00000340: 4d77 61bd 4c1b 2fba d16c a33d 1886 6cbc
00000350: 1f33 003d da86 37bc 3162 803d 4b64 66bd
00000360: b2e7 74bd c2f0 83bd 1279 f3bc bd9e 7c3d
00000370: 43af 25bd 22f4 64bd c6df 43bd 45e2 913d
00000380: 6e0c a0bd 2e55 a03d 802b 09ba f568 6d3d
00000390: bffe 70bd 21aa c6bc d642 11bd f7e8 df3c
000003a0: a6d1 9bbd 5c80 c93c e34e b5bc 483b 5f3c
000003b0: 2900 973d 61a0 373d 10c2 d0bb ba37 4e3d
000003c0: 3a00 8e3d a498 c43c d85c e93c 37c2 383c
000003d0: 546f 2ebc 324f 94bd 005d ddba 4a79 b0bd
000003e0: ff66 923d d705 a03d 7482 933d bab1 d7bc
000003f0: 6fba e4bc 4d3d 7dbd 30d9 dbbc e7b3 713d

banker_fc.bias f4 [5]
-0.060546875 0.065206215 0.061350167 0.0863413 0.0662784
00000000: 0000 78bd d68a 853d 504a 7b3d b5d3 b03d
00000010: f8bc 873d

bet_fc.weight f4 [5, 128]
-0.030720375 -0.016447606 0.07470118 0.06849304 0.06175524 -0.015664661 -0.03472952 -0.025833078
0.022050269 0.059035413 -0.07690795 -0.0033502278 0.08032197 0.047349315 -0.004647455 0.04514339
-0.077071026 0.06580105 -0.060232386 0.0027970243 -0.01733753 -0.016097361 0.014596991 0.046397932
-0.028959593 -0.08372303 0.07827672 0.008852974 0.04440294 0.019785626 -0.027108846 -0.020025779
-0.016951166 0.09824215 0.011776842 0.045343503 0.07164777 -0.02279407 -0.005987506 -0.015597859
0.01651649 -0.009328222 0.023187514 -0.0218236 0.01713406 0.03446174 -0.07721911 0.07468007
-0.002449803 0.052261878 -0.028756775 0.020017043 0.031866163 -0.01620113 -0.08498214 0.038229182
0.052801166 -0.03337733 0.0834542 0.0004886281 0.088303454 -0.04417349 -0.012717867 0.061371684
0.0076418305 0.001140077 0.049500156 0.02156889 0.067193575 0.04399725 0.020192113 -0.061344698
0.080224484 -0.0076007484 0.0970191 0.030905409 -0.008243669 0.08146841 0.052018993 0.04348824
-0.04879602 -0.045553472 -0.06641714 0.03495162 -0.0088031925 0.040858228 0.010704903 -0.03705474
0.09597968 -0.071755886 0.06950006 0.016785357 -0.008370474 0.081610635 -0.05623724 0.060536124
-0.05557502 -0.04113892 -0.05381515 0.050116844 -0.076751046 -0.02793405 -0.048789997 0.07618223
-0.06475649 0.052861296 -0.0163885 0.07631106 0.02568459 -0.050266705 0.058507226 -0.08412236
-0.015599994 0.05421018 0.027698586 -0.021972973 0.05538926 -0.06632848 -0.03835118 0.060606476
-0.029555958 -0.055792827 -0.068994336 -0.026900277 -0.003401611 -0.010621284 0.030988008 0.06357424
-0.014092173 0.06819712 -0.077824555 -0.032418586 0.005084608 -0.009614342 -0.06498898 -0.08554651
0.090231635 0.062974356 -0.0045557814 -0.080398865 0.032145463 0.03484677 -0.040700585 0.06652018
0.0040752515 0.05666528 0.044439174 0.015205608 -0.08239976 0.07280921 0.044103045 0.004580058
-0.029122489 0.0055922642 -0.049432993 -0.010753614 0.009531436 -0.010571515 0.0766322 -0.015753146
-0.05117278 0.05110445 0.026714072 -0.014584857 0.0413284 -0.028499952 0.0016803398 -0.08141565
-0.037781432 -0.0044789515 0.021107953 0.058467906 0.02900773 -0.05213599 0.0063539725 -0.08111698
0.035200566 -0.08768298 0.032749057 -0.042815477 -0.029493783 0.028510118 -0.01959677 0.03607329
0.04395739 -0.07761645 0.07212786 -0.05473267 0.06379716 -0.08781296 0.038451497 0.073067054
0.019207241 -0.006180288 -0.08044683 0.06627482 -0.08384215 0.066236444 0.050994545 0.011808994
0.07317155 -0.0056178686 -0.027565435 -0.07066039 0.044493295 -0.058116708 -0.0049097314 0.038098224
0.026078634 -0.07229898 -0.06907322 0.052961625 -0.017152471 0.06901128 -0.044301543 0.0039905384
0.075821504 0.026410647 -0.044195518 0.0801003 0.043437812 -0.02488108 -0.033138163 -0.044583492
0.030705212 0.042420022 -0.020417511 -0.05619781 -0.043966748 -0.0044302703 0.07041775 -0.015141216
-0.030291628 -0.014479898 -0.004316914 -0.077414505 0.00026931884 0.05657587 0.029803112 2.0757318e-05
0.024639653 -0.08102727 0.0069787027 0.018195042 -0.073202245 0.061248437 0.025156714 -0.0025602065
-0.07307647 0.03754919 -0.09039366 0.030741312 0.051427383 -0.059626237 -0.0806573 -0.0047574467
00000000: 4ca9 fbbc 21bd 86bc effc 983d 1446 8c3d
00000010: 10f3 7c3d 2d53 80bc 8b40 0ebd e49f d3bc
00000020: c4a2 b43c 1ecf 713d ea81 9dbd 7f8f 5bbb
00000030: d87f a43d 5bf1 413d ae49 98bb 46e8 383d
00000040: 6ad7 9dbd b3c2 863d 3cb6 76bd 484e 373b
00000050: 7007 8ebc 9dde 83bc 3828 6f3c c20b 3e3d
00000060: ab3c edbc fb76 abbd 8c4f a03d 100c 113c
00000070: dbdf 353d 7715 a23c 5f13 debc 1a0d a4bc
00000080: 2cdd 8abc 2e33 c93d a8f3 403c 1cba 393d
00000090: 11bc 923d a1ba babc d732 c4bb 2a8e 7fbc
000000a0: 974d 873c 66d5 18bc bef3 bd3c 68c7 b2bc
000000b0: ba5c 8c3c c127 0d3d 0e25 9ebd ddf1 983d
000000c0: e08c 20bb 8d10 563d 5493 ebbc c8fa a33c
000000d0: 1886 023d 3bb8 84bc 1e0b aebd 3496 1c3d
000000e0: 0946 583d abb6 08bd 09ea aa3d 4717 003a
000000f0: 71d8 b43d 43ef 34bd 9a5e 50bc e060 7b3d
00000100: 5268 fa3b a36e 953a adc0 4a3d 3eb1 b03c
00000110: c99c 893d 7636 343d ee69 a53c 9444 7bbd
00000120: bc4c a43d b30f f9bb f3b1 c63d 572d fd3c
00000130: 7410 07bc e9d8 a63d de11 553d ba20 323d
00000140: 56de 47bd 4796 3abd b605 88bd 6e29 0f3d
00000150: 443b 10bc f55a 273d 9e63 2f3c b6c6 17bd
00000160: ff90 c43d c0f4 92bd 0c56 8e3d 7281 893c
00000170: 5024 09bc 7a23 a73d 0559 66bd baf4 773d
00000180: a2a2 63bd 4981 28bd 466d 5cbd 5247 4d3d
00000190: a72f 9dbd f3d5 e4bc 05d8 47bd 6e05 9c3d
000001a0: 0d9f 84bd 1685 583d 2d41 86bc f948 9c3d
000001b0: 7d68 d23c 76e4 4dbd 46a5 6f3d 5848 acbd
000001c0: 1e97 7fbc 7e0b 5e3d 25e8 e23c aa00 b4bc
000001d0: d9df 623d 3ad7 87bd 2016 1dbd 7f3e 783d
000001e0: 561f f2bc 0587 64bd e74c 8dbd f85d dcbc
000001f0: 90ed 5ebb e504 2ebc 90da fd3c 3633 823d
00000200: dce2 66bc efaa 8b3d 7b62 9fbd 5ac9 04bd
00000210: c99c a63b 7985 1dbc f118 85bd 0233 afbd
00000220: 5dcb b83d b3f8 803d aa48 95bb 29a8 a4bd
00000230: f6aa 033d 7dbb 0e3d a8b5 26bd bb3b 883d
00000240: b089 853b da19 683d da05 363d f120 793c
00000250: 35c1 a8bd ff1c 953d 65a5 343d 5014 963b
00000260: 4992 eebc 503f b73b 407a 4abd ed2f 30bc
00000270: bd29 1c3c 2634 2dbc 58f1 9c3d be0c 81bc
00000280: 8d9a 51bd e652 513d 78d7 da3c 53f5 6ebc
00000290: f847 293d bb78 e9bc d93e dc3a 40bd a6bd
000002a0: b4c0 1abd 2bc4 92bb 96ea ac3c 0b7c 6f3d
000002b0: 9ea1 ed3c 8c8c 55bd fc34 d03b a920 a6bd
000002c0: 782e 103d 2293 b3bd e023 063d 485f 2fbd
000002d0: f29c f1bc 0d8e e93c 6889 a0bc 96c1 133d
000002e0: aa0c 343d 60f5 9ebd c5b7 933d 5d2f 60bd
000002f0: 16a8 823d 48d7 b3bd 517f 1d3d 2ea4 953d
00000300: 8158 9d3c 0384 cabb 4fc1 a4bd 18bb 873d
00000310: 6fb5 abbd f9a6 873d a8df 503d 837a 413c
00000320: f7da 953d 1916 b8bb e8d0 e1bc 65b6 90bd
00000330: 9a3e 363d c90b 6ebd d0e1 a0bb e20c 1c3d
00000340: dca2 d53c 7d11 94bd 4376 8dbd 4aee 583d
00000350: 5783 8cbc c955 8d3d 8975 35bd 10c3 823b
00000360: 4e48 9b3d 245b d83c 5c06 35bd a00b a43d
00000370: d9eb 313d 68d3 cbbc e2bb 07bd 2e9d 36bd
00000380: 7f89 fb3c 9ec0 2d3d a042 a7bc ad2f 66bd
00000390: 7a16 34bd cd2b 91bb 2e37 903d dd12 78bc
000003a0: 2626 f8bc 183d 6dbc e674 8dbb 7f8b 9ebd
000003b0: 5d33 8d39 19bc 673d a825 f43c 0020 ae37
000003c0: 19d9 c93c a0f1 a5bd 9aad e43b c50d 953c
000003d0: 0feb 95bd a4df 7a3d 7415 ce3c 23c9 27bb
000003e0: 1ea9 95bd 2ecd 193d 5020 b9bd 34d5 fb3c
000003f0: 85a5 523d a43a 74bd a82f a5bd 5be4 9bbb

bet_fc.bias f4 [5]
0.048353195 0.05569748 -0.03343238 -0.03968597 0.064401485
00000000: 000e 463d 0a23 643d 64f0 08bd c18d 22bd
00000010: ede4 833d
