ppo_models/ppo_model_policy_1.pth (torch, 82732 bytes, 8 tensors)

shared_fc.0.weight f4 [128, 15]
0.16514495 0.0027608436 -0.18987411 0.047236558 0.15815173 -0.23692712 0.1608832 -0.16524066
-0.25249997 -0.14745785 -0.08538656 0.19470242 0.0226672 0.016050756 0.2337811 -0.011038338
-0.21522978 -0.122907795 0.102029085 0.10283613 -0.11140165 0.15101627 -0.15828596 0.04314086
0.06183317 0.023497371 -0.19782567 0.15165517 -0.0059506595 -0.15255868 -0.05477841 0.116714366
-0.057609867 -0.17059241 -0.15065038 0.08578641 -0.061884977 0.15154018 -0.17505726 0.11786422
0.14554122 0.05600971 -0.07286224 0.022723973 -0.13804147 -0.23631385 -0.23877236 -0.24730548
0.20434411 -0.25065535 -0.24246493 0.045364916 -0.16906323 -0.16053239 0.14397068 -0.2434172
0.075752705 0.16569746 -0.09009278 0.04154578 0.16579477 0.25602764 -0.07395834 -0.07628514
0.17547122 0.2889459 -0.07316204 0.08751283 0.13379997 0.10815573 0.123693064 -0.16378912
-0.16739747 0.20415592 -0.24726123 0.15141982 0.22827438 -0.020377316 0.017539607 0.033650853
0.2753372 0.11837177 -0.09244824 0.25466207 0.1704706 -0.116992116 -0.23313509 -0.18753746
-0.10895711 -0.08815302 0.09359983 0.15494052 0.2624042 -0.22122814 -0.112274304 -0.1531101
0.07324307 0.14063781 -0.22618122 -0.015835863 0.016390285 0.15534425 -0.076329336 0.18748453
0.11136836 0.11167933 0.1240124 0.09079486 0.1260816 -0.30111724 -0.0014212411 0.10272189
-0.08645769 -0.050343633 0.27001032 -0.30725917 0.10664174 -0.20582254 -0.19949344 -0.075762734
-0.08737567 -0.1942066 -0.080422536 -0.15490256 0.0981763 -0.038334057 -0.03787437 -0.018452242
-0.10156539 -0.21637915 -0.02884607 0.0008621216 0.063417315 0.09033197 0.01960957 0.19421913
-0.00051094644 -0.07928943 -0.17372493 -0.11411004 -0.15727335 0.08009377 0.22057486 0.04719892
-0.2185911 -0.0838857 -0.2402501 0.0920375 -0.04959604 0.17829004 -0.30017048 0.007759913
-0.008918536 0.067807905 0.11809079 0.23335685 -0.029365946 -0.23091832 -0.21183755 -0.10349824
-0.24585713 0.21147165 -0.12119432 -0.017583087 -0.10305606 -0.18275295 0.06472592 0.19161192
0.2324625 -0.04925945 -0.0023973421 0.16507177 0.19794592 0.21637145 0.24070637 0.17765291
0.030809075 -0.030002058 -0.11692339 0.15932229 0.22955914 0.18946487 -0.18427704 -0.2506172
-0.03507734 -0.075320244 0.002926615 0.24569508 0.07529193 0.12491739 -0.20380801 -0.045280546
-0.21708372 -0.2074889 -0.0768331 0.19897953 0.24199194 -0.04499552 -0.25355804 -0.18259025
-0.047024872 0.042344213 0.15351197 -0.012082085 -0.106517725 0.10462219 0.087827295 -0.09879202
0.15726244 0.15631992 -0.06757011 0.20589112 -0.05367876 -0.22087267 0.020217149 0.051726695
0.19222803 -0.022173528 0.16752091 -0.19963 -0.2686691 0.17469162 0.2271083 0.24752453
0.18077832 0.030685607 -0.11830322 -0.057118148 -0.07574701 -0.063799396 -0.049544856 0.3668147
0.24737592 -0.23216172 -0.35041863 0.20498021 -0.24824956 0.058969945 0.035632223 0.06620523
-0.22251192 0.07099668 0.20351423 0.16430224 -0.076883465 -0.16614729 0.13315655 -0.010657935
0.04837376 0.18158756 0.05750808 -0.13639966 -0.12978263 -0.10102296 -0.13933939 -0.10170107
00000000: c21b 293e 45ef 343b 5c6e 42be 1f7b 413d
00000010: 87f2 213e 069d 72be 91be 243e d934 29be
00000020: ad47 81be 31ff 16be 26df aebd 1260 473e
00000030: 90b0 b93c e07c 833c 5064 6f3e 25da 34bc
00000040: 3265 5cbe 15b7 fbbd a0f4 d03d c09b d23d
00000050: 8c26 e4bd 02a4 1a3e b715 22be 78b4 303d
00000060: c744 7d3d 8f7d c03c d092 4abe 7e4b 1b3e
00000070: c0fd c2bb 5838 1cbe 535f 60bd f107 ef3d
00000080: 53f8 6bbd c7af 2ebe 1844 1abe c9b0 af3d
00000090: 1a7b 7dbd 592d 1b3e 3642 33be cc62 f13d
000000a0: c208 153e 706a 653d cc38 95bd a027 ba3c
000000b0: be5a 0dbe 42fc 71be be80 74be a63d 7dbe
000000c0: 953f 513e e655 80be ba48 78be 90d0 393d
000000d0: e91e 2dbe 9a62 24be 0d6d 133e 5c42 79be
000000e0: 3c24 9b3d 98ac 293e 9082 b8bd e82b 2a3d
000000f0: 1bc6 293e 0e16 833e 7877 97bd 623b 9cbd
00000100: baae 333e b8f0 933e fbd5 95bd ed39 b33d
00000110: dc02 093e c080 dd3d ca52 fd3d 56b8 27be
00000120: 3e6a 2bbe 400e 513e 0c32 7dbe cc0d 1b3e
00000130: c2c0 693e 54ee a6bc 39af 8f3c 7ad5 093d
00000140: fff8 8c3e e66c f23d 8155 bdbd 1163 823e
00000150: d88f 2e3e 9099 efbd f7ba 6ebe d209 40be
00000160: e824 dfbd 9289 b4bd 45b1 bf3d baa8 1e3e
00000170: d859 863e a189 62be 12f0 e5bd e5c8 1cbe
00000180: 7600 963d 5c03 103e 0d9c 67be 36ba 81bc
00000190: eb44 863c 9012 1f3e 8e52 9cbd f2fb 3f3e
000001a0: 1815 e43d 22b8 e43d 37fa fd3d a8f2 b93d
000001b0: 891b 013e 0a2c 9abe f048 baba db5f d23d
000001c0: bb10 b1bd 2035 4ebd cb3e 8a3e 1351 9dbe
000001d0: fc66 da3d 25c3 52be 0248 4cbe 7e29 9bbd
000001e0: 04f2 b2bd 18de 46be 92b4 a4bd c79e 1ebe
000001f0: a810 c93d 2c04 1dbd 2822 1bbd 2829 97bc
00000200: 8401 d0bd 7f92 5dbe 984e ecbc 0000 623a
00000210: f0e0 813d f8ff b83d 40a4 a03c 61e1 463e
00000220: 09f1 05ba 7f62 a2bd f3e4 31be 86b2 e9bd
00000230: 440c 21be 3408 a43d 60de 613e a853 413d
00000240: 58d6 5fbe 44cc abbd 1f04 76be 287e bc3d
00000250: 3825 4bbd aa91 363e f2af 99be de46 fe3b
00000260: 0d1f 12bc dfde 8a3d 96d9 f13d 19f5 6e3e
00000270: da90 f0bc da75 6cbe f1eb 58be e3f6 d3bd
00000280: f9c1 7bbe 068c 583e ba34 f8bd 680a 90bc
00000290: 0e0f d3bd 9723 3bbe 068f 843d ea35 443e
000002a0: a60a 6e3e 47c4 49bd ba1c 1dbb 9308 293e
000002b0: 56b2 4a3e 7a90 5d3e bb7b 763e a5ea 353e
000002c0: 5063 fc3c e0c6 f5bc 8875 efbd 6225 233e
000002d0: 8d11 6b3e 1403 423e 1fb3 3cbe e650 80be
000002e0: 42ad 0fbd 8041 9abd 74cc 3f3b 7e97 7b3e
000002f0: a832 9a3d b0d4 ff3d 0cb3 50be 1878 39bd
00000300: 324b 5ebe f877 54be ac5a 9dbd 4ac1 4b3e
00000310: bccc 773e 394d 38bd 5cd2 81be f0f8 3abe
00000320: 279d 40bd 2071 2d3d 3e32 1d3e f0f3 45bc
00000330: f725 dabd 2944 d63d ccde b33d 7853 cabd
00000340: 6809 213e 5412 203e 3362 8abd 1fd5 523e
00000350: 42de 5bbd 722c 62be 6f9e a53c 5fdf 533d
00000360: 6dd7 443e 42a5 b5bc 9a8a 2b3e cf6b 4cbe
00000370: ff8e 89be 5ce2 323e 148f 683e 1277 7d3e
00000380: f41d 393e 6260 fb3c f548 f2bd b8f4 69bd
00000390: 4021 9bbd 42a9 82bd 8cef 4abd 23cf bb3e
000003a0: 1d50 7d3e cdbb 6dbe 126a b3be 55e6 513e
000003b0: 2235 7ebe 788a 713d 18f3 113d 9c96 873d
000003c0: 2ada 63be b566 913d 0966 503e d93e 283e
000003d0: 1475 9dbd 8422 2abe 315a 083e 9f9e 2ebc
000003e0: 9023 463d 17f2 393e 988d 6b3d 5aac 0bbe
000003f0: bde5 04be 20e5 cebd fcae 0ebe a748 d0bd

shared_fc.0.bias f4 [128]
-0.2520704 -0.25567392 0.17890495 0.21244709 -0.16359459 -0.113504894 -0.17222796 0.05507761
0.13440776 -0.03759273 0.18963848 0.23654887 0.02700223 0.029990885 0.19976152 0.37115306
-0.27425903 -0.07833153 -0.07588231 -0.021812504 0.03702435 -0.21647823 -0.11153114 -0.14652804
0.08764696 0.14496647 -0.18056309 0.11957607 -0.0008869345 0.054178428 -0.28335428 0.17866495
-0.08119587 -0.18531647 0.108534545 0.25019124 -0.045313254 -0.027506853 -0.06567469 0.119543016
-0.13687207 0.17439902 0.15778014 0.13727969 -0.06684567 0.15971379 -0.08379745 0.2017008
0.09750267 -0.15853769 -0.1282168 -0.19552913 -0.24261545 0.06140113 0.17754148 -0.25184822
-0.026175234 0.046480615 -0.1941168 -0.12838866 0.10596307 0.2506223 -0.08711318 -0.05983026
-0.08749692 0.22963305 -0.14975648 -0.13599576 -0.1404939 -0.14485663 -0.12037804 0.03801761
-0.22153649 0.025686115 -0.14764094 0.046442144 -0.16738349 -0.07407172 -0.23754235 0.21416804
0.11414949 -0.13938068 0.21832928 -0.11819124 -0.020806523 -0.1555545 -0.13446584 0.07503886
0.24243967 -0.11275771 -0.23647435 0.15291108 -0.008568872 0.018082703 -0.1292537 0.11646105
0.20001952 0.16437498 0.0022091446 0.1092605 -0.039498027 -0.22658864 0.18573232 -0.14008158
0.12245245 -0.19662437 0.012534016 0.18066634 0.21684876 0.18609262 0.2043248 -0.088511914
0.10810283 -0.0210474 0.22138996 0.16333109 0.27556565 -0.08804006 -0.10600837 -0.14279877
0.10757277 -0.0097451 0.15598302 0.14954147 0.21598507 -0.07219554 0.24750464 0.19405264
00000000: 5f0f 81be b1e7 82be dc32 373e bb8b 593e
00000010: 5785 27be 4175 e8bd 875c 30be 0f99 613d
00000020: 30a2 093e d6fa 19bd 9730 423e de39 723e
00000030: c833 dd3c 72af f53c 498e 4c3e c607 be3e
00000040: ae6b 8cbe 486c a0bd 2f68 9bbd 23b0 b2bc
00000050: d8a6 173d 78ac 5dbe 706a e4bd 720b 16be
00000060: 4080 b33d 1772 143e 88e5 38be 4ce4 f43d
00000070: 2b81 68ba 33ea 5d3d d013 91be f2f3 363e
00000080: 054a a6bd 9ac3 3dbe 5c47 de3d 1119 803e
00000090: 649a 39bd 0d56 e1bc 7480 86bd f8d2 f43d
000000a0: 3128 0cbe a895 323e 1e91 213e 0c93 0c3e
000000b0: 62e6 88bd 038c 233e ff9d abbd a88a 4e3e
000000c0: 7baf c73d b457 22be 444b 03be ca38 48be
000000d0: 2f70 78be c07f 7b3d 6fcd 353e 40f2 80be
000000e0: 726d d6bc 7562 3e3d 8ec6 46be 5178 03be
000000f0: 2b03 d93d 9151 803e 6568 b2bd 9310 75bd
00000100: 9631 b3bd ed24 6b3e c359 19be 7942 0bbe
00000110: a2dd 0fbe 4c55 14be c388 f6bd 5ab8 1b3d
00000120: 76da 62be b06b d23c 302f 17be 1e3a 3e3d
00000130: 9466 2bbe eab2 97bd 4d3e 73be de4e 5b3e
00000140: 35c7 e93d cfb9 0ebe b691 5f3e 400e f2bd
00000150: 7172 aabc ae49 1fbe 6ab1 09be f9ad 993d
00000160: 1b42 783e 84ed e6bd 5526 72be b994 1c3e
00000170: 7464 0cbc 2d22 943c 155b 04be 2283 ee3d
00000180: ebd1 4c3e ea51 283e 4cc7 103b f8c3 df3d
00000190: afc8 21bd da06 68be 9d30 3e3e 8c71 0fbe
000001a0: 5ac8 fa3d e657 49be 795b 4d3c 9900 393e
000001b0: 9a0d 5e3e 108f 3e3e 853a 513e bc45 b5bd
000001c0: 0465 dd3d 996b acbc 0db4 623e 4440 273e
000001d0: f116 8d3e 594e b4bd eb1a d9bd d739 12be
000001e0: 1d4f dc3d e9a9 1fbc 03ba 1f3e 6621 193e
000001f0: 312b 5d3e 41db 93bd db71 7d3e bcb5 463e

shared_fc.2.weight f4 [128, 128]
-0.0928666 -0.043646373 -0.0411467 -0.011885045 -0.077458 -0.0741607 -0.056085043 -0.0052961907
-0.062071644 -0.05543493 -0.058696292 0.050679304 -0.05114657 0.07971364 0.013076856 0.029024236
-0.030655539 0.040606506 -0.041510187 0.06617366 -0.050895553 -0.09039375 -0.08572525 -0.01591401
0.050063066 -0.00062251656 0.025955323 -0.009478854 -0.01638017 0.05106922 0.038205363 0.060482062
-0.041655637 0.06692185 0.04824538 0.046587326 0.010906549 -0.021396287 -0.019129422 0.014809331
-0.074993014 -0.098407984 -0.04205003 0.025864951 -0.05364212 0.08627389 -0.061752573 -0.050364286
0.024645908 0.04058933 -0.07683484 0.04447735 -0.058385905 0.04606883 0.03269333 -0.03142152
-0.08391314 -0.07543065 -0.057441298 0.032093547 0.053985674 -0.10068606 0.053695656 -0.03251494
0.0723379 0.004441477 -0.00097313174 -0.035328627 -0.005455186 -0.0883767 -0.03788237 0.00039559553
0.03939817 -0.04467585 -0.016231792 0.056796093 0.022522442 -0.0073126988 -0.05985855 0.016653828
-0.008267712 0.08267566 -0.02076793 -0.019936875 0.073949456 0.0763583 0.02904349 -0.0034017966
-0.09557117 -0.016334899 -0.008722672 0.034717824 0.013142135 0.0703703 -0.07999451 -0.08728105
0.03903022 0.013048794 -0.0019392015 -0.020152468 -0.0922249 0.043893695 0.07599188 -0.016723767
-0.0044476716 0.051196836 0.018434169 -0.06444972 -0.054272506 -0.019900436 -0.039136413 0.074951954
-0.037539195 0.02508021 0.071321525 -0.03611514 -0.091840625 0.039857984 -0.0928105 0.06368281
-0.07468396 -0.0723687 0.02203934 0.01760726 0.06707343 -0.038341336 0.03924183 0.004685807
-0.033610992 -0.05586313 0.03349722 -0.018844737 0.09320504 -0.0064335233 -0.06675116 0.11185514
0.023501448 -0.19069088 0.004732494 0.08891306 0.029749356 0.023427425 0.07790477 -0.11735867
0.10735819 -0.053221438 -0.012777008 0.04843836 0.029743582 -0.07263971 -0.10333852 -0.052071277
-0.079218045 0.028057253 0.015834887 0.04552197 0.015526128 -0.05962933 0.052112393 -0.07728543
-0.019874968 -0.08645202 0.12500745 -0.044461783 0.16169842 -0.055530597 0.10715057 0.0908228
0.034261353 0.01987566 -0.025426384 0.03818412 -0.060664542 0.06502706 0.07092806 0.044866756
0.026252156 0.10365033 -0.013431177 0.09334181 0.039021213 -0.0041201953 0.0995941 -0.011451097
0.077385455 0.032194007 0.06649561 0.1193091 0.06999792 0.051770724 0.07131679 0.07656351
-0.06610465 0.033175893 0.04972623 0.011827199 0.096164495 0.089469075 -0.0012892494 -0.00024043985
-0.0038382085 0.0588618 0.091752656 0.018381488 -0.13776232 0.0068564913 0.07444809 0.08745069
-0.057859685 -0.072040655 0.015136248 -0.006674245 0.048934102 0.07095795 0.0141482 -0.04665697
0.064082526 -0.03476883 0.008967157 0.013737343 -0.030377673 0.10751341 0.036503658 -0.011849096
0.02492706 -0.019239035 0.055000335 0.009420773 -0.038351614 -0.002056373 0.06055419 0.0042652413
-0.05933165 0.06365775 -0.060788676 0.058077954 -0.05149734 0.021099743 0.015312911 -0.017139161
-0.009393652 0.049137414 0.020545533 0.072655186 -0.19208117 0.092961915 0.08689553 -0.043824695
0.09457574 -0.037151624 0.089136034 0.08711402 -0.017528389 -0.084328465 0.07082928 0.05357043
00000000: d830 bebd 8ac6 32bd 7189 28bd 7eb9 42bc
00000010: 4da2 9ebd 91e1 97bd 6eb9 65bd ab8b adbb
00000020: d63e 7ebd bd0f 63bd 866b 70bd 1a95 4f3d
00000030: 117f 51bd e840 a33d 4f40 563c 3cc4 ed3c
00000040: 5321 fbbc 0253 263d 9606 2abd 0e86 873d
00000050: db77 50bd 5c20 b9bd b890 afbd 195e 82bc
00000060: ee0e 4d3d 6130 23ba 42a0 d43c 324d 1bbc
00000070: b52f 86bc f52d 513d 3a7d 1c3d 0abc 773d
00000080: 1a9f 2abd 530e 893d f39c 453d 5ad2 3e3d
00000090: 62b1 323c 4447 afbc 4eb5 9cbc d6a2 723c
000000a0: f095 99bd 208a c9bd a73c 2cbd bce2 d33c
000000b0: d7b7 5bbd 5eb0 b03d 44f0 7cbd c84a 4ebd
000000c0: 37e6 c93c ff40 263d 965b 9dbd e22d 363d
000000d0: 0f26 6fbd abb2 3c3d 71e9 053d dab3 00bd
000000e0: a7da abbd 627b 9abd 9147 6bbd 8674 033d
000000f0: 1520 5d3d 7e34 cebd faef 5b3d 632e 05bd
00000100: e525 943d cf89 913b c419 7fba c0b4 10bd
00000110: 6bc1 b2bb d8fe b4bd 8b2a 1bbd ef67 cf39
00000120: fa5f 213d 06fe 36bd 89f8 84bc 05a3 683d
00000130: fc80 b83c 5d9f efbb 3d2e 75bd 9c6d 883c
00000140: 4c75 07bc db51 a93d 8221 aabc a852 a3bc
00000150: d072 973d be61 9c3d 9dec ed3c adf0 5ebb
00000160: d1ba c3bd c4d0 85bc 8ae9 0ebc 4734 0e3d
00000170: 1c52 573c 4e1e 903d 29d4 a3bd 68c0 b2bd
00000180: 27de 1f3d 9cca 553c ce2c feba ca16 a5bc
00000190: 69e0 bcbd e0c9 333d a1a1 9b3d 4800 89bc
000001a0: c6bd 91bb c6b3 513d 4103 973c 37fe 83bd
000001b0: d94c 5ebd 3d06 a3bc 814d 20bd 6980 993d
000001c0: b3c2 19bd 0375 cd3c 0511 923d 78ed 13bd
000001d0: f016 bcbd 2042 233d 6e13 bebd 226c 823d
000001e0: e7f3 98bd 0a36 94bd d98b b43c 1a3d 903c
000001f0: cb5d 893d ce0b 1dbd 0bbc 203d 668b 993b
00000200: aeab 09bd bdd0 64bd 6234 093d 4760 9abc
00000210: 49e2 be3d 4ed0 d2bb d5b4 88bd 4f14 e53d
00000220: 1c86 c03c 7844 43be 0913 9b3b 0d18 b63d
00000230: ecb4 f33c dfea bf3c 898c 9f3d be59 f0bd
00000240: 9cde db3d b9fe 59bd a856 51bc 4d67 463d
00000250: d0a8 f33c 21c4 94bd 25a3 d3bd b148 55bd
00000260: 123d a2bd 53d8 e53c 2ab8 813c 3f75 3a3d
00000270: 4d61 7e3c e23d 74bd ce73 553d d347 9ebd
00000280: d4d0 a2bc c20d b1bd f401 003e 8f1d 36bd
00000290: 4594 253e 0d74 63bd c271 db3d 4e01 ba3d
000002a0: a255 0c3d 48d2 a23c fe4a d0bc f466 1c3d
000002b0: 627b 78bd e82c 853d bb42 913d 34c6 373d
000002c0: c30e d73c a046 d43d 700e 5cbc fe29 bf3d
000002d0: b5d4 1f3d b402 87bb fef7 cb3d 629d 3bbc
000002e0: 447c 9e3d dddd 033d da2e 883d 5458 f43d
000002f0: 125b 8f3d 8a0d 543d 8a0e 923d 54cd 9c3d
00000300: e061 87bd 72e3 073d bbad 4b3d dec6 413c
00000310: e4f1 c43d 903b b73d 08fc a8ba 951e 7cb9
00000320: 748a 7bbb 1219 713d d1e8 bb3d c694 963c
00000330: 9111 0dbe 6bac e03b 3d78 983d 5919 b33d
00000340: 47fe 6cbd 0d8a 93bd 07fe 773c a0b3 dabb
00000350: 206f 483d 6752 913d dacd 673c 611b 3fbd
00000360: b33d 833d c369 0ebd fcea 123c 9812 613c
00000370: 99da f8bc fe2f dc3d dc84 153d b622 42bc
00000380: d533 cc3c 2e9b 9dbc 0848 613d 9659 1a3c
00000390: 9516 1dbd 37c4 06bb ac07 783d 70c3 8b3b
000003a0: bf05 73bd ff5e 823d 8cfd 78bd 26e3 6d3d
000003b0: e0ee 52bd 5ed9 ac3c 01e3 7a3c 6d67 8cbc
000003c0: d5e7 19bc 5044 493d 1b4f a83c 3ecc 943d
000003d0: edb0 44be d162 be3d 49f6 b13d 8681 33bd
000003e0: edb0 c13d 4d2c 18bd f48c b63d d668 b23d
000003f0: b297 8fbc 67b4 acbd f10e 913d ab6c 5b3d

shared_fc.2.bias f4 [128]
-0.006014237 0.09288668 0.011108953 -0.0070415344 -0.011930755 0.01382658 0.02144761 -0.009125285
-0.08275307 0.05067193 -0.0035618877 -0.08138428 -0.09475076 0.010299581 -0.02726793 -0.053934462
-0.049393766 0.0832158 -0.020960676 0.0013641288 0.08385917 0.040785305 -0.0445128 0.076361835
-0.023533493 0.032186016 -0.06841133 -0.028700933 -0.011987753 -0.09066578 -0.03143062 0.046534073
-0.07015989 -0.05962324 0.0501018 -0.0032447856 0.04210793 -0.0033668957 0.053142507 0.0665593
-0.005928816 0.035711575 0.0054806173 -0.049739815 -0.061296944 -0.031232014 -0.103610024 -0.035837952
0.05415907 0.047141433 -0.051635142 -0.082366735 -0.057069767 0.13468662 -0.08801724 -0.083857715
-0.037503645 0.0801751 -0.019175665 0.045799226 -0.035374872 0.030874899 0.030792153 0.058303483
-0.081705555 -0.008624837 0.0716051 -0.013966965 0.005455861 0.0017975834 0.049723923 0.08063747
-0.06021738 -0.044936705 0.03497109 0.026260963 -0.04483056 -0.09961862 0.06291376 0.06569758
-0.051891815 -0.004381775 -0.088126734 -0.11126043 -0.09105473 -0.07643794 -0.020020554 0.03875085
-0.057217397 -0.0014665088 0.004328895 -0.013315648 -0.038544532 0.07856229 0.09729014 -0.006271298
0.01756905 0.0009857491 -0.06640351 -0.032952808 -0.09448188 0.026854953 -0.05683878 0.057664543
0.0002390926 -0.06932343 0.046239264 0.09638529 0.02656329 -0.015903959 0.1197447 -0.02206222
-0.06313546 -0.08603375 -0.020173453 0.038828142 0.037131947 0.002593215 0.079120696 -0.051838145
-0.06127311 -0.053474855 -0.07645382 0.030517496 0.06277557 -0.08405716 0.0881437 0.020529687
00000000: 1413 c5bb 5f3b be3d 5302 363c acbc e6bb
00000010: 3779 43bc e188 623c e6b2 af3c 3882 15bc
00000020: 717a a9bd 5f8d 4f3d 8f6e 69bb cdac a6bd
00000030: b00c c2bd 93bf 283c fe60 dfbc 62ea 5cbd
00000040: 1e51 4abd 0c6d aa3d b9b5 abbc 91cc b23a
00000050: 5bbe ab3d 7e0e 273d 0e53 36bd 9863 9c3d
00000060: 50c9 c0bc 7cd5 033d 3d1b 8cbd 381e ebbc
00000070: 4868 44bc fbae b9bd 65bd 00bd 839a 3e3d
00000080: fdaf 8fbd 8037 74bd 8c37 4d3d 78a6 54bb
00000090: 5d79 2c3d 23a7 5cbb f5ab 593d 3e50 883d
000000a0: 8346 c2bb 4d46 123d c096 b33b fabb 4bbd
000000b0: 8112 7bbd 48da ffbc 7e31 d4bd d1ca 12bd
000000c0: e7d5 5d3d 6017 413d 5f7f 53bd e4af a8bd
000000d0: fdc1 69bd 4aeb 093e 6242 b4bd 98bd abbd
000000e0: 6c9d 19bd d832 a43d 4916 9dbc f897 3b3d
000000f0: 3ee5 10bd 5bed fc3c d33f fc3c a2cf 6e3d
00000100: 3e55 a7bd 304f 0dbc b2a5 923d b2d5 64bc
00000110: 14c7 b23b e49c eb3a 50ab 4b3d 4225 a53d
00000120: 80a6 76bd 8d0f 38bd d83d 0f3d 3b21 d73c
00000130: 40a0 37bd d904 ccbd eed8 803d 748c 863d
00000140: 838c 54bd fe94 8fbb ca7b b4bd 82dc e3bd
00000150: e77a babd 7f8b 9cbd 2502 a4bc 36b9 1e3d
00000160: ca5c 6abd df37 c0ba 67d9 8d3b e029 5abc
00000170: dfe0 1dbd 44e5 a03d 0e40 c73d 767f cdbb
00000180: f8ec 8f3c 4034 813a 90fe 87bd 86f9 06bd
00000190: b77f c1bd ebfe db3c c8cf 68bd a831 6c3d
000001a0: eeb4 7a39 71f9 8dbd 6265 3d3d a765 c53d
000001b0: 429b d93c 0549 82bc b63c f53d d4bb b4bc
000001c0: 2a4d 81bd 7632 b0bd cc42 a5bc 420a 1f3d
000001d0: ab17 183d eef2 293b 080a a23d 3c54 54bd
000001e0: 83f9 7abd 7308 5bbd d293 9cbd d4ff f93c
000001f0: 7a90 803d 2926 acbd af84 b43d e02d a83c

banker_fc.weight f4 [5, 128]
0.04434128 0.043108806 -0.03326508 0.06668649 0.024242362 -0.05568568 -0.05950599 0.044718824
-0.032617386 0.0060313763 0.061424006 0.016090192 -0.008876065 0.06649528 -0.036366228 -0.06425832
0.012787684 -0.037210934 -0.11847369 -0.062834464 -0.04302776 -0.0044247983 -0.03173053 -0.011738742
0.07203125 -0.02371288 -0.07232767 -0.05759824 -0.05789938 0.086155176 0.033620596 -0.05626382
0.012088955 -0.018784693 -0.012999594 -0.05558145 0.02397105 0.007927563 0.039518632 0.06809001
0.07557712 0.043088645 0.064544655 0.012258097 -0.0071539157 0.048121676 0.06863893 0.017961703
-0.003532609 0.10008341 0.055665165 0.060321018 -0.078227155 -0.05978202 -0.0028724102 0.03919405
-0.09571691 -0.045554288 -0.07267899 -0.09649216 0.05212417 0.03982754 -0.03571643 -0.08988604
-0.077539526 0.07898168 -0.0764614 -0.04463423 0.039183747 0.085611925 -0.0750567 0.06464846
-0.012711452 -0.050632536 0.08597342 -0.05720183 -0.11728938 -0.016109498 -0.101434715 0.10225396
-0.0935962 -0.050093863 0.021961028 0.06900275 0.008008128 -0.035655066 0.02061723 -0.00047487766
0.08706701 -0.02556003 0.08156645 -0.022102628 -0.021145135 -0.03753679 -0.051787786 0.01371959
0.02737358 0.0485074 0.0692213 -0.08279011 0.06072954 0.028605973 0.014787226 -0.0076415963
0.0010379641 -0.012978171 0.01807063 0.1466549 -0.06374037 -0.055652 0.13956644 -0.0008125568
0.036340225 -0.07812096 0.0023231818 -0.066799 0.050603595 0.019978574 0.05603338 -0.006179944
0.023974499 -0.0037435 -0.0637759 -0.015809022 0.06546948 -0.0019113049 0.032979883 -0.06920513
-0.023896178 -0.011177525 -0.073018186 0.08616863 -0.0056761843 -0.022983614 -0.11500959 -0.041485876
0.048017055 0.0139003545 -0.09483954 0.0019542128 0.052371044 0.039141875 0.080579296 0.027796326
-0.07330434 -0.021340564 0.03312853 -0.070954375 0.07195718 0.012929523 0.011203525 -0.018987522
0.0085826935 -0.073320955 0.017710907 0.08145921 0.0043887794 -0.031832427 -0.12364807 0.055550005
-0.06471568 -0.0050181714 0.009987522 -0.04664975 -0.13959795 0.017025968 -0.045453038 0.08750686
-0.061184403 -0.0015020944 -0.084626876 -0.01779584 -0.010151162 -0.05706344 -0.04433372 -0.009733982
0.03876928 0.0153939 0.035422396 0.013810812 0.08389956 -0.09165374 0.022763653 -0.040497843
-0.034469254 0.05772231 0.025579324 -0.0075737187 0.10383418 0.012818464 -0.011383622 -0.0067165433
-0.019470662 0.026376415 -0.087862276 -0.043444823 0.044988964 -0.095545396 -0.042742755 -0.08706867
0.009670226 0.02797661 -0.09527656 -0.03881279 0.09856826 0.032482803 -0.028540406 -0.048093136
-0.074174084 -0.054446246 0.06712512 -0.01927714 -0.006857884 0.058024146 0.0475819 0.07223653
0.12515183 -0.062085383 0.08428875 -0.0043142205 0.01402828 -0.085325144 0.060085326 0.03677305
0.024244979 0.04326325 -0.015100136 -0.028060585 -0.09153519 0.04452215 0.07153575 0.06594489
-0.036118954 0.051891018 -0.05119245 0.15470739 -0.06329336 -0.099811226 0.048880514 0.074667536
0.06124209 -0.009167688 0.027385594 -0.039724372 -0.113528416 0.010120914 -0.0045602503 0.075355515
0.013829504 0.023698837 -0.040797234 -0.04926155 -0.094111 -0.032961626 -0.030087676 0.005429444
00000000: 349f 353d dc92 303d f740 08bd ed92 883d
00000010: eb97 c63c ab16 64bd 8ebc 73bd 162b 373d
00000020: cf99 05bd daa2 c53b bd97 7b3d 94cf 833c
00000030: ea6c 11bc ad2e 883d c1f4 14bd de99 83bd
00000040: 6f83 513c 7e6a 18bd 55a2 f2bd 5baf 80bd
00000050: e03d 30bd e6fd 90bb dff7 01bd da53 40bc
00000060: 1f85 933d 8441 c2bc 8820 94bd 22ec 6bbd
00000070: e627 6dbd 2072 b03d c0b5 093d e474 66bd
00000080: c110 463c 5be2 99bc 40fc 54bc 60a9 63bd
00000090: ef5e c43c 9ce2 013c 4ade 213d c672 8b3d
000000a0: 2dc8 9a3d b87d 303d fd2f 843d 2fd6 483c
000000b0: 656b eabb 3c1b 453d 9192 8c3d 6c24 933c
000000c0: 5883 67bb 88f8 cc3d 2801 643d 2c13 773d
000000d0: 8f35 a0bd fedd 74bd 0c3f 3cbb f189 203d
000000e0: 3a07 c4bd 2297 3abd b9d8 94bd ae9d c5bd
000000f0: 2780 553d 3422 233d 644b 12bd 2c16 b8bd
00000100: 0bcd 9ebd 26c1 a13d cb97 9cbd 62d2 36bd
00000110: 237f 203d 4e55 af3d 54b7 99bd 6966 843d
00000120: b243 50bc 1064 4fbd d512 b03d 774c 6abd
00000130: 6a35 f0bd 11f8 83bc 01bd cfbd 866a d13d
00000140: 5daf bfbd 392f 4dbd 9de7 b33c 5051 8d3d
00000150: 8634 033c 0c0b 12bd 77e5 a83c 00f9 f8b9
00000160: 3050 b23d 4563 d1bc 500c a73d 9210 b5bc
00000170: 9038 adbc 2dc0 19bd 6e1f 54bd 22c8 603c
00000180: 8f3e e03c b2af 463d e6c3 8d3d dc8d a9bd
00000190: 8abf 783d 1357 ea3c 1f46 723c 5b66 fabb
000001a0: 4c0c 883a 65a2 54bc dc08 943c b42c 163e
000001b0: 508a 82bd 5af3 63bd 81ea 0e3e c401 55ba
000001c0: 7dd9 143d e2fd 9fbd 8640 183b eacd 88bd
000001d0: b745 4f3d 1baa a33c 4283 653d 2181 cabb
000001e0: 2b66 c43c 8255 75bb f09c 82bd ec81 81bc
000001f0: dd14 863d c084 faba ea15 073d 6bbb 8dbd
00000200: ebc1 c3bc f021 37bc 8f8a 95bd 2e79 b03d
00000210: 49ff b9bb 2248 bcbc 268a ebbd 18ed 29bd
00000220: 88ad 443d 50be 633c 3c3b c2bd 4012 003b
00000230: 0583 563d 3b53 203d c206 a53d 1fb5 e33c
00000240: 9620 96bd 68d2 aebc c8b1 073d 8750 91bd
00000250: 495e 933d 5ad6 533c fd8e 373c b88b 9bbc
00000260: 6d9e 0c3c 4c29 96bd 7716 913c 16d4 a63d
00000270: c0cf 8f3b b862 02bd 333b fdbd 6788 633d
00000280: a889 84bd 796f a4bb b4a2 233c cf13 3fbd
00000290: c4f2 0ebe 0b7a 8b3c f72c 3abd cc36 b33d
000002a0: 7f9c 7abd ede1 c4ba db50 adbd 95c8 91bc
000002b0: 0f51 26bc 5bbb 69bd 4697 35bd 487b 1fbc
000002c0: 89cc 1e3d b236 7c3c 1317 113d be46 623c
000002d0: 88d3 ab3d f5b4 bbbd d77a ba3c 11e1 25bd
000002e0: a22f 0dbd 3b6e 6c3d bb8b d13c f52c f8bb
000002f0: 04a7 d43d 8904 523c 5f82 3abc 7316 dcbb
00000300: f080 9fbc 5a13 d83c 23f1 b3bd 33f3 31bd
00000310: 5946 383d 4ead c3bd 0713 2fbd 0f51 b2bd
00000320: de6f 1e3c 342f e53c 5b20 c3bd 29fa 1ebd
00000330: 28de c93d b00c 053d 92cd e9bc 4ffd 44bd
00000340: 95e8 97bd 0703 5fbd e578 893d 18eb 9dbc
00000350: 1ab8 e0bb baaa 6d3d 3de5 423d bff0 933d
00000360: cd27 003e 3e4d 7ebd 959f ac3d 4e5e 8dbb
00000370: dfd6 653c f3be aebd 081c 763d 569f 163d
00000380: 689d c63c ce34 313d 9066 77bc 50df e5bc
00000390: cd76 bbbd dc5c 363d 5681 923d 1d0e 873d
000003a0: 78f1 13bd ad8b 543d 2daf 51bd 9d6b 1e3e
000003b0: f39f 81bd d469 ccbd ef36 483d 4beb 983d
000003c0: fcd8 7a3d 1234 16bc c157 e03c 06b6 22bd
000003d0: 9681 e8bd 31d2 253c 276e 95bb fe53 9a3d
000003e0: 2595 623c 1024 c23c 001b 27bd 7bc6 49bd
000003f0: 45bd c0bd c502 07bd 6e7a f6bc 7ae9 b13b

banker_fc.bias f4 [5]
0.0099228695 -0.10508693 -0.0071623395 0.13984394 -0.04529911
00000000: 8893 223c d137 d7bd 0fb2 eabb 4033 0f3e
00000010: 8f8b 39bd

bet_fc.weight f4 [5, 128]
0.063539304 0.0026215727 0.03289271 0.08754673 0.035235036 0.06571777 -0.046691228 -0.04415875
-0.0055677677 0.08746142 0.07215247 0.05135954 0.026776394 -0.08807631 0.030426353 0.078135304
0.04977632 0.06578716 0.018967418 0.13041842 -0.00047658384 0.040948987 0.07912361 0.0057043587
0.008911143 -0.022014014 0.0535661 0.073531196 -0.03984385 0.037096724 0.10262422 0.18938242
0.058965888 -0.016829578 0.038309895 0.0057162344 -0.021680854 0.10750586 -0.0013560209 0.17291537
-0.0343465 0.014656545 0.059364684 -0.03779368 0.03625073 0.07892049 0.020729192 0.01076475
-0.005645248 0.06488628 -0.082255304 -0.032641727 0.051939808 0.12286005 0.0013948589 -0.007768
0.07873822 -0.0077513945 0.15759838 0.04612064 0.055082954 0.054734197 -0.0042289025 0.1177301
0.06279766 -0.014791748 0.048407502 -0.063779615 -0.046492144 0.015896399 0.022202773 0.04008011
-0.074162714 -0.042135403 -0.02600187 0.057216518 0.01603917 -0.00051903515 0.080055706 0.09923982
-0.025604287 0.044941854 -0.015829233 0.05007469 0.01705273 0.013367076 0.067472614 0.07522742
-0.07674127 0.020314239 0.18996735 -0.08314631 0.080504544 -0.009063838 0.11111301 -0.06433227
0.06326868 0.037324093 -0.074251086 0.06418089 -0.007122283 0.091599524 -0.0215333 0.050455455
-0.0047063744 -0.08131235 0.024336714 -0.010663535 0.10819622 0.00035829138 -0.12291765 -0.09196669
0.033663362 0.0025004563 -0.06266838 0.05289502 -0.04419873 0.07457918 0.001946613 0.051995654
-0.015091062 -0.04490504 -0.039147206 -0.0093461275 -0.02359647 -0.002203703 0.05749141 0.05083456
0.06679753 0.10724575 0.075968295 -0.048309963 0.09490394 0.06666803 0.075384066 0.031248616
0.06115845 -0.031429958 -0.04767283 0.06401741 -0.06020474 -0.08193549 -0.046242945 0.07388804
-0.019879006 0.11891068 0.05733819 -0.041992113 0.02659005 0.068677396 0.04990294 0.113246374
-0.050076406 0.062340222 -0.090121344 0.009910049 0.073804304 0.05836507 0.12557317 -0.05617726
-0.01941424 0.0064156405 0.03102554 0.043001764 0.07035066 0.017625317 -0.036587797 -0.0935276
0.037439913 0.046514273 -0.026903093 -0.017546702 0.032044828 -0.058144465 -0.027768036 0.06646643
-0.06705799 0.11185902 0.0044251005 0.061311502 -0.0051858295 0.06482503 0.045067236 0.053939648
0.070590146 0.10982266 -0.018906206 -0.0772309 0.018151902 -0.03146393 -0.016199658 0.04698637
0.022571467 0.092325635 -0.048672084 0.026655378 0.018643446 0.021662092 0.005189639 0.02735465
-0.06621114 -0.061647113 0.0555224 0.07663857 -0.04152918 -0.02744423 -0.006823875 0.0014623341
-0.017504653 0.041077435 0.09995972 -0.021606946 -0.015564429 -0.0239266 -0.046001766 -0.073301315
0.07491179 0.0025335217 -0.14191821 0.041108347 0.07812639 0.02749066 0.026299067 -0.019064222
0.047571264 0.0023412257 0.06722007 0.014915926 0.031057317 0.05618173 0.012767451 -0.05731623
0.018680487 0.08595408 0.027079528 0.021720938 0.02412386 0.10201468 0.12436284 0.11137014
-0.065820895 0.0042780163 -0.024216512 -0.0924378 -0.015259391 -0.07864857 0.09908191 -0.062152002
0.06740363 0.055059522 0.046449594 -0.006472215 0.08619532 0.001045771 0.106178775 0.023156218
00000000: e520 823d b1ce 2b3b 82ba 063d b34b b33d
00000010: 9d52 103d 0a97 863d 4d3f 3fbd cedf 34bd
00000020: d271 b6bb f91e b33d adc4 933d 625e 523d
00000030: 2b5a db3c 5a61 b4bd b040 f93c 6705 a03d
00000040: 41e2 4b3d 6bbb 863d 8f61 9b3c 688c 053e
00000050: 00de f9b9 20ba 273d 8f0b a23d a1eb ba3b
00000060: 0b00 123c bc56 b4bc 2068 5b3d 8697 963d
00000070: 4e33 23bd bcf2 173d a62c d23d 77ed 413e
00000080: 3786 713d 2fde 89bc d6ea 1c3d 404f bb3b
00000090: 0c9c b1bc 082c dc3d 83bc b1ba ba10 313e
000000a0: eaae 0cbd 0122 703c 6228 733d 8ccd 1abd
000000b0: a57b 143d 11a1 a13d 44d0 a93c a25e 303c
000000c0: c6fb b8bb 19e3 843d 7875 a8bd 55b3 05bd
000000d0: d6be 543d 0d9e fb3d b3d3 b63a b58a febb
000000e0: 8141 a13d 69ff fdbb 7861 213e ffe8 3c3d
000000f0: aa9e 613d f730 603d 9b92 8abb 7b1c f13d
00000100: 0f9c 803d 1659 72bc f246 463d e39e 82bd
00000110: 8c6e 3ebd 2a39 823c 97e2 b53c 0b2b 243d
00000120: 9fe2 97bd 2c96 2cbd e001 d5bc de5b 6a3d
00000130: 9464 833c dc0f 08ba 3ff4 a33d 3f3e cb3d
00000140: 15c0 d1bc f314 383d 4fac 81bc 1e1b 4d3d
00000150: 2bb2 8b3c 9501 5b3c 152f 8a3d d510 9a3d
00000160: 872a 9dbd 0c6a a63c cd86 423e 9d48 aabd
00000170: 91df a43d 7e80 14bc 388f e33d a3c0 83bd
00000180: 0293 813d 26e1 183d f410 98bd 4571 833d
00000190: 0a62 e9bb 8898 bb3d 9a66 b0bc 61aa 4e3d
000001a0: ee37 9abb 1787 a6bd ca5d c73c 1cb6 2ebc
000001b0: fb95 dd3d 0ed9 bb39 40bc fbbd 0859 bcbd
000001c0: 98e2 093d b2de 233b 4858 80bd 73a8 583d
000001d0: ba09 35bd f8bc 983d 7e25 ff3a 65f9 543d
000001e0: 8040 77bc 59ee 37bd d258 20bd 8020 19bc
000001f0: 624d c1bc 006c 10bb 1d7c 6b3d e637 503d
00000200: 25cd 883d a9a3 db3d 4495 9b3d abe0 45bd
00000210: ff5c c23d 4089 883d f662 9a3d 19fd ff3c
00000220: 4881 7a3d b3bc 00bd 9644 43bd 8f1b 833d
00000230: 3f99 76bd cbcd a7bd 3e69 3dbd 9d52 973d
00000240: 4cd9 a2bc 7187 f33d 73db 6a3d ecff 2bbd
00000250: 60d3 d93c bca6 8c3d 0667 4c3d b7ed e73d
00000260: eb1c 4dbd 7658 7f3d 8a91 b8bd c25d 223c
00000270: b626 973d 3610 6f3d 4196 003e 201a 66bd
00000280: 9d0a 9fbc 4b3a d23b 4629 fe3c 9e22 303d
00000290: 0214 903d f862 903c 16dd 15bd 668b bfbd
000002a0: 985a 193d c085 3e3d e063 dcbc 1abe 8fbc
000002b0: 7041 033d e428 6ebd cb79 e3bc 8d1f 883d
000002c0: b355 89bd 5816 e53d 6f00 913b c521 7b3d
000002d0: e4ed a9bb fcc2 843d 6c98 383d d2ef 5c3d
000002e0: 9191 903d b4ea e03d 30e1 9abc 3c2b 9ebd
000002f0: 4cb3 943c 52e0 00bd 25b5 84bc c874 403d
00000300: cce7 b83c 3915 bd3d 615c 47bd 615c da3c
00000310: 24ba 983c b374 b13c d90d aa3b dc16 e03c
00000320: b599 87bd af81 7cbd 756b 633d aff4 9c3d
00000330: 801a 2abd b9d2 e0bc d09a dfbb caab bf3a
00000340: eb65 8fbc d040 283d afb7 cc3d 0d01 b1bc
00000350: f201 7fbc b801 c4bc 596c 3cbd 001f 96bd
00000360: 5a6b 993d 7109 263b 0253 11be 3a61 283d
00000370: bb00 a03d 1834 e13c 2471 d73c 922c 9cbc
00000380: 16da 423d 406f 193b adaa 893d ee61 743c
00000390: ea6b fe3c d01e 663d 922e 513c 6cc4 6abd
000003a0: d207 993c b108 b03d e3d5 dd3c 1cf0 b13c
000003b0: 679f c53c 13ed d03d f2b1 fe3d 0716 e43d
000003c0: 1bcd 86bd 9a2e 8c3b b561 c6bc 0750 bdbd
000003d0: 8602 7abc 8012 a1bd 75eb ca3d 1993 7ebd
000003e0: ea0a 8a3d 1886 613d ee41 3e3d e014 d4bb
000003f0: 2c87 b03d 4012 893a 4274 d93d 1cb2 bd3c

bet_fc.bias f4 [5]
-0.05115886 -0.019786127 -0.050349865 0.042437907 -0.019219046
00000000: f48b 51bd 8416 a2bc a93b 4ebd 5fd3 2d3d
00000010: 4371 9dbc
