ppo_models/ppo_model_value_try.pth (torch, 80672 bytes, 9 tensors)

fc.0.weight f4 [128, 15]
000000 d7 3b 2b be 33 b9 df 3c 81 2b 52 be 0e d4 ea bc
       -0.16722046 0.02730999 -0.20524408 -0.028665569
000010 4d f4 4f be 7a 20 44 3e 1a d7 d7 3d 77 0f 0f be
       -0.20308037 0.19153014 0.10539074 -0.13970743
000020 a0 9b eb 3c 6d cb 0f be 99 7d 02 be 0c 85 c9 3d
       0.028760731 -0.14042445 -0.12743224 0.0983983
000030 bc 44 a7 3d 0a 3e 32 be 00 ee 32 3a 20 30 03 be
       0.08167407 -0.17406479 0.0006825626 -0.12811327
000040 74 26 a8 bd 59 b0 83 3c 28 66 73 bd 75 f7 46 be
       -0.08210459 0.0160753 -0.059423596 -0.19430335
000050 d3 7c 85 bd 84 95 6f 3e fa ca e2 bc a6 58 55 3e
       -0.06517949 0.2339688 -0.027684677 0.20834598
000060 55 fa 4a bd cb 8b 80 3d 80 a8 e2 bb 10 83 2f bd
       -0.04955514 0.062766634 -0.0069170594 -0.0428496
000070 f2 44 04 be 30 36 09 3d 74 db 57 3e 60 ea 8b bd
       -0.12916926 0.033498943 0.21079808 -0.06831813
000080 74 a4 33 be 01 ce 99 bd b9 78 08 3e 90 17 54 be
       -0.17543203 -0.07509995 0.13327302 -0.20712113
000090 fc 8f c6 bd 1b 40 06 be 3d f5 7f be 6e a9 0a 3e
       -0.096954316 -0.13110392 -0.24995895 0.13541195
0000a0 3e 14 71 3e 0c e9 47 3e 14 fd 16 be b5 3c 38 be
       0.23542878 0.19522494 -0.14744979 -0.17991908
0000b0 54 67 48 be 0d a7 1d be 38 24 bc 3d c5 f0 0f be
       -0.19570667 -0.15395756 0.09186596 -0.1405669
0000c0 d7 78 5a 3e 73 24 31 3d 94 1c c9 bd d9 75 53 be
       0.21335159 0.04324765 -0.09819904 -0.20650424
0000d0 9a 2b e0 3d 9e 74 16 be 9e c5 9d 3d ab 1b 2a be
       0.10945816 -0.14692923 0.07703708 -0.16612117
0000e0 ac 35 f5 3d a4 b1 11 bd 00 77 c0 bc 94 1b 17 bd
       0.11973128 -0.035569802 -0.023494244 -0.036891535
0000f0 a2 ed 83 3e b8 a6 f6 3d 74 40 28 3e 25 60 a8 3c
       0.25767237 0.12043518 0.16430837 0.020553658
000100 7e ef 52 3e 7e f6 d3 bc 0a f9 e6 3d db b0 52 be
       0.20599172 -0.025874373 0.11277969 -0.20575278
000110 81 63 16 be 1b df 91 bd 92 56 40 3e 2c 74 45 be
       -0.14686395 -0.07122632 0.18783024 -0.19282597
000120 28 c6 25 be 90 3b be 3c 48 4a fe bd a8 e7 14 be
       -0.16188872 0.023221761 -0.12416512 -0.14541495
000130 95 45 9e bd a2 7e 57 3e 6a a4 4a be 08 0c 5c 3d
       -0.077281155 0.210444 -0.19789281 0.05372241
000140 a8 6a 73 3e 26 c9 04 3e 7c 3b e6 3d ac 48 9b bd
       0.23771155 0.12967357 0.112418145 -0.075822204
000150 75 f9 d8 bd 3a 14 89 bd 16 51 32 3e a0 9c 2e 3c
       -0.10594455 -0.06693311 0.17413744 0.0106574595
000160 88 c0 cf bc d9 5c 82 be 36 87 75 bd 17 37 29 be
       -0.02536036 -0.25461462 -0.0599434 -0.16524921
000170 93 6d 12 be b3 ea 30 be bc 0e 2b bd 38 33 82 be
       -0.14299612 -0.1727703 -0.0417621 -0.25429702
000180 e3 f5 35 be c5 60 57 3e 70 22 c4 bd 75 d6 74 be
       -0.1776958 0.21033008 -0.09576881 -0.23909934
000190 ff e1 02 bd 2b c0 83 3e d0 90 b8 3d 6e dd ba bd
       -0.031953808 0.2573255 0.09011996 -0.091242656
0001a0 9b ea 18 be 06 12 50 be 99 81 3f be 96 36 55 be
       -0.14933245 -0.20319375 -0.18701781 -0.20821604
0001b0 79 a1 6b 3e fc 2b 0a 3c 13 bc 7e 3e bc 43 16 3e
       0.23010816 0.008433338 0.24876432 0.14674276
0001c0 6f 33 0e be 00 78 80 3a 84 b1 23 be 8c 66 f6 3d
       -0.13886808 0.0009801388 -0.15985686 0.12031278
0001d0 43 79 83 be d8 3d 3d be 00 2a dd 3a a4 a8 c5 bd
       -0.25678453 -0.18480623 0.0016873479 -0.09651306
0001e0 8c 69 40 3d 2a 99 95 bd 63 31 74 3d b9 8d 51 3d
       0.046975657 -0.07304604 0.05961741 0.051160548
0001f0 bb ba 89 3d 1d 83 78 be 03 e2 7a 3d 07 31 9b bd
       0.06725069 -0.24268766 0.061250698 -0.075777106
000200 84 c5 a8 3d d3 de 39 be 72 f5 cc bc 00 70 01 3b
       0.08240798 -0.18151407 -0.025019381 0.0019750595
000210 30 a5 b3 3c 20 bc 03 3c 15 02 2f be 49 da 13 be
       0.021929353 0.008040458 -0.17090638 -0.14438738
000220 ab d7 5e 3e f7 b6 80 3e d2 9d 47 3e 78 9e 93 3d
       0.21761958 0.2513959 0.19493797 0.0720796
000230 b7 6f 41 be 18 db c1 bd 00 d6 50 3e 84 3e 77 bd
       -0.18890272 -0.09465617 0.20394135 -0.060362354
000240 69 2d 47 3e e9 ef 3e be dc 49 8b 3d 60 0f 1c 3d
       0.19450916 -0.18646206 0.06801197 0.0381006
000250 58 22 64 3d 78 82 52 bd 19 ba 6a 3e 17 a8 31 3e
       0.055696815 -0.051393956 0.22922553 0.17349277
000260 3c 9b 32 3e 82 f2 c1 3b 1c bb 1b be cf bf 60 be
       0.1744203 0.0059188018 -0.15208095 -0.21948169
000270 a1 31 5d be 12 e4 00 3c 28 1c 1d be 69 21 59 3e
       -0.21600963 0.007866876 -0.15342772 0.21204151
000280 94 29 05 bd 28 0d 73 be fe ad 55 3e a6 8c 4e be
       -0.032510355 -0.23735487 0.20867154 -0.2017084
000290 30 a8 91 3c 7f de f2 3d 2c 9d 52 be 25 5e 82 3e
       0.017780393 0.11858844 -0.20567769 0.25462452
0002a0 43 01 b2 3d a8 98 7b be d1 01 64 bd 47 d2 8c bd
       0.08691647 -0.24569952 -0.055665795 -0.06876045
0002b0 20 60 f8 bd c2 5a db bd 1b 73 57 3d bd 96 2b 3d
       -0.121277094 -0.1071067 0.052600008 0.041891802
0002c0 00 fd 7f 3c 2e bd 68 3e 64 ca 81 3d 14 80 53 bd
       0.015624285 0.22728416 0.06337431 -0.051635817
0002d0 0a dd f1 3d f1 b2 16 3c 05 cf 03 3d c2 d7 3d be
       0.11809738 0.009197936 0.03217985 -0.18539336
0002e0 7c 0e 08 be 4b 66 bb bd 2a 4d ea bd 11 b6 93 3d
       -0.13286775 -0.0915037 -0.11440499 0.07212461
0002f0 30 72 02 3e d2 97 85 be 6d 0f 3c be 84 a8 2b bd
       0.12738872 -0.26092392 -0.1836526 -0.041908756
000300 2d 13 19 be d4 90 3d 3e 7c a8 2b bd 51 bf 4f be
       -0.14948721 0.18512279 -0.041908726 -0.20287825
000310 a0 27 a1 bd 56 f1 86 3d 8b 0d e1 3d f0 23 0f be
       -0.07868886 0.06589 0.10988911 -0.13978553
000320 1d fc 5f be d5 fe 54 be 9e 4d 2e 3e c0 80 e4 3b
       -0.21873517 -0.20800336 0.17021796 0.006973356
000330 ad 95 e3 bc ca 06 86 3b 28 a1 50 bd 20 4b b3 bd
       -0.027781332 0.004090165 -0.05093494 -0.08754563
000340 48 0b cb 3d 28 e1 84 bd a1 31 42 3e ac 60 8a 3d
       0.09914261 -0.06488258 0.18964244 0.0675672
000350 97 ba 6d ba 48 87 73 bd 4d 97 11 3d cb 60 ab bd
       -0.00090686366 -0.059455186 0.035544682 -0.08368071
000360 91 b6 6f be 73 2f 4d be 86 b3 39 3e 1f ab 4a be
       -0.23409487 -0.20037632 0.18134889 -0.1979184
000370 d3 97 50 bd 46 56 6c 3e ec 0d a1 bd ea 07 68 3e
       -0.05092604 0.23079786 -0.078639835 0.22659269
000380 36 e1 3e 3e 91 b3 19 3e 47 19 3a 3d a0 27 ad bd
       0.18640599 0.15009905 0.045434263 -0.084548235
000390 d1 70 68 3e a1 00 32 3e f8 3f 89 3d 62 4d f6 3d
       0.22699286 0.17383052 0.06701654 0.12026478
0003a0 db 4e ce bc c4 86 b6 bd db 4a 8f 3d a8 76 7a be
       -0.025184086 -0.08912423 0.069966994 -0.24459326
0003b0 9c d4 c1 3d 4a ce 40 3e e8 23 3f 3e 78 cc 47 3d
       0.0946438 0.18828693 0.18666041 0.04877898
0003c0 36 81 a9 3d b7 18 69 3e a0 bb b0 bc 58 d3 1a 3e
       0.08276598 0.22763334 -0.021573842 0.15119684
0003d0 40 c6 78 be 39 60 c7 bc f1 5f dc bd 46 d0 1a be
       -0.24294376 -0.024337875 -0.10760487 -0.15118513
0003e0 fc ae 08 be 19 de 7d 3d 77 ee ea bd 20 e6 22 3e
       -0.13348001 0.061979387 -0.11471265 0.15908098
0003f0 70 a3 ee 3d 38 95 1b be a6 7c aa bd 6e 09 13 3d
       0.11652267 -0.15193641 -0.08324556 0.035897665

fc.0.bias f4 [128]
000000 62 01 12 be 63 8f 3e 3e 47 b4 f7 3c 90 dc fd bd
       -0.1425834 0.18609385 0.03023733 -0.123955846
000010 77 78 9d bd 63 f5 af bd ad 4b 53 3e c5 d8 42 be
       -0.076889925 -0.08591726 0.20634337 -0.19028004
000020 2d bd 4a be a3 c0 80 3e 03 84 66 be 64 e4 51 3e
       -0.19798727 0.2514697 -0.22511296 0.2049728
000030 ea 92 e3 bc 5a 78 5b be 5b 88 03 be 5f 8e 80 3d
       -0.027780015 -0.21432629 -0.12844984 0.06277155
000040 1d 73 bc bd 69 1d 40 3e f9 89 b8 bd 0e 23 37 3e
       -0.092016436 0.18761219 -0.09010691 0.17884466
000050 28 d7 00 be 14 16 96 3d 84 d7 36 3e 14 07 2f be
       -0.12582076 0.0732843 0.1785565 -0.17092544
000060 25 09 81 3e 07 a7 6f be 92 b2 16 bd 65 6d 2b 3e
       0.2520229 -0.2340356 -0.03679139 0.1674095
000070 13 36 2b 3e f8 8c b6 3d e5 f8 50 3e 2a 08 3f bd
       0.16719846 0.089136064 0.20407446 -0.046638645
000080 5b 77 4a bd b3 9a 21 3e 03 f9 6d bd c0 bb 82 bd
       -0.049430232 0.1578167 -0.058098804 -0.06383467
000090 79 cb 86 3e b7 ae 85 bd 94 b6 1a bd 89 ad 80 be
       0.26327112 -0.06527465 -0.037771776 -0.25132397
0000a0 4f 2d 57 3e 02 d2 81 bd c7 27 b9 bd 08 71 69 bd
       0.21013378 -0.06338884 -0.0904079 -0.05699256
0000b0 cc 9c 84 be 23 26 2e 3e b4 4e 81 3d 09 f8 10 be
       -0.25900877 0.17006736 0.063138396 -0.14157118
0000c0 e3 04 32 3e 36 9e 64 3e ab 6d 0e 3e 51 b0 72 be
       0.17384677 0.22325978 0.13909023 -0.23700072
0000d0 20 ca 85 3e 87 ad 9d 3c 1c 5d 05 3d f1 a9 ba bb
       0.26130772 0.019247783 0.0325595 -0.005696528
0000e0 8c e1 45 3d f5 63 0c 3e 7a 01 6a be 4e 15 19 bd
       0.0483108 0.13710006 -0.22852126 -0.037373833
0000f0 87 76 19 3e b4 19 2c bd 84 10 01 be cb 97 0a bd
       0.14986621 -0.0420167 -0.12603956 -0.033836167
000100 d8 4d a8 3d d1 24 4d 3e 99 f6 0b 3e c9 f0 63 ba
       0.082179725 0.20033576 0.13668288 -0.00086952426
000110 e3 4c db bd 21 e0 8f 3c cc 18 d7 3d 55 24 af bd
       -0.10708024 0.017562928 0.105027765 -0.08551852
000120 5e a7 68 bd 01 3f c7 3c 64 40 b9 3d 06 28 84 3e
       -0.05680024 0.024322035 0.09045485 0.25811785
000130 74 fd 3d 3e b0 b4 8b bd c3 a1 e9 3d 47 ed d9 3a
       0.18553716 -0.06821573 0.11407807 0.00166265
000140 0b 64 44 be a6 f4 05 3e c2 b6 5d 3e df b9 61 be
       -0.19178788 0.13081607 0.21651748 -0.2204356
000150 01 e6 95 bc 1f 5c 6a 3e 48 33 c6 bd 67 71 74 be
       -0.018298151 0.22886704 -0.0967775 -0.23871385
000160 42 b0 3a bc 85 28 3c 3d 98 36 19 be 3e 6d 84 3e
       -0.011394562 0.04593708 -0.14962232 0.25864595
000170 c3 94 a5 bd dd 7a 6c be d8 b7 7d 3e e4 4b 72 be
       -0.08085015 -0.23093744 0.24777162 -0.23661762
000180 e3 4a 6a bb ab 62 37 be dd 23 32 3e ad 11 60 be
       -0.0035750202 -0.17908733 0.17396493 -0.21881743
000190 fa 15 05 be 04 d3 27 3d c2 b7 44 3e ca db 24 3e
       -0.12996665 0.040972725 0.19210723 0.16099468
0001a0 22 f5 81 3e 2a 1d 03 3d 43 e3 1a be 96 46 ed 3d
       0.25382334 0.032010235 -0.15125756 0.11585729
0001b0 9e 51 b2 3c 9a eb 8b 3c 4c 89 e4 bd b5 e7 43 be
       0.021767434 0.017080117 -0.11159 -0.19131358
0001c0 cf 24 75 be 74 90 3f 3e 1d 0b f4 bd 0a 21 01 3e
       -0.23939823 0.18707448 -0.11916182 0.1261026
0001d0 cf 10 e0 bd 02 6b 0f 3e 11 16 3a be 6c 45 3f be
       -0.10940706 0.14005664 -0.1817248 -0.18678826
0001e0 4a ef 10 bb c3 4c 12 bc f7 e0 0d be 64 68 4d 3e
       -0.0022115284 -0.008929434 -0.13855349 0.20059353
0001f0 ce 2a 84 bd 9e 71 ef 3c 09 fe 75 bb 64 3b 43 3e
       -0.06453477 0.029228982 -0.003753545 0.19065624

fc.1.weight f4 [128]
000000 43 37 82 3f 7b e3 7e 3f 70 d7 7e 3f 2f 83 7f 3f
       1.0173115 0.9956586 0.9954748 0.99809545
000010 74 45 80 3f 6a ea 7e 3f 9e f9 7b 3f fe a7 7f 3f
       1.0021195 0.9957644 0.9842776 0.9986571
000020 82 b9 80 3f db 3f 80 3f 85 95 7f 3f 0f c8 80 3f
       1.0056612 1.0019487 0.99837524 1.0061053
000030 bd 37 80 3f 70 26 7e 3f 44 d8 7f 3f 28 19 80 3f
       1.001701 0.992774 0.9993937 1.0007677
000040 8e fd 7e 3f 8a 09 7f 3f 68 f4 81 3f 5d fe 7b 3f
       0.99605644 0.9962393 1.0152712 0.98435
000050 8c 88 80 3f d4 21 80 3f 97 17 7e 3f d3 1d 7f 3f
       1.0041671 1.0010324 0.99254745 0.99654883
000060 dc 5b 81 3f 44 10 7e 3f d5 59 7d 3f 26 44 7f 3f
       1.0106158 0.9924357 0.989652 0.9971336
000070 0b 63 7e 3f 25 c0 7d 3f 4b 11 81 3f 00 cc 80 3f
       0.9936988 0.99121314 1.0083402 1.0062256
000080 38 ba 7f 3f 76 49 7d 3f c9 12 81 3f c2 d3 80 3f
       0.9989352 0.9894022 1.0083858 1.0064623
000090 e2 aa 7d 3f 4e 7a 80 3f b1 34 80 3f bf bd 7d 3f
       0.9908887 1.0037324 1.001608 0.99117655
0000a0 33 29 80 3f 02 c7 80 3f c8 7e 82 3f 8e d7 80 3f
       1.0012573 1.0060732 1.019494 1.0065782
0000b0 b6 33 7e 3f f6 3a 7c 3f a3 39 7c 3f 2e a2 7f 3f
       0.99297655 0.9852747 0.98525447 0.9985684
0000c0 36 9a 80 3f 1c 76 80 3f 62 09 80 3f 23 b1 7e 3f
       1.0047061 1.0036044 1.0002863 0.9948904
0000d0 5a 4b 81 3f 69 14 81 3f c8 26 81 3f a3 de 80 3f
       1.010112 1.0084354 1.008996 1.0067943
0000e0 09 bd 81 3f 43 ca 7d 3f 17 a7 7e 3f 9f 50 7f 3f
       1.0135814 0.9913675 0.9947371 0.99732393
0000f0 c3 44 7e 3f b2 1e 80 3f 95 5e 7f 3f 33 4e 7e 3f
       0.9932367 1.0009367 0.99753696 0.9933807
000100 90 6d 7f 3f c9 bd 80 3f 36 a7 7e 3f 72 3b 81 3f
       0.99776554 1.0057918 0.99473894 1.0096266
000110 5a 80 82 3f e9 af 7e 3f 24 e7 7e 3f a8 aa 7f 3f
       1.019542 0.9948717 0.9957144 0.99869776
000120 42 a4 80 3f 94 1e 80 3f 9e 0e 82 3f d6 a9 7d 3f
       1.0050128 1.0009332 1.0160711 0.99087274
000130 e4 ea 80 3f 81 3d 80 3f e2 89 7e 3f ce 27 7c 3f
       1.0071683 1.001877 0.9942914 0.9849824
000140 d8 0c 80 3f 24 e8 80 3f 44 10 80 3f 0c 05 80 3f
       1.000392 1.0070844 1.0004964 1.000154
000150 4c b5 7f 3f d0 f3 7e 3f c2 20 80 3f b7 7b 7e 3f
       0.9988601 0.9959078 1.0009997 0.99407524
000160 ab de 80 3f e3 09 7c 3f 11 77 82 3f 01 37 81 3f
       1.0067953 0.98452586 1.0192586 1.0094911
000170 27 a0 7d 3f 81 d4 80 3f 3f d9 7e 3f bd 2f 7e 3f
       0.990725 1.0064851 0.9955024 0.9929159
000180 fe 6b 7e 3f 2d 26 80 3f 9e 22 7e 3f c3 75 82 3f
       0.99383533 1.001165 0.9927157 1.0192188
000190 ad 62 81 3f 9d 2b 80 3f fe 6c 80 3f 8e d5 7e 3f
       1.0108238 1.001331 1.0033262 0.9954461
0001a0 3d 21 7f 3f 43 4b 7e 3f 4d 34 80 3f 98 29 81 3f
       0.9966009 0.9933359 1.0015961 1.0090818
0001b0 39 31 80 3f 0b 2a 81 3f 33 f5 80 3f d9 c7 7e 3f
       1.0015022 1.0090955 1.0074829 0.99523693
0001c0 d0 d5 7e 3f 60 85 7f 3f 67 f7 80 3f c6 50 80 3f
       0.99545 0.9981289 1.0075501 1.002465
0001d0 f5 b2 81 3f 41 60 7e 3f 03 5b 82 3f 77 04 7e 3f
       1.0132738 0.9936562 1.0184025 0.9922556
0001e0 dd 46 7e 3f 88 d3 7d 3f 32 9e 7f 3f e4 33 81 3f
       0.9932688 0.99150896 0.9985076 1.0093961
0001f0 f8 eb 7d 3f 06 06 7f 3f aa 70 7e 3f 28 1d 7b 3f
       0.99188185 0.99618566 0.9939066 0.98091364

fc.1.bias f4 [128]
000000 50 81 ee 3b 11 82 66 3b fc 1d 54 3b 1a b8 d3 3b
       0.007278599 0.003517274 0.0032366505 0.0064611556
000010 b1 63 79 3c 4c e9 a1 bc 86 aa 1c 3c 3a 2d aa bb
       0.015221522 -0.019764565 0.00956214 -0.0051933797
000020 4e ec 53 bb 74 2b ca 3b d0 1f f8 3b 7c ae 8a bb
       -0.0032336893 0.006169731 0.0075721517 -0.004232226
000030 92 60 ba bb f3 70 b4 bc 69 45 59 3b 0c 28 1a 3b
       -0.0056877816 -0.022026515 0.0033152944 0.0023522405
000040 0e 53 96 bb 37 98 0c bc 79 96 5b 3c 2b d0 75 bc
       -0.0045875376 -0.008581213 0.013402575 -0.015003244
000050 2a 0a 8e bb ef 78 2d 3c 36 c7 db 3b 98 ab 00 bc
       -0.0043347077 0.010587915 0.0067070974 -0.007853411
000060 ef 91 55 3c 35 97 cd bb ab a1 82 bc 36 95 33 bc
       0.013035282 -0.006274129 -0.01594623 -0.010960868
000070 ff eb 15 bc 27 b7 0e bc 61 6f ea 3b eb 52 0d bc
       -0.009150504 -0.008710659 0.0071543907 -0.008625726
000080 04 df 05 bc 95 f3 ea b9 05 4f 08 3c 46 43 62 3a
       -0.008170847 -0.0004481344 0.008319621 0.00086312403
000090 7c 25 09 3c 10 63 91 3b bf ff 9f 3b a5 95 73 bc
       0.008370753 0.004436858 0.004882782 -0.014867221
0000a0 7c 99 89 bc 99 6d e2 bb 98 ce 9d 3c 1e 7a c1 3a
       -0.01679682 -0.0069100377 0.01926355 0.0014761125
0000b0 8a e6 b0 bb 0b d6 a3 bc a5 ce 9c 3c 08 eb 3a 3b
       -0.005398576 -0.019999525 0.019141505 0.0028521437
0000c0 bd c3 5f 3c 72 48 f1 bb 26 6e 2a 3a e3 2b 8f bb
       0.0136575075 -0.0073633725 0.0006501399 -0.0043692454
0000d0 47 c8 c7 3b 4d 10 e9 3b 68 87 1e 3c 6e 7b 34 3b
       0.006096873 0.007112539 0.009675838 0.002753939
0000e0 37 b6 5f 3c 51 54 f0 3a a2 11 86 bc 0a 25 80 bb
       0.013654283 0.0018335675 -0.01636583 -0.0039106654
0000f0 ae a6 40 bc c4 98 62 3c 05 8c a4 3b 62 0f 8b 3b
       -0.0117584895 0.0138303675 0.0050215744 0.004243777
000100 3f 8c 6c 3c f2 7b cb 3b 2b 96 68 3b 32 bd 07 3c
       0.014437734 0.006209844 0.0035489898 0.008284854
000110 19 15 8f 3c f0 5c 36 3b ba 0e df 3b af b3 86 bb
       0.017466115 0.002782639 0.0068071755 -0.0041107754
000120 69 99 94 bb 6b 94 14 3b 3f 2c 57 3c d2 97 12 3c
       -0.0045348895 0.0022671472 0.013133108 0.00894733
000130 04 26 ff 3b 3f ec bf 39 fa ee 84 bb e8 2f a9 bb
       0.0077865142 0.00036606376 -0.0040568085 -0.0051631816
000140 13 0a af bb 6e e6 8d bb d7 86 f8 ba b1 82 87 bb
       -0.005341777 -0.004330448 -0.0018961084 -0.0041354527
000150 65 ae 81 3a 62 8c db ba 07 28 ff 3b 40 7e 04 3c
       0.0009893893 -0.0016750211 0.007786754 0.008086741
000160 cf 47 a2 39 fc 11 af bc e0 b5 8d bc 10 d9 62 3c
       0.0003095255 -0.02137088 -0.017298639 0.013845697
000170 b4 1b 4a bc 2f 33 12 3b a1 51 47 bc 9e a3 ad bb
       -0.0123357065 0.002230834 -0.012165458 -0.0052990457
000180 de 1e 27 3c f7 6e a3 bb fc b3 2d bb 0e 29 6f bc
       0.01020023 -0.0049875933 -0.0026504984 -0.014597191
000190 4c 14 33 3c c8 f4 26 3b bc d2 9d bb aa 66 df bc
       0.010930132 0.002547549 -0.0048163813 -0.027270634
0001a0 1f cd 88 bb 15 6b 2a 3c d6 eb bd bb 73 d8 a2 ba
       -0.004174843 0.010401507 -0.005795936 -0.0012424126
0001b0 78 e2 4a 3c 6a 27 e7 bb 3c b6 06 3c 0a 3b b3 bb
       0.012383096 -0.007054259 0.008222159 -0.0054696845
0001c0 91 93 72 3b 62 92 9a 3a 03 d2 15 3a 82 b3 4b bb
       0.0037014226 0.0011792893 0.0005715193 -0.0031082337
0001d0 18 45 66 bc fd cd 1d 3c fa d9 4b 3c bd 97 ed bb
       -0.014054559 0.009631631 0.012442106 -0.0072507546
0001e0 a0 73 0a 3c 74 ff 77 bc 26 a6 41 3b 10 35 dc 3b
       0.008450419 -0.015136588 0.0029548495 0.0067201927
0001f0 56 5c cb bb 49 c1 f3 3b 46 ab 50 bb 4a 5a 5d bc
       -0.0062060757 0.007438813 -0.0031840368 -0.013510296

fc.3.weight f4 [128, 128]
000000 02 ce 83 bd b7 aa 2e 3d e6 9f be bd 45 9f 69 bd
       -0.06435777 0.042643275 -0.09307842 -0.057036657
000010 7c 12 0c 3b 75 d7 ae 3d 20 54 c4 bb cc a0 05 3d
       0.0021373322 0.08537189 -0.005991474 0.03262405
000020 55 4d b0 bd 42 ad 11 3d 59 ef 95 3d 77 d4 cf bd
       -0.086085 0.035565622 0.073210426 -0.10147946
000030 a2 a3 03 bd 2f 1f 8f bd 16 51 89 3b 0e a8 18 bd
       -0.032138474 -0.0698837 0.0041905744 -0.037269644
000040 1e 6a a2 bc d6 30 ad 3d bf 14 30 3d b8 36 2e bd
       -0.019825991 0.0845658 0.042988535 -0.042532653
000050 83 76 a5 bd 61 44 89 bd ff 45 ab 3c 16 79 93 3d
       -0.08079245 -0.06702495 0.0209074 0.0720083
000060 bd 13 25 3d 8a b3 a4 bb 09 7e 35 3b cb d9 7e 3d
       0.040302027 -0.0050262855 0.002769353 0.062219422
000070 07 ea fa 3c 37 e2 4e bd 07 29 9e 3d 29 a2 49 bd
       0.030629171 -0.050508704 0.07722669 -0.049226914
000080 78 61 ae 3d 32 91 c0 3d 6f 7c 94 3d ee a9 49 bc
       0.085146844 0.09402694 0.07250296 -0.012308581
000090 52 34 82 3d 4d 9d 94 3d 52 0b ab 3d 1c 1e c7 3c
       0.063576356 0.07256565 0.083517686 0.02430635
0000a0 39 d8 98 bd d2 3e 62 bd 03 79 cc bc 81 b5 e0 3d
       -0.07463116 -0.05523569 -0.024960047 0.10972119
0000b0 f6 aa a6 3d 35 3c 9d bd af 4c 82 bd c4 1d 40 bd
       0.08138077 -0.07677499 -0.063622825 -0.046903387
0000c0 f0 a1 82 3d 7e 35 4c bd a6 3d 1a bd fc 69 b2 3d
       0.063785434 -0.0498557 -0.03765645 0.08711621
0000d0 d1 89 ac 3c be f0 b3 3d c5 d9 de 3c 21 37 53 3d
       0.02106181 0.08786152 0.02720345 0.051566247
0000e0 de 63 63 3d 58 26 98 bc 97 54 b5 3d a0 a4 83 3d
       0.055515163 -0.018572971 0.08854025 0.06427884
0000f0 9e c0 1f bd 12 18 c3 3d 49 5f 17 bd ee 10 ed bc
       -0.039002053 0.095260754 -0.036956105 -0.028938737
000100 de 1b 50 3d 1e c6 88 3d 40 0a a5 bd c1 d9 61 3d
       0.050807826 0.06678413 -0.08058596 0.055139307
000110 8a af 95 3d c8 7a 3f bc a2 78 97 bb ed 9d 67 bd
       0.07308872 -0.011686988 -0.004622535 -0.056547094
000120 62 5c 63 3c 83 8b 69 3d d1 c3 22 3b 1b 64 10 bd
       0.013877006 0.057017814 0.0024835954 -0.035251718
000130 c3 81 b8 3d bd 47 58 bd 64 0d cb b9 fc 0f b1 3d
       0.09009125 -0.05280279 -0.00038729154 0.08645627
000140 7b aa bc 3d 64 9d e2 bd e6 25 bd 3d 05 99 94 bd
       0.09212204 -0.11065176 0.09235744 -0.07255749
000150 22 36 31 3d 37 a2 b3 bb 56 9f cd 3d 68 60 9b bd
       0.043264516 -0.005481984 0.100401565 -0.075867474
000160 c7 e3 22 bb 81 88 9d bc 7a df 00 3d 80 3e 65 3d
       -0.0024855004 -0.01923013 0.031463124 0.055967808
000170 9b fb b4 bc 60 e6 46 3d da d6 6f 3c ec 55 70 3d
       -0.022092631 0.048559546 0.014638627 0.05867569
000180 f7 17 48 bd 59 6b 9a bd 88 42 c0 bc 8a 12 58 3d
       -0.04885098 -0.07540006 -0.023469225 0.052752055
000190 30 82 fe bb 22 b7 3b 3d d4 85 4a 3d 3b b1 2b bd
       -0.0077669844 0.045828946 0.049444035 -0.041917067
0001a0 97 20 f0 3c f0 24 ba bd 81 c7 f4 3c 75 8a 33 bc
       0.029312415 -0.090890765 0.029880287 -0.010958304
0001b0 30 0d bb 3b f3 c3 2d 3c 79 59 27 3d 33 85 f6 3a
       0.005708359 0.0106058 0.040856812 0.0018808007
0001c0 53 9a d4 bd 93 77 f3 3c fd fa 5a 3d 12 f5 14 3d
       -0.103809975 0.029720103 0.053462017 0.03636653
0001d0 61 32 2e bd e2 5b 15 3b d6 02 85 3d 61 ad 9e 3a
       -0.042528514 0.0022790362 0.064946815 0.0012106114
0001e0 23 13 0e 3d b1 4b e1 bc e4 e0 8f bc 29 16 b3 3d
       0.03468622 -0.027501913 -0.01756329 0.08744461
0001f0 fe 77 88 3d a9 9e 84 3c b8 9a 7d 3d af e8 2e 3c
       0.06663512 0.016188936 0.06191513 0.010675593
000200 aa 9c 8f bd 08 ee d7 3c 8e aa 84 3d 76 27 f5 3c
       -0.07012303 0.02635862 0.06477843 0.029926043
000210 5b 0e 6b bc 72 20 83 3d de 84 71 bd f5 b7 9f 3d
       -0.014346684 0.06402673 -0.058964603 0.07798759
000220 9e cf 91 3d d9 b2 e3 ba bb 81 15 bd 3a 19 fc 3c
       0.07119678 -0.0017372026 -0.036500674 0.030773748
000230 69 32 3b bc bc 68 35 3d f7 09 07 bd c4 9f 3b bd
       -0.011425593 0.044289336 -0.032968488 -0.04580666
000240 b3 c1 af 3d 56 16 14 bd a8 cd b9 3d e5 51 eb bc
       0.08581867 -0.036154114 0.09072429 -0.028725574
000250 e3 7f 4b bd 84 30 50 3c fb 28 91 3d 2f 07 e5 bc
       -0.04968251 0.0127068795 0.070878945 -0.027957527
000260 44 7b 4b 3d 48 0f 94 3c 28 4a d0 bc 76 a0 34 bd
       0.049678102 0.018073693 -0.025425985 -0.04409834
000270 63 33 8f 3a ad 01 7a 3d c0 64 5c 3c 15 5b 05 3d
       0.0010925349 0.061036754 0.013451755 0.032557566
000280 a2 b8 a6 3c 9f ef a2 3d 6a b0 79 bc fa 51 7c 3d
       0.020351712 0.0795586 -0.015239814 0.061601616
000290 7a a1 41 bd fb 7b 55 bb 8b a6 a6 bb a4 3e 80 bd
       -0.047273137 -0.0032575119 -0.0050857714 -0.06261948
0002a0 72 5e 89 bc 6f 9d bc bc 2a e9 a6 bd 0c 9d 86 bc
       -0.016768668 -0.023024289 -0.08149941 -0.016432308
0002b0 66 14 cf bc 44 79 57 3d a2 f6 f4 3b df 80 2d bd
       -0.025278281 0.052605882 0.00747569 -0.04235923
0002c0 05 0c ba bc 2f 82 96 3d 70 f6 8e 3d db 95 ab bd
       -0.02271081 0.07349049 0.06980598 -0.08378192
0002d0 9d 77 47 bd 8e d5 77 bd 68 12 20 bc 08 75 99 3d
       -0.048698056 -0.060506396 -0.009770013 0.07493025
0002e0 30 90 85 3d fc ed 63 3a 15 8f 83 bc 8b 13 93 3d
       0.06521642 0.0008694825 -0.016059438 0.07181462
0002f0 c0 c0 40 bd 18 15 9d bd b3 30 11 3d fa 21 73 3c
       -0.04705882 -0.07670039 0.035446834 0.014839644
000300 65 a6 8b bd a4 43 68 bd 03 88 63 3d dc 2b e0 3c
       -0.068188466 -0.056705132 0.055549633 0.027364664
000310 d2 66 83 3d 0e 96 1b 3d 5b 67 2e 3d ca 81 39 bd
       0.06416096 0.0379849 0.042579036 -0.045289792
000320 29 bc d3 3b 80 7f 3f bd a0 47 89 bd a0 d9 0b 3d
       0.0064616394 -0.046752453 -0.067031145 0.03414309
000330 21 c9 99 bd 1c 78 97 bc 3d 63 76 3d 64 05 39 3d
       -0.075090654 -0.01848989 0.060153235 0.045171157
000340 f9 a6 35 3c e2 75 2a bc 3c 33 ef bc 5d fa e4 bc
       0.011087173 -0.010404082 -0.029199235 -0.027951414
000350 14 eb 7a bd 34 84 06 bc a3 52 85 3d 21 f9 40 3d
       -0.061259344 -0.008210231 0.06509902 0.047112588
000360 4d e5 3e 3d ef ba 48 3d 73 d3 09 bc 2c 57 ac 3c
       0.046605397 0.0490064 -0.00841223 0.02103766
000370 76 60 aa 3d a3 1f 75 bd 19 85 41 bc 87 34 77 3d
       0.0831918 -0.059844624 -0.011811518 0.06035283
000380 ae d0 8a 3d f8 10 23 bd 86 46 9a 3d 6f 8a 05 3d
       0.06778084 -0.039811105 0.075329825 0.032602724
000390 2f b9 26 3d c6 11 8f 3d 59 41 68 3c 12 d3 80 bd
       0.04070395 0.06985812 0.014175736 -0.062902585
0003a0 ec 64 8e bd 77 c2 25 3d a6 72 1f 3c 9c 91 be bb
       -0.06952843 0.04046866 0.009731924 -0.005815698
0003b0 23 58 d8 bc 5e 4e 25 bd 06 a4 7b 3d bd 47 b2 bb
       -0.026409214 -0.04035794 0.06143572 -0.005440681
0003c0 34 ab b4 3d fc cf d8 3c 6c 4b ad bd 37 97 68 bd
       0.08821717 0.026466362 -0.08461651 -0.056784835
0003d0 1f 1a 5f 3c 13 a9 7c 3d 45 95 a2 bd 76 ed eb bc
       0.013617068 0.06168468 -0.07938627 -0.028799754
0003e0 c5 80 f6 3c 98 fc 11 3d c9 55 66 bd f2 4a 8b bd
       0.030090699 0.035641283 -0.056234155 -0.06801404
0003f0 c7 eb 54 bd 29 7a 66 3c 8c aa 7a 3c 74 40 08 3d
       -0.051982667 0.014067211 0.015299451 0.033264592

fc.3.bias f4 [128]
000000 53 c1 e0 3c 05 c6 60 bc dc 59 d1 bc 41 f0 58 3d
       0.027435934 -0.013719087 -0.025555544 0.0529635
000010 07 1a 92 3c 4b 4f 29 3c f7 06 c3 bd 61 f3 35 3b
       0.017834676 0.010333846 -0.09522813 0.0027763473
000020 bd 6c 8f bd 93 ea 6e 3d 19 a6 59 3d c1 08 86 bb
       -0.07003162 0.058329176 0.05313692 -0.004090399
000030 a3 f1 45 bd b6 e9 74 bc 74 14 df 3c bc 6b 99 bc
       -0.048326146 -0.014948299 0.027231432 -0.01872813
000040 2a e1 6d bd 07 60 48 3c f1 cb 76 3d 10 8f a9 3d
       -0.05807606 0.012229926 0.060253087 0.0827924
000050 32 74 84 3d 1f 6a 2a bd 20 0f 8b 3d b2 4e 83 bd
       0.06467475 -0.04160511 0.06789994 -0.06411494
000060 e6 42 82 bd 1f 0e 2e 3d 7c bd 4c 3d 47 1a 84 3c
       -0.06360416 0.042493936 0.049985394 0.016125811
000070 41 a9 79 3d 46 39 f7 3c 10 83 cf bc 35 20 35 3d
       0.06095243 0.030178677 -0.02533105 0.04422017
000080 76 97 80 bd 25 49 11 3d c6 22 2f bd ef 90 51 3d
       -0.06278889 0.035470147 -0.042757772 0.05116361
000090 66 64 a3 bd e7 8a 85 bc ab 15 04 bd 26 b2 ba 3c
       -0.07978134 -0.016301585 -0.032247227 0.022790026
0000a0 35 1f 7a 3b 03 7c 12 3d 4b 0a 6b bd 9a 9a 94 bd
       0.0038165573 0.035762798 -0.057382863 -0.072560504
0000b0 a2 1a 10 3d 9f 4c 82 bd 65 59 80 3d b2 a9 62 bb
       0.03518165 -0.063622706 0.06267051 -0.003458601
0000c0 59 10 e3 3c 22 78 52 bc 6c f5 c8 3d 12 31 ff 3c
       0.027717756 -0.012846025 0.098124355 0.031151328
0000d0 cf 85 34 bd fe 55 8c bc b5 a0 64 3d a1 ab 06 bb
       -0.044072922 -0.017130848 0.055817325 -0.0020549076
0000e0 18 25 78 3d 2c db e7 bc 03 3c 52 3d 60 b3 63 bd
       0.06058225 -0.028302751 0.051326763 -0.055590987
0000f0 d1 3f 97 bd df 4f 22 3c f8 72 4e bd ae 8d 73 3d
       -0.07385219 0.009906738 -0.05040261 0.05946129
000100 b7 d9 b9 3d 07 6b 27 3d 0f b2 ce 3b a9 e8 26 bc
       0.09074729 0.040873554 0.0063078473 -0.010187306
000110 2d dd 99 bd e2 df 34 3d e3 88 97 3d 4f 79 d6 ba
       -0.07512889 0.044158824 0.07399156 -0.0016363057
000120 18 7e a5 bd b9 a0 96 3b a0 de 1a bd c9 5c b2 bd
       -0.08080691 0.0045967964 -0.037809968 -0.087091036
000130 8a 1f 42 bd 85 0f 0d 3d 5e 08 2e 3d 54 e3 eb bc
       -0.04739336 0.03443863 0.04248845 -0.028794922
000140 07 30 64 bd 19 d0 8b bd 68 91 1b 3d e6 62 60 3b
       -0.055709865 -0.06826801 0.037980467 0.0034238636
000150 01 88 b6 3a a1 df ab ba dd 09 3a bd b3 cf 9f 3d
       0.001392603 -0.0013112911 -0.045419563 0.07803287
000160 ca e6 bd 3d ec a6 c2 3d b4 fa 76 3d 2b 3c e0 3b
       0.09272535 0.09504494 0.060297683 0.00684311
000170 3f ea 76 bd a6 64 56 3c d6 43 71 bd 50 07 80 3d
       -0.06028199 0.01308552 -0.058902584 0.06251395
000180 f8 da 77 bd 80 31 29 3c f8 b1 79 bd 67 ed b8 bc
       -0.06051156 0.010326743 -0.06096074 -0.02257414
000190 1d 99 a7 3d 97 ac 16 3d f5 19 5c bd b7 3f 1c bd
       0.08183501 0.03678569 -0.053735692 -0.0381467
0001a0 16 e7 95 3d 20 61 96 bd 6f 69 74 3d 90 36 75 3d
       0.07319467 -0.07342744 0.05967086 0.059866488
0001b0 7f 84 f8 bc af 01 44 3c bc 7e 09 bc 1a b1 c0 3d
       -0.030336617 0.011963292 -0.008392032 0.094087794
0001c0 36 ad c2 3d db b1 ce 3d cb 3d 0d 3d 86 22 72 bd
       0.095056936 0.10092517 0.03448276 -0.059114955
0001d0 c5 76 ea 3a 17 c0 97 bd 3b 39 99 bd 01 d5 84 3d
       0.0017888179 -0.07409685 -0.07481619 0.0648594
0001e0 40 06 6e bd be e1 ae bd 61 65 68 3d be f1 08 3d
       -0.05811143 -0.08539151 0.056737307 0.03343367
0001f0 17 e3 7a 3d 6c 03 8c bd e7 75 87 3d 62 24 5f bd
       0.061251726 -0.0683659 0.06614285 -0.054478057

fc.4.weight f4 [128]
000000 b9 fc 7c 3f a1 85 7c 3f 56 21 80 3f 08 41 7f 3f
       0.98823124 0.986414 1.0010173 0.99708605
000010 bb b3 7d 3f e5 d5 7d 3f c5 5a 7c 3f 41 c9 7f 3f
       0.9910237 0.991545 0.98576003 0.99916464
000020 00 93 7e 3f 98 20 80 3f 6c 65 7f 3f c6 35 7e 3f
       0.99443054 1.0009947 0.9976413 0.993008
000030 ad 4b 80 3f 2a 28 80 3f 8f a9 7c 3f 02 88 7e 3f
       1.0023094 1.0012257 0.98696226 0.9942628
000040 77 ce 7e 3f f5 a8 7c 3f 7e 59 7e 3f 36 3f 80 3f
       0.9953379 0.9869531 0.99355304 1.001929
000050 c2 e3 7d 3f d5 2e 77 3f ef 8a 7c 3f 41 2b 7f 3f
       0.99175656 0.96555835 0.98649496 0.99675375
000060 c7 82 7c 3f 67 43 80 3f 13 6b 7b 3f 1d 6a 7f 3f
       0.9863705 1.002057 0.9821026 0.9977129
000070 80 b0 80 3f ea 4b 7d 3f c4 74 7f 3f 9b d0 7b 3f
       1.0053864 0.9894396 0.99787545 0.9836518
000080 28 3f 7f 3f d6 07 7e 3f 1e 62 80 3f d7 c6 7f 3f
       0.99705744 0.99230707 1.0029943 0.9991278
000090 41 0c 7e 3f e6 12 7c 3f 3f 74 7b 3f fd 1a 80 3f
       0.9923745 0.98466337 0.9822425 1.0008236
0000a0 47 38 7f 3f 30 1d 80 3f 31 ba 7f 3f d2 d4 7e 3f
       0.9969525 1.0008907 0.9989348 0.9954349
0000b0 dc 38 80 3f 3b 0d 80 3f 2b e2 7f 3f 08 1a 7e 3f
       1.0017352 1.0004038 0.9995448 0.9925847
0000c0 f2 78 80 3f 4c a9 7f 3f 75 10 81 3f 1a ee 7e 3f
       1.003691 0.998677 1.0083147 0.99582064
0000d0 46 5a 7c 3f 12 29 80 3f 95 f5 7d 3f 2b dd 7c 3f
       0.98575246 1.0012534 0.99202853 0.98774976
0000e0 ce 03 80 3f 42 48 80 3f 83 73 7b 3f 90 e0 7f 3f
       1.0001161 1.0022051 0.9822313 0.9995203
0000f0 79 86 7f 3f 1c ad 7c 3f 0b 65 7c 3f ba 94 80 3f
       0.99814564 0.98701644 0.9859168 1.0045388
000100 d9 1a 80 3f d1 c8 7c 3f 5c 23 7f 3f 91 8e 7e 3f
       1.0008193 0.9874392 0.9966333 0.9943629
000110 84 81 7c 3f 9d d2 7c 3f 6f 4f 7f 3f 2f 3e 81 3f
       0.98635125 0.9875887 0.9973058 1.0097102
000120 b4 c6 7e 3f 97 c3 7f 3f 0a 19 80 3f 87 50 7d 3f
       0.99521947 0.9990782 1.0007641 0.98951
000130 a6 ff 7d 3f f6 40 7f 3f a7 c3 7f 3f 25 ec 7b 3f
       0.99218214 0.997085 0.99907917 0.984072
000140 37 3d 7d 3f 8a cb 7e 3f 3f 72 7d 3f d1 5b 80 3f
       0.9892153 0.99529326 0.9900245 1.002802
000150 23 0e 7b 3f 6e 4a 7e 3f 76 b6 7a 3f f8 84 81 3f
       0.98068446 0.9933232 0.97934663 1.0118704
000160 f6 9a 7e 3f 32 0c 7e 3f 5b 52 7f 3f 2c b9 7f 3f
       0.994552 0.9923736 0.9973504 0.99891925
000170 96 43 80 3f ac 17 80 3f 90 19 7e 3f 0e 69 7b 3f
       1.0020626 1.0007224 0.99257755 0.98207176
000180 dd 54 7e 3f 64 83 7c 3f b5 ca 7e 3f 45 50 80 3f
       0.9934824 0.98637986 0.99528056 1.0024496
000190 79 31 7e 3f e1 e9 80 3f e8 ab 7e 3f 79 1a 80 3f
       0.9929424 1.0071374 0.9948106 1.0008079
0001a0 c6 61 7f 3f 42 17 7d 3f c5 e4 7e 3f 52 24 80 3f
       0.99758565 0.98863614 0.99567825 1.0011084
0001b0 d0 09 7b 3f 67 36 80 3f 2a 87 7d 3f 93 3d 80 3f
       0.9806185 1.0016602 0.9903437 1.0018791
0001c0 da be 7e 3f 6a c5 7e 3f ec 8f 79 3f 0d 89 7c 3f
       0.99509966 0.9951998 0.9748523 0.9864662
0001d0 78 45 81 3f 43 10 7f 3f 7e f8 7e 3f 6e 08 7e 3f
       1.0099325 0.9963419 0.9959792 0.9923161
0001e0 7e 88 7c 3f 5d 49 80 3f 1f b0 7d 3f 20 b0 7f 3f
       0.9864577 1.0022389 0.99096864 0.9987812
0001f0 59 73 80 3f e2 95 7d 3f c1 68 81 3f 1d a8 7f 3f
       1.0035201 0.9905683 1.0110093 0.99865896

fc.4.bias f4 [128]
000000 f7 54 55 bc b9 00 66 bc 4e 31 3a bb 07 ff 70 3b
       -0.0130207455 -0.014038258 -0.0028410736 0.0036773102
000010 a6 7e c6 ba 2a 21 49 bb b4 1f 4b 3c 78 53 5d b9
       -0.0015143945 -0.0030689933 0.012397695 -0.00021107297
000020 25 61 17 3a a5 5a 34 3b 2f 8b 6b b9 12 a7 15 bc
       0.00057746685 0.0027519849 -0.00022463196 -0.009134071
000030 54 cf 2f bb c8 ac 2b bb 76 41 50 bc 49 31 c9 3b
       -0.0026826458 -0.0026195515 -0.01271092 0.0061399085
000040 cf 4f 83 3a 8c a7 7b bc cb 2f 75 3b cb 68 30 3b
       0.0010018292 -0.0153597705 0.003741252 0.002691793
000050 c2 68 8c bb 6a e2 14 bc f2 e0 98 bc 40 75 67 3b
       -0.004284949 -0.009087184 -0.01866195 0.003531769
000060 eb 9e 44 bc 18 1b 0b bb 79 fc 54 bc e7 53 68 bc
       -0.01200078 -0.0021225866 -0.012999647 -0.01418016
000070 98 bb a7 bb 90 3c 39 bc c5 59 49 bc ee 27 24 3a
       -0.0051187985 -0.011305943 -0.012289469 0.00062620535
000080 35 86 1d 3a 44 fe 1d bb 23 c4 7a ba de 24 2b 3b
       0.0006009073 -0.0024107853 -0.000956597 0.0026114504
000090 cb 71 37 bc 16 a8 a3 bc 90 de bd bb 4c 78 03 bb
       -0.011196564 -0.01997761 -0.005794354 -0.0020060716
0000a0 b5 ef 15 bc d6 84 0f bb 51 38 8b 3a 7a cd 9a bb
       -0.009151389 -0.0021899245 0.0010621642 -0.0047242017
0000b0 e2 29 39 3b 13 61 4f bb a7 dd a7 ba cb 00 30 bc
       0.0028253724 -0.0031643554 -0.0012807146 -0.010742377
0000c0 eb 4b 5a ba 90 13 39 bc 90 2f 9e bb 89 67 53 bb
       -0.00083273527 -0.011296168 -0.0048274472 -0.0032257757
0000d0 c5 8a 57 bc 0b 9c 11 bb aa 7e 86 bb ae a7 b5 3a
       -0.013155644 -0.0022218253 -0.004104455 0.0013859177
0000e0 75 06 c3 3a 17 bc 2b bb 0d 4d 52 bc b9 7f 2a 3b
       0.0014879244 -0.002620464 -0.012835753 0.002601607
0000f0 f2 95 a5 bb 86 aa 42 bc 0e c4 4c bc b4 16 1e ba
       -0.0050532753 -0.011881476 -0.012497915 -0.00060306047
000100 6e 41 54 bc d4 05 2d bc 79 cb 60 ba ed c5 d9 bb
       -0.012955053 -0.010560472 -0.00085752417 -0.006645909
000110 2f be 7c bc 2c be 73 bc b2 85 3d ba 01 28 f3 3b
       -0.015426203 -0.0148768835 -0.00072297 0.0074205403
000120 22 74 ea bb d8 a0 11 39 8c 9e df bb 90 8d 34 bc
       -0.0071549574 0.00013888197 -0.00682432 -0.011020079
000130 dd c3 e6 bb b8 fb 7f 3b 81 ff 7e bb 0c 3a 0b 3c
       -0.0070423917 0.0039059948 -0.0038909616 0.008497726
000140 bb c4 58 bb 34 7b ab 3b bc a6 52 bc 58 93 e2 ba
       -0.0033076245 0.005233193 -0.012857135 -0.0017286344
000150 57 a3 96 bb e1 da c3 ba 62 2c 4e bc 6c d3 cc 3b
       -0.0045971083 -0.001494255 -0.012583824 0.0062507894
000160 41 f8 a0 bb 4b 7e 19 ba 93 23 32 bc 1a 51 06 ba
       -0.0049124067 -0.0005855306 -0.010872739 -0.00051237794
000170 67 ae 2d bb 46 0f ae ba 66 68 42 3b 12 68 9c 3a
       -0.0026501657 -0.0013279698 0.0029664277 0.0011932871
000180 f2 ae 10 bc 97 90 51 bc 46 f9 c8 ba 50 2b 74 3b
       -0.008830773 -0.012790821 -0.0015333078 0.0037257262
000190 d4 bc 33 bc 47 33 25 bc 65 2e 5b 3b a7 73 a2 ba
       -0.010970313 -0.010083026 0.0033444401 -0.0012394086
0001a0 2f a5 ec ba 11 87 4c bc c4 45 6e ba c5 b6 ba bb
       -0.00180546 -0.012483374 -0.00090893754 -0.0056980574
0001b0 80 05 67 bc 78 b3 16 3b b6 1f 80 bc 01 4e 27 3b
       -0.014100432 0.0022995155 -0.015640121 0.0025528672
0001c0 7b dc f6 bb 4e da b4 39 52 33 bf bc 5c 1c 67 bc
       -0.0075336075 0.00034494925 -0.023339901 -0.0141058825
0001d0 e1 46 01 3b 18 f8 cc bb ba 11 7d 3a 3e dc 89 bb
       0.0019726085 -0.006255161 0.00096538255 -0.004207163
0001e0 31 5d 51 bb 18 8f 13 bb b5 f6 11 bc 2b f7 06 3b
       -0.0031946416 -0.002251571 -0.008908917 0.00205941
0001f0 ef 77 12 bc e0 e1 3f bc 5c 22 d3 3b 2f 73 1d bc
       -0.008939727 -0.011711568 0.006443305 -0.009609981

fc.6.weight f4 [1, 128]
000000 0a 47 76 3b 4d 16 bd 3c e8 40 b0 3d 17 8c 2a bd
       0.0037578964 0.023081923 0.0860613 -0.041637506
000010 66 58 ac bc 0c 52 cd ba 90 49 59 bb 01 a9 df bc
       -0.021038245 -0.0015664711 -0.003315542 -0.027302267
000020 b8 3e ce bc ad b7 a8 bd 62 66 ae bb 9d ca 75 3d
       -0.025176391 -0.082381584 -0.0053222636 0.06000768
000030 37 22 b5 3d b3 35 ae 3d 50 db b4 3b ad da 3d bd
       0.088444166 0.08506336 0.005519308 -0.046351124
000040 de 4f 93 bd 0a bb d1 3b d4 32 51 bd b3 66 52 bd
       -0.07192968 0.0064004706 -0.051073864 -0.051367473
000050 8a dd a7 3c ca 7d 6a 3b 33 00 1d 3d 54 e5 3e bd
       0.02049138 0.0035780543 0.038330268 -0.046605423
000060 82 99 3d 3d 8f 07 f8 3c 5d 92 cb 3c 07 a1 8c 3d
       0.046288975 0.030277042 0.024850065 0.06866651
000070 a8 55 4c 3d 96 f1 9d 3d 69 06 8b 3d d0 73 c6 b7
       0.049886376 0.077120945 0.06788332 -2.3657369e-05
000080 64 ab c9 bc 85 57 89 3c c1 3b 97 3d 2f 9c 67 bd
       -0.024617858 0.016765365 0.07384444 -0.056545433
000090 b7 89 76 3d 9b 08 12 3d 9d 57 8e bd 4a af cf 3c
       0.06018993 0.035652738 -0.06950305 0.025352139
0000a0 0c ee 96 3d b8 ae fd 3c 06 d7 44 bc 87 e9 93 3c
       0.073696226 0.030967101 -0.012014156 0.01805569
0000b0 22 fd 01 bd 01 78 56 3d 77 9e 69 bd ad 39 69 3d
       -0.031735547 0.05236054 -0.05703589 0.05693977
0000c0 99 c8 a0 bd b8 db d5 3c d6 69 7d 3d 05 b4 a9 3d
       -0.07850761 0.026105747 0.06186851 0.08286289
0000d0 fa 73 21 3b a0 4c 0b 3d 92 58 11 bd 04 6f 2b bc
       0.0024635778 0.034008622 -0.035484858 -0.01046348
0000e0 b3 f0 25 bd 89 74 b1 3d a7 6d 06 3b 77 c1 5c bd
       -0.04051275 0.086648054 0.0020512135 -0.05389544
0000f0 18 6b 93 bc 43 37 23 3d 40 01 75 3c 43 4b 3d 3d
       -0.017995402 0.039847624 0.014953911 0.046214353
000100 af 75 ad 3c 07 1e 1b 3d bb 6c 8d bd 80 c4 a2 3d
       0.02117428 0.037870433 -0.06905504 0.07947636
000110 5b 79 55 3d 35 e5 37 3d ce 71 a5 bd 0b 6d b9 bd
       0.052117687 0.044896323 -0.08078347 -0.090540014
000120 69 c6 72 bc 3e 0f 1e bd 84 9f 4a 3d 46 ba 6e 3d
       -0.0148178125 -0.038588755 0.049468532 0.058283113
000130 4c 8d 35 bb 31 0a f6 bc ae 68 73 bc 4a 51 f9 bb
       -0.0027702628 -0.030034157 -0.014856501 -0.0076085674
000140 f0 f8 eb 3c b0 23 03 bd b0 32 34 3d 3b 32 96 bd
       0.028805226 -0.032016456 0.043993652 -0.073337995
000150 da b0 35 bb 4a cd 68 3c 94 53 ae ba db cb c2 bd
       -0.002772382 0.014209101 -0.0013300055 -0.095115386
000160 23 af 85 3c 40 c6 ee b9 e1 33 61 3d 3a 0d bb bc
       0.016318863 -0.00045542605 0.054981116 -0.022833455
000170 a6 ea ae 3d 99 a1 99 3d 14 99 f8 bb eb 05 2c bd
       0.085408494 0.075015254 -0.0075866077 -0.04199783
000180 8a c7 30 3d 92 f8 96 3d 91 32 92 bd 53 d0 9a bc
       0.043159045 0.0737163 -0.07138551 -0.018898165
000190 92 ae 56 3d 3d ee 0c 3d 0c ce 9b bc 72 aa 4b 3c
       0.052412577 0.03440689 -0.01901915 0.012430774
0001a0 ab a5 97 bb 22 00 11 3d b4 ba 09 bb 74 95 9e 3d
       -0.0046279035 0.035400517 -0.0021015825 0.0774335
0001b0 ad 73 bb 3b 0d ff 10 bd 35 c1 7a 3d 8e bd 26 bd
       0.0057205767 -0.035399485 0.061219413 -0.040708117
0001c0 f3 9f 9c 3c 6a 18 09 bb be 12 24 3b 90 4a 01 3d
       0.019119238 -0.0020919093 0.0025035585 0.03156525
0001d0 d4 7c b4 3c 49 dc 2f 3d 4f d5 d0 bc 2a 52 bd 3c
       0.022032179 0.04293469 -0.025492338 0.023110468
0001e0 e6 a2 58 bd 74 58 04 3d 01 bc 28 3d 6d 6a 49 bd
       -0.052889727 0.032310918 0.04119492 -0.04917376
0001f0 4e 50 b4 3d 31 95 91 3d e2 c0 21 3d 89 41 9d 3d
       0.088043794 0.07108534 0.039490588 0.076785155
