ppo_models/ppo_model_policy.pth (torch, 82732 bytes, 8 tensors)

shared_fc.0.weight f4 [128, 15]
0	0xbe80a523	-0.2512599
1	0xbdb7bab1	-0.089711554
2	0x3d7d7ace	0.061884694
3	0x3e2b77ea	0.16744962
4	0xbe7403d5	-0.23829587
5	0x3d311477	0.043232407
6	0x3df8f48f	0.12156021
7	0xbd17ba55	-0.037042934
8	0x3dd0b47c	0.10190675
9	0xbe75b9ee	-0.23996708
10	0xbe1945d2	-0.1496804
11	0xbe808162	-0.2509871
12	0x3dc54b08	0.09633452
13	0xbd96dcdc	-0.07366344
14	0x3e4791c2	0.19489196
15	0xbe24b229	-0.16083588
16	0x3d9470d7	0.07248085
17	0x3d8fae05	0.070156135
18	0x3e756fb5	0.23968394
19	0xbe5b4eeb	-0.21416824
20	0xbe5bf4d7	-0.21480118
21	0x3c2dd796	0.010610482
22	0xbc08c59f	-0.008347898
23	0xbd61d520	-0.055134892
24	0x3dbc0462	0.091805235
25	0xbc17b1ce	-0.009258701
26	0xbe0dbc8c	-0.13841456
27	0x3e5b9c48	0.21446335
28	0xbe468f4b	-0.193906
29	0x3e82a457	0.25516006
30	0xbe17deb1	-0.14831044
31	0x3e6d402b	0.2316901
32	0x3e4d8881	0.20071603
33	0xbdef797b	-0.116930924
34	0x3c08f8b4	0.008360077
35	0x3de5ef42	0.112272754
36	0xbe44a7e0	-0.19204664
37	0xbda1c147	-0.07898193
38	0xbe4aa22e	-0.19788429
39	0xbd60930c	-0.054827735
40	0xbd4e0068	-0.050293356
41	0x3e7eded2	0.24889687
42	0x3d28c628	0.0412046
43	0x3dec8d90	0.115504384
44	0xbc875a38	-0.016522512
45	0x3e3405ff	0.17580412
46	0xbe433f3f	-0.19067095
47	0x3e5fd01a	0.21856728
48	0xbe324d72	-0.17412356
49	0x3e3437f6	0.17599472
50	0xbdb670ff	-0.08908271
51	0x3d87fa3d	0.06639526
52	0x3dd2c4b0	0.102914214
53	0xbe2623c6	-0.16224584
54	0xbd1a4232	-0.037660785
55	0xbddb4a33	-0.10707512
56	0x3d1ac0a0	0.037781358
57	0xbe02b178	-0.12763011
58	0x3d587708	0.052847892
59	0x3d4be878	0.049782246
60	0xbd8eb2b3	-0.06967678
61	0xbe82421e	-0.25441068
62	0xbd9e2e41	-0.07723666
63	0xbdf0707c	-0.11740205
64	0xbe313587	-0.17305575
65	0x3dd0a357	0.101874046
66	0xbe6a5db0	-0.22887301
67	0x3e2940bc	0.165286
68	0xbe6f00d5	-0.23340161
69	0x3e12bdda	0.14330235
70	0xbe70b462	-0.2350631
71	0xbde1d57a	-0.110270455
72	0xbde490b2	-0.11160411
73	0xbcb59060	-0.02216357
74	0xbe472a13	-0.19449644
75	0x3e3ce8cf	0.18448184
76	0x3cc29c0a	0.023756046
77	0x3e2312f2	0.15925196
78	0x3c512b72	0.012766706
79	0x3ccf17d8	0.025279924
80	0xbe4a2b99	-0.19743194
81	0xbcf315a8	-0.029673412
82	0x3e1e21b5	0.15442546
83	0xbe4e7e5a	-0.20165387
84	0xbe3474f5	-0.1762274
85	0xbe1ae962	-0.15128091
86	0xbe19bf70	-0.15014434
87	0x3e1c4c42	0.15263465
88	0xbe455a38	-0.19272697
89	0xbcec0248	-0.028809682
90	0x3dac0d8c	0.08401021
91	0x3e89d66d	0.26921406
92	0xb9332c21	-0.0001708721
93	0x3d540812	0.05176551
94	0x3dd49779	0.103804536
95	0x3c1eeb7b	0.009699698
96	0x3e0321fa	0.1280593
97	0x3e391a88	0.18076527
98	0x3e81c177	0.25342914
99	0x3d761f8c	0.06008868
100	0x3e75f20f	0.2401812
101	0x3e537e70	0.20653701
102	0xbe708e86	-0.23491868
103	0x3d52d680	0.051474094
104	0xbce35730	-0.027751535
105	0x3e3ff94c	0.18747443
106	0x3d04f4b7	0.03245994
107	0xbe7b7354	-0.24555713
108	0x3e40bad7	0.18821274
109	0xbe28923b	-0.16462032
110	0xbe63e289	-0.22254385
111	0x3b1f9524	0.002435037
112	0xbd05e247	-0.032686498
113	0xbe78d4b7	-0.24299894
114	0x3e7307d8	0.23733461
115	0xbde954d5	-0.113931336
116	0xbe40d784	-0.18832213
117	0xbdeac92a	-0.1146415
118	0x3d849914	0.0647451
119	0xbde94c70	-0.113915324
120	0x3cd02c58	0.02541177
121	0x3d7d0ced	0.061779905
122	0xbe12de0a	-0.14342514
123	0xbd5e0307	-0.054202106
124	0x3d2864ce	0.04111176
125	0xbe1672da	-0.1469225
126	0xbcdeb09f	-0.027183829
127	0x3e516826	0.20449886
128	0xbe591d54	-0.21202594
129	0x3e02a362	0.12757638
130	0xbe82f206	-0.25575274
131	0xbdd70b48	-0.105001986
132	0xbd83e5ee	-0.0644034
133	0x3d9cdf2c	0.07659754
134	0x3e8266e1	0.25469115
135	0x39ef0000	0.00045585632
136	0x3d95d138	0.07315296
137	0xbe54deca	-0.20788112
138	0x3d637718	0.0555335
139	0xbc8f9160	-0.017525375
140	0xbdd4d7f4	-0.10392752
141	0xbdb3c390	-0.08777535
142	0xbe284502	-0.16432574
143	0x3e1adaaa	0.15122476
144	0x3d751250	0.059831917
145	0x3d129f30	0.035796344
146	0x3d4a70c8	0.049423963
147	0x3e4b586a	0.19857946
148	0xbe30f764	-0.17281872
149	0xbe00d5b8	-0.12581527
150	0x3dddede3	0.10836389
151	0xbb26bd2d	-0.0025442347
152	0x3e0594cf	0.13045047
153	0xbca84a0d	-0.020543123
154	0x3e8fb807	0.2807009
155	0x3dd2726a	0.10275729
156	0x3e7df7c9	0.24801554
157	0x3d194053	0.03741486
158	0x3d0ece50	0.034864724
159	0x3d049578	0.032369107
160	0x3bfc1284	0.007692637
161	0x3b84e280	0.004055321
162	0xbe31a4b3	-0.17347984
163	0xbdc71b28	-0.097219765
164	0xbe277d76	-0.16356453
165	0x3e33d206	0.17560586
166	0x3dc731c5	0.0972629
167	0x3e0c3df7	0.13695513
168	0xbe01dd93	-0.1268218
169	0x3bb45c51	0.005504169
170	0xbd7842b1	-0.060610477
171	0xbe57256c	-0.21010369
172	0x3d223186	0.03959801
173	0xbd7cd26c	-0.06172411
174	0x3d20e393	0.03927953
175	0xbdfb23f2	-0.122627154
176	0x3c745b80	0.014914393
177	0x3e832ded	0.25620976
178	0x3e27a674	0.1637209
179	0x3e624cf6	0.22099671
180	0x3d8d0cac	0.068871826
181	0xbe0c07b9	-0.13674821
182	0xbc96e00a	-0.018417377
183	0x3d9de052	0.07708801
184	0x3e856d64	0.2606002
185	0x3e758ed9	0.23980273
186	0xbdd61a30	-0.104542136
187	0xbddcf984	-0.10789779
188	0xbda29b84	-0.079398185
189	0x3d7b9d37	0.06142923
190	0xbe7bbd0e	-0.24583837
191	0xbd1e4304	-0.03863813
192	0x3dbde9e4	0.09273127
193	0xbe6f5bfc	-0.23374933
194	0x3d7dd878	0.06197402
195	0xbcd11e06	-0.025527012
196	0x3e295f94	0.16540366
197	0x3e226014	0.15856963
198	0xbca3f6de	-0.020015176
199	0x3d6958dc	0.05696951
200	0x3e675294	0.22590095
201	0xbe315a36	-0.17319569
202	0x3e036d70	0.12834716
203	0xbd1a26c4	-0.037634626
204	0x3cd892db	0.026437214
205	0x3cbf755f	0.023371397
206	0x3e45149a	0.1924614
207	0x3dc009ec	0.093768924
208	0xbe267f41	-0.16259481
209	0xbd35d328	-0.044390827
210	0xbe208f16	-0.15679583
211	0xbe23499a	-0.15946046
212	0x3e52611e	0.2054486
213	0x3d8ebd74	0.06969729
214	0xbe364ad2	-0.17801979
215	0xb7cc0000	-2.4318695e-05
216	0xbe70cde3	-0.2351604
217	0xbe1403ae	-0.14454529
218	0x3e139ce4	0.14415318
219	0xbe5dc984	-0.21658903
220	0x3e0ce912	0.13760784
221	0x3e041464	0.12898403
222	0x3e570540	0.20998096
223	0x3e257ecc	0.1616165
224	0xbdea65be	-0.11445187
225	0xbc290b30	-0.010317609
226	0xbe41642d	-0.1888587
227	0xbe389100	-0.18024063
228	0xbe1a1247	-0.15046035
229	0xbe07ba2a	-0.1325461
230	0xbe420050	-0.18945432
231	0xbb661d00	-0.00351125
232	0xbdc8be9e	-0.09801982
233	0x3d32c630	0.043646038
234	0xbe676c4f	-0.2259991
235	0xbc121330	-0.0089157075
236	0x3e082882	0.13296703
237	0xbe2efcb3	-0.17088585
238	0xbe127a5a	-0.14304486
239	0x3e83e997	0.25764152
240	0x3e0db6a2	0.138392
241	0xbe528a1b	-0.20560496
242	0xbcb94623	-0.022616452
243	0x3cd71a01	0.026257517
244	0x3c8bf138	0.017082796
245	0x3c70fc3f	0.014708578
246	0x3e7ad5fd	0.24495693
247	0x3dc99e71	0.098446734
248	0xbe5596f7	-0.2085837
249	0x3cb04ee0	0.021521986
250	0x3d94a41e	0.07257865
251	0xbd9dc4e4	-0.077035695
252	0xbcf83710	-0.030299693
253	0xbdbdc90a	-0.09266861
254	0x3de4a910	0.111650586
255	0xbe084601	-0.13307954

shared_fc.0.bias f4 [128]
0	0x3d04c282	0.03241206
1	0xbd724a4a	-0.05915288
2	0x3e1aafd6	0.15106139
3	0xbcec7026	-0.02886207
4	0x3df547d3	0.1197659
5	0x3e2fe8ac	0.17178601
6	0x3de71508	0.11283308
7	0x3e6633c2	0.22480682
8	0xbe612a2b	-0.21988742
9	0xbc904f58	-0.017615959
10	0xbe13874b	-0.14407079
11	0xbe74cd41	-0.23906423
12	0x3e7b9396	0.24568018
13	0x3d6b9994	0.05751951
14	0xbe34bf0e	-0.17651007
15	0xbe01f0da	-0.12689534
16	0xbdc2d55e	-0.09513353
17	0xbe874b40	-0.264246
18	0xbe01defd	-0.1268272
19	0xbe4543b8	-0.19264114
20	0x3e245fb4	0.16052133
21	0xbd38f7da	-0.045158245
22	0x3e5520d4	0.20813304
23	0x3e7ed4ce	0.24885866
24	0xbe1f03b3	-0.15528755
25	0xbe5fd567	-0.2185875
26	0xbd84b4bf	-0.06479787
27	0x3e0313eb	0.12800567
28	0x3c18ebd6	0.009333571
29	0x3d4eb040	0.050461054
30	0x3e59b1ef	0.21259283
31	0xbe82d6a4	-0.25554383
32	0x3e713ed1	0.23559119
33	0x3e6fbbfc	0.23411554
34	0xbd330168	-0.043702513
35	0xbce28f2b	-0.027656158
36	0xbe203422	-0.15644887
37	0xbe6486ef	-0.22317098
38	0x3d4c3138	0.049851626
39	0x3dcf6ae0	0.10127807
40	0xbdd7470b	-0.10511597
41	0x3d8ce43c	0.0687947
42	0xbe2502a1	-0.16114284
43	0xbd2c419b	-0.042054754
44	0xbe2070b8	-0.15667999
45	0xbe28e7c0	-0.16494656
46	0x3e83c3a3	0.25735196
47	0xbe439a28	-0.19101775
48	0xbe569b7f	-0.20957755
49	0x3d5b4395	0.053531248
50	0x3e1ca5f4	0.15297681
51	0x3b2811cc	0.0025645373
52	0xbccae698	-0.024768159
53	0xbe459d52	-0.19298294
54	0x3e56b67e	0.20968053
55	0x3e436e40	0.19085026
56	0x3d88dddd	0.06682942
57	0x3e0849c2	0.13309386
58	0xbe6eddc5	-0.23326786
59	0xbe3f6625	-0.18691309
60	0xbda8775a	-0.082258895
61	0xbe782634	-0.24233323
62	0xbe0922d2	-0.13392189
63	0x3c275280	0.010212541
64	0xbe409549	-0.18806948
65	0x3dd92a59	0.1060378
66	0xbe744025	-0.23852594
67	0xbda3d69f	-0.0799992
68	0xbe152757	-0.14565788
69	0xbc1317f2	-0.008977877
70	0x3c74df60	0.014945835
71	0x3e3d1165	0.18463667
72	0x3d9ef765	0.077620305
73	0xbe5859f2	-0.21128061
74	0x3e727066	0.23675689
75	0xbd873b76	-0.06603138
76	0xbe3b184a	-0.18270984
77	0x3c970827	0.018436505
78	0xbe3d0e9b	-0.18462603
79	0xbd1b419f	-0.037904378
80	0xbc9350fd	-0.017982954
81	0x3e77814e	0.2417042
82	0xbd75fa57	-0.060053196
83	0x3e762a31	0.24039532
84	0x3e59cd7e	0.21269795
85	0xbe09826e	-0.13428661
86	0xbcea84f3	-0.028627848
87	0xbd93afea	-0.07211287
88	0xbd898906	-0.06715588
89	0xbe40c324	-0.1882444
90	0x3e6aa34e	0.22913858
91	0xbe3e16cb	-0.18563382
92	0xbe3f582c	-0.18685979
93	0x3e05b9d4	0.13059169
94	0x3d5f33f7	0.054492917
95	0xbe3623a5	-0.17787035
96	0xbe2ec6b5	-0.17067988
97	0xbd8364b3	-0.06415691
98	0xbe4c201e	-0.19934127
99	0xbe26c7bb	-0.16287129
100	0xbe485f9a	-0.19567719
101	0x3e74a1ef	0.23889898
102	0x3e228403	0.15870671
103	0x3d402640	0.046911478
104	0x3d60015e	0.054688804
105	0x3c90d36a	0.017678935
106	0xbe2cacc1	-0.16862775
107	0xbe50847b	-0.20363037
108	0x3d8be662	0.068310514
109	0x3e6bc22b	0.23023288
110	0x3db14318	0.08655375
111	0xbe536489	-0.2064382
112	0x3df30795	0.118666805
113	0x3e043960	0.12912512
114	0x3da0ce89	0.078518935
115	0xbe0aa1ac	-0.13538235
116	0x3c77b72a	0.015119353
117	0xbe3861f7	-0.1800612
118	0x3dad89e9	0.0847357
119	0xbd7a11cb	-0.061052125
120	0xbe632513	-0.22182111
121	0xbd3471df	-0.04405391
122	0x3e3d8ee6	0.18511543
123	0x3e2595a7	0.16170369
124	0xbe5804ab	-0.2109553
125	0x3d723f98	0.05914268
126	0x3d005126	0.03132739
127	0xbd472f58	-0.048629135

shared_fc.2.weight f4 [128, 128]
0	0x3c772a2a	0.015085736
1	0x3c909983	0.017651325
2	0x3da181b5	0.07886068
3	0xbbd9dbaf	-0.006648503
4	0xbcf9fdf6	-0.030516606
5	0x3d6d046a	0.057865538
6	0xbd3f4ace	-0.0467022
7	0x3dad130b	0.08450898
8	0xbd8db902	-0.06920053
9	0xbb4d97e0	-0.0031371042
10	0x3d9c7073	0.076386355
11	0xbd31696c	-0.04331343
12	0xbd49a2dc	-0.04922758
13	0x3da447b8	0.08021492
14	0x3b9aadb0	0.004720412
15	0x3d0bfe40	0.03417802
16	0xbc8e1448	-0.017343655
17	0xbcc59119	-0.02411704
18	0x3a44b312	0.000750349
19	0xbc9502a4	-0.018189736
20	0x3d7818ae	0.06057041
21	0x3d231473	0.039814424
22	0x3bb6858e	0.00557012
23	0xbdbd899b	-0.09254762
24	0x3ca5af4d	0.020225191
25	0xbdaf5d0c	-0.08562669
26	0xbd90c0cb	-0.07068022
27	0xbda3bf76	-0.07995503
28	0xbd5432f6	-0.051806413
29	0x3d1f0252	0.038820572
30	0xbc1333ba	-0.008984501
31	0xbd915813	-0.07096877
32	0x3c5474d8	0.012967311
33	0xbd334f6a	-0.043776907
34	0xba5d114c	-0.00084330584
35	0xbc03d6c1	-0.008046807
36	0x3ce3f697	0.027827544
37	0x3d519b14	0.051173285
38	0x3c785e70	0.015159234
39	0x3d77c318	0.06048879
40	0xbb2d5361	-0.0026447403
41	0xbdb9db2b	-0.09075006
42	0xbda77ec4	-0.081784755
43	0xbcf277a4	-0.029598065
44	0xbd23473c	-0.039862856
45	0xbd1695f6	-0.036764108
46	0x3d5b4c52	0.05353958
47	0xbd88ed6d	-0.066859104
48	0x3cc9d9a1	0.024639906
49	0x3d933acc	0.07188949
50	0x3d8716dd	0.06596158
51	0x3d9717b1	0.07377566
52	0xbc902b20	-0.017598689
53	0xbd83bab6	-0.06432097
54	0xbc9f769f	-0.019465743
55	0x3cf960e8	0.030441716
56	0x3d93535f	0.07193636
57	0x3c10b1e0	0.008831471
58	0x3b5b35f8	0.0033448916
59	0xbd02ad2a	-0.031903423
60	0xbd5134ec	-0.05107586
61	0x3cef3e6c	0.02920457
62	0xbd7d3472	-0.061817594
63	0xbce51fe6	-0.027969312
64	0x3d80ec67	0.0629509
65	0x3d1ed11a	0.038773634
66	0x3d3f64ba	0.04672692
67	0xbd7e7a4f	-0.06212836
68	0xbd581e11	-0.05276305
69	0x3cd63f06	0.026153099
70	0x3d402032	0.046905704
71	0xbd8ec174	-0.06970492
72	0xbd810b80	-0.063010216
73	0x3c87e785	0.01658989
74	0xbd8fb738	-0.07017368
75	0xbd856ff2	-0.065154925
76	0xbc9bcc8e	-0.019018438
77	0x3bef6880	0.0073061585
78	0xbda37c5e	-0.079827055
79	0x3d8b733e	0.0680909
80	0x3d5400db	0.05175863
81	0x3cc85e94	0.02445916
82	0x3d820bf3	0.063499354
83	0xbd67e367	-0.056613352
84	0xbd4dc43a	-0.050235964
85	0xbd750714	-0.059821203
86	0x3d88d9bc	0.066821545
87	0x3d993258	0.074803054
88	0xbd86520b	-0.06558617
89	0x3d8ec827	0.0697177
90	0xbcdec33c	-0.027192704
91	0x3d4ae762	0.04953707
92	0xbd2523a0	-0.040317178
93	0xbd4b1e31	-0.04958934
94	0x3c3ad188	0.011402495
95	0xbd8a5127	-0.0675376
96	0x3c3e4a47	0.011614389
97	0x3da57aad	0.08080039
98	0xbcebcb46	-0.028783452
99	0xbdac352b	-0.084085785
100	0x3d06020a	0.03271679
101	0xbca15495	-0.019693652
102	0x3c881a70	0.016614169
103	0x3cdc160c	0.026865982
104	0xbd7024ef	-0.058628973
105	0xbd391c1c	-0.045192823
106	0xbcc86f00	-0.024466991
107	0xb9ce9500	-0.00039402395
108	0xbc26fe2f	-0.010192438
109	0xbdb09a79	-0.08623213
110	0x3c96ec33	0.018423175
111	0x3d4000ca	0.046875753
112	0xbd2a6c30	-0.041607082
113	0x3d260ad5	0.040537674
114	0xbd25e9c7	-0.04050615
115	0x3bada3a5	0.005299049
116	0x3d8ea646	0.06965308
117	0x3da237cd	0.079207994
118	0x3ccb600c	0.024826072
119	0xbd715f07	-0.058928516
120	0xbd8e1da1	-0.06939245
121	0x3d900994	0.07033077
122	0xbb375719	-0.0027975498
123	0xbd8119c2	-0.06303741
124	0x3d7e535e	0.062091224
125	0xbce75bd6	-0.028242033
126	0x3d86780f	0.06565868
127	0x3d879d05	0.06621746
128	0x3d2cffa8	0.042236
129	0xbb95f36c	-0.0045761373
130	0x3cdedf81	0.027206184
131	0xbddc8955	-0.107683815
132	0xbdc9b131	-0.0984825
133	0xbd2025c8	-0.03909853
134	0x3ce287af	0.02765259
135	0xbc5e8670	-0.013581857
136	0x3db546f9	0.088514276
137	0xbc472670	-0.01215516
138	0xbd22ccb5	-0.039746005
139	0xbd175057	-0.036941852
140	0x3d2e9b22	0.042628415
141	0x3d7a2e47	0.06107929
142	0xbcc8f390	-0.024530202
143	0x3cf7322c	0.030175291
144	0xbdbe5836	-0.09294169
145	0xbdb75bac	-0.08953032
146	0xbc54e96d	-0.012995106
147	0xbd8861d1	-0.06659282
148	0xbc0aef60	-0.008479923
149	0x3cdc05b1	0.026858183
150	0x3d5db65c	0.05412899
151	0x3c01a630	0.007913157
152	0x3d7fb0a6	0.062424324
153	0x3d2edc36	0.04269048
154	0x3d7f03d6	0.062259518
155	0xbdae210e	-0.085023984
156	0xbca94f08	-0.020667568
157	0xbd380596	-0.044927202
158	0x3b671320	0.0035259202
159	0xbd5428ec	-0.05179684
160	0x3da16045	0.0787969
161	0x3d21fe2e	0.039549045
162	0xbc0528fd	-0.008127448
163	0xbd4eb7f4	-0.0504684
164	0x3cb430b6	0.021995883
165	0xbdb95bee	-0.09050737
166	0x3d692e8e	0.056929164
167	0x3d134efe	0.035964005
168	0x3da053e7	0.07828503
169	0xbdbf1883	-0.09330847
170	0x3d5b8a8a	0.053598918
171	0x3d85f331	0.06540526
172	0x3d68a678	0.056799382
173	0xbd060ecf	-0.032728966
174	0xbd24f55d	-0.04027306
175	0x3a9827b1	0.0011608509
176	0xbc436f82	-0.011928441
177	0xbc84efec	-0.016227685
178	0x3d516a02	0.051126488
179	0x3cc988a1	0.024601283
180	0x3d73ddde	0.05953776
181	0x3bb232c1	0.0054381792
182	0x3d2f9fcb	0.042877
183	0x3c8fb7be	0.01754367
184	0x3d6cb1c6	0.057786725
185	0x3d95f759	0.073225684
186	0xbc3162ef	-0.01082681
187	0xbcc85684	-0.024455316
188	0xbc815c30	-0.015791029
189	0xbdc72243	-0.09723332
190	0x3d883d95	0.06652371
191	0x3d4dc4ae	0.050236396
192	0xbc895342	-0.016763333
193	0x3d8e576d	0.06950269
194	0x3bfa14b4	0.0076318625
195	0xbcb3e444	-0.021959431
196	0xbbe67d80	-0.0070340037
197	0xbdaacfd6	-0.08340423
198	0x3d9e5d1c	0.07732603
199	0xbc994615	-0.018710176
200	0xbd8ccc12	-0.06874861
201	0xbd4a0e6e	-0.049330167
202	0x3d177687	0.03697827
203	0xbcca25e3	-0.024676269
204	0x3d2e2635	0.042516906
205	0xbda335d0	-0.07969248
206	0xbd29198a	-0.04128412
207	0xbba2434c	-0.00495187
208	0x3bdfb770	0.0068272874
209	0x3da30279	0.07959456
210	0x3c034a7a	0.008013362
211	0xbca1ce29	-0.019751625
212	0x3d03ff02	0.032225616
213	0xbc8ddd79	-0.01731752
214	0xbd334108	-0.04376319
215	0x3d3a116b	0.045426767
216	0xbd088a62	-0.033335097
217	0x3d86fb84	0.065909415
218	0xbd70c356	-0.058780037
219	0xbd915234	-0.07095757
220	0x3c52c3a8	0.012864031
221	0x3dbf9749	0.09355027
222	0x3d538522	0.051640637
223	0x3b3f4ee0	0.00291913
224	0xbd2b8278	-0.04187247
225	0x3d64d86c	0.05587046
226	0x3c9c2682	0.01906133
227	0xbc9f91bc	-0.019478671
228	0xbc80a4d9	-0.015703605
229	0x3c7a982c	0.01529507
230	0xbdc5c718	-0.09657115
231	0xbab40500	-0.00137344
232	0x3d950595	0.07276455
233	0xbd131c11	-0.035915438
234	0x3d9d584f	0.07682859
235	0xbd0808b9	-0.033211444
236	0xbd345232	-0.0440237
237	0x3d36f699	0.044668768
238	0xbb2eafbf	-0.0026655046
239	0xbdb250c9	-0.08706815
240	0x3d366010	0.044525206
241	0x3d3d90b4	0.046280578
242	0xbd4f3047	-0.05058315
243	0x3d83ac72	0.06429376
244	0x3cdc2653	0.026873743
245	0xbd127267	-0.035753634
246	0xbdaf44a5	-0.08558015
247	0xbd04ff7d	-0.032470215
248	0x3d1d875a	0.03845916
249	0xbd51e422	-0.051242955
250	0xbbb292b2	-0.0054496164
251	0x3d5cb2f0	0.053881586
252	0xbd6bdda4	-0.05758442
253	0xbd8e32d0	-0.069432855
254	0x3d4ab08e	0.049484782
255	0xbc951011	-0.018196138

shared_fc.2.bias f4 [128]
0	0xbdad96b9	-0.08476014
1	0xbc00af28	-0.0078542605
2	0x3c73fcc1	0.014891804
3	0x3da3a2db	0.079900466
4	0xbdab5c07	-0.08367162
5	0x3ba67c37	0.0050807255
6	0x3d2ea6af	0.04263943
7	0xbda87274	-0.08224955
8	0x3d1efbeb	0.038814466
9	0xbad80d64	-0.0016483483
10	0x3bcea5bd	0.0063063786
11	0xbd58bd96	-0.05291518
12	0x3d70b9b2	0.058770843
13	0xbc806e01	-0.015677454
14	0x39e33419	0.0004333563
15	0xbd1bb099	-0.038010214
16	0xbbb68765	-0.0055703395
17	0x3d82140b	0.06351479
18	0xbd29d3b0	-0.041461647
19	0x3ac2c0c0	0.0014858469
20	0xbdbeeb9d	-0.093222834
21	0x3bc53e70	0.006019406
22	0xbd816f06	-0.06320004
23	0xbd1b251d	-0.03787719
24	0xbca798f1	-0.02045867
25	0x3d4de83e	0.05027031
26	0xbd83a1ce	-0.06427346
27	0x3cee42ea	0.029084641
28	0x3b851050	0.0040607825
29	0x3c614af5	0.013750781
30	0x3d97f4ac	0.07419714
31	0x3c18eb0d	0.009333384
32	0x3d37c0e3	0.044861685
33	0x3cd85c9a	0.026411343
34	0x3c19375e	0.0093515795
35	0x3cf86cf9	0.0303254
36	0xbd7e7398	-0.062121958
37	0xbcbea77b	-0.02327322
38	0x3cd2e001	0.025741579
39	0x3b426093	0.0029659614
40	0x3d1bc544	0.038029924
41	0x3d6098ba	0.05483315
42	0x3dcafb56	0.0991122
43	0x3d4201c9	0.047364984
44	0x3d89cef7	0.067289285
45	0x3ca204c0	0.019777656
46	0xbda2be28	-0.07946426
47	0xbce6b9ad	-0.028164709
48	0xbcfc11f8	-0.030770287
49	0x3d8c3576	0.06846134
50	0xbd4b4fa2	-0.04963649
51	0xbc1bfcae	-0.009520693
52	0x3ca16f7d	0.019706482
53	0x3d23cd88	0.03999093
54	0x3d3bb45a	0.045826294
55	0x3d30c150	0.043153107
56	0x3d8a1e7e	0.06744097
57	0xbd5ae794	-0.053443506
58	0x3d85cc36	0.06533091
59	0x3da8fa9e	0.082509264
60	0x3d2f94f6	0.04286667
61	0x3d189fca	0.03726176
62	0xbd7574f4	-0.05992599
63	0xbd7b3b42	-0.06133581
64	0xbcca2c6d	-0.024679387
65	0x3da3368f	0.079693906
66	0x3d2edfea	0.04269401
67	0xbd82069a	-0.063489154
68	0xbd1ae494	-0.037815645
69	0x3d517e9a	0.051146127
70	0xbda1342a	-0.07871278
71	0x3d4d4915	0.050118525
72	0xbd783393	-0.06059606
73	0x3d5fd97a	0.05465076
74	0x3b1942e7	0.0023385824
75	0x3d183a02	0.037164696
76	0x3dae228a	0.085026816
77	0xbca9e5fd	-0.02073955
78	0x3c3f144a	0.011662552
79	0x3d3806e1	0.044928435
80	0xbd9c285c	-0.076248854
81	0x3d083e43	0.033262502
82	0x3da3ccfd	0.07998083
83	0x39428800	0.00018551946
84	0xbdc136d0	-0.09434283
85	0xbc204e84	-0.009784345
86	0xbd6b64d2	-0.057469197
87	0x3dc56008	0.09637457
88	0x3cce8ecb	0.025214573
89	0xbd2463d9	-0.040134285
90	0xba1bba25	-0.00059405185
91	0xbd65c6db	-0.056097846
92	0xbdbef991	-0.09324945
93	0x3d6d3524	0.057912007
94	0x3d0f0420	0.034916043
95	0x3d5a0ea0	0.053236604
96	0xbc6d5982	-0.014486672
97	0xbd9d07cb	-0.07667502
98	0xbc7c2a26	-0.015390908
99	0xbda51eed	-0.08062539
100	0x3cabf8d1	0.020992668
101	0xba1e6500	-0.0006042272
102	0xbd2b1414	-0.041767195
103	0xbab2c0c0	-0.0013637766
104	0xbbdbb1b5	-0.006704534
105	0x3d9aa5fa	0.07551189
106	0xbc92f62f	-0.017939655
107	0xbc63be30	-0.013900325
108	0x3d2a07ba	0.041511275
109	0x3d0e21de	0.034700267
110	0x3cfd7beb	0.030942878
111	0x3d9e2fc4	0.07723954
112	0xbd7f73c1	-0.06236625
113	0x3d2a04a3	0.04150833
114	0xbc137835	-0.009000828
115	0x3cc60a24	0.024174757
116	0x3d2f0816	0.04273232
117	0x3d9aa5cf	0.07551157
118	0x3d011ebc	0.03152345
119	0xbd9573a0	-0.07297444
120	0x3d704062	0.05865515
121	0xbdcb8cdc	-0.09938976
122	0x3c875816	0.016521495
123	0x3d92bb3f	0.071646206
124	0x3d850e04	0.06496814
125	0xbc055925	-0.0081389295
126	0xbcbed655	-0.02329556
127	0xbd0cd013	-0.034378123

banker_fc.weight f4 [5, 128]
0	0x3d9fa945	0.077959575
1	0xbdaec6da	-0.08534022
2	0xbdcdc559	-0.10047407
3	0xbd4f2e72	-0.050581403
4	0xbca0113b	-0.019539466
5	0xbcfd44e3	-0.030916637
6	0x3c8ba29c	0.017045312
7	0x3d1c5656	0.038168274
8	0xbbd8b88d	-0.006613797
9	0x3d8422a1	0.064519174
10	0xbd90c1e4	-0.07068232
11	0x3cabf44d	0.020990515
12	0x3cc40f40	0.023933053
13	0x3da7df47	0.08196884
14	0x3d229c50	0.039699852
15	0x3d506272	0.050875135
16	0xbd53e69b	-0.051733594
17	0x3d848465	0.06470565
18	0xbc2b9f65	-0.010475014
19	0xbcfc6250	-0.030808598
20	0xbd27b151	-0.040940586
21	0xbd227769	-0.03966466
22	0x3d64d25e	0.055864684
23	0x3d64f459	0.05589709
24	0xbd2e9ca0	-0.042629838
25	0x3d11a27a	0.03555534
26	0xbcf42421	-0.029802384
27	0xbc5efd35	-0.013610174
28	0xbd2ee5bd	-0.042699564
29	0x3d4e4f7b	0.050368767
30	0xbcf5aa8b	-0.029988548
31	0xbc32ec14	-0.010920543
32	0xbd05d5cd	-0.0326746
33	0xba764853	-0.00093949324
34	0x3d3cb7b7	0.04607364
35	0xbd53a972	-0.051675268
36	0x3bfd88d4	0.0077372584
37	0xbda7a60f	-0.0818597
38	0x3d82a11d	0.06378386
39	0xbd9f1c6d	-0.07769094
40	0x3cd5427b	0.026032677
41	0x3c1762b3	0.00923984
42	0x3d319731	0.043357078
43	0xbc44472f	-0.011979862
44	0x3c0a36c8	0.008435912
45	0x3b5c4bf3	0.0033614605
46	0xbd3a98e4	-0.045555964
47	0x3d707234	0.058702663
48	0xbca9b6dd	-0.020717079
49	0x3d49afae	0.049239807
50	0xbdb3b81e	-0.08775352
51	0xbb8844bd	-0.004158585
52	0xbdd2982e	-0.10282932
53	0xbd6d6dcf	-0.05796605
54	0xbd35dfb5	-0.044402797
55	0xbc3005a1	-0.01074353
56	0xbccaf3b0	-0.024774402
57	0x3d27417a	0.040833928
58	0xbcb67ec3	-0.022277242
59	0x3db74387	0.08948427
60	0x3d016c7f	0.03159761
61	0x3d5b6206	0.05356028
62	0x3bc25700	0.0059307814
63	0xbd271a46	-0.04079654
64	0xbc8f46e5	-0.01748986
65	0xbd6438b1	-0.055718128
66	0x3db9bb78	0.0906896
67	0xbd751df5	-0.059843022
68	0xbbeda3ec	-0.007252207
69	0xbdaa0b70	-0.08302963
70	0x3cc88e6c	0.024481975
71	0xbbd0490b	-0.0063563637
72	0xbc948d57	-0.018133802
73	0x3ce0e840	0.027454495
74	0x3bb1cd0d	0.0054260553
75	0x3cdf4667	0.02725525
76	0xbc9f96a9	-0.01948102
77	0x3c06b1ab	0.00822107
78	0x3d8e5dbf	0.069514744
79	0x3d5b1757	0.053489055
80	0xbd8667d4	-0.065627724
81	0xbc621e62	-0.013801189
82	0x3d153449	0.036426816
83	0x3c432038	0.011909537
84	0xbd9d2c2e	-0.07674442
85	0xbd54e8b9	-0.051979754
86	0x3cb7b4b5	0.022425035
87	0xbd474825	-0.048652787
88	0x3ca32b3c	0.019918077
89	0xbd21d226	-0.039507054
90	0xbd8f10d3	-0.06985631
91	0x3d9393f2	0.07205953
92	0x3c0ad707	0.008474118
93	0x3b029376	0.001992432
94	0xbc6cae3d	-0.0144458385
95	0xbd0f78b8	-0.035027236
96	0xbdc22d40	-0.09481287
97	0xbc080c75	-0.008303751
98	0xbd330934	-0.04370995
99	0x3dd07583	0.101786636
100	0xbda52149	-0.08062989
101	0x3d2e3256	0.042528473
102	0x3dbe7765	0.093001164
103	0x3d2a1e36	0.041532718
104	0xbd658bc5	-0.056041498
105	0xbd95b083	-0.073090576
106	0xbc54f9df	-0.012999027
107	0xbd98515f	-0.07437395
108	0x3c376521	0.011193545
109	0xbce21e36	-0.027602296
110	0xbdb65adc	-0.08904049
111	0xbd34e110	-0.04415995
112	0x3da0365a	0.07822867
113	0xbd94b64f	-0.07261335
114	0x3d7653db	0.060138565
115	0x3db82c1c	0.08992788
116	0xbc22230f	-0.009896054
117	0xbd991f8e	-0.07476722
118	0x3c8428f1	0.016132804
119	0xbbbc51c5	-0.0057470524
120	0x3d74a88b	0.059731048
121	0x3c512ade	0.012766568
122	0xbd0b4665	-0.03400268
123	0xbd8a6c8e	-0.067589864
124	0x3d93ac7f	0.072106354
125	0xbd525085	-0.05134632
126	0x3db0d07f	0.086335175
127	0x3ca6272c	0.02028235
128	0xbdbdaa85	-0.0926104
129	0xbda265ce	-0.07929574
130	0x3d8977fb	0.067123376
131	0xbcf410e2	-0.029793207
132	0x3d6b68ed	0.057473112
133	0x3d25a115	0.040436823
134	0x3d38070f	0.044928607
135	0xbcf04efe	-0.029334541
136	0xbd3bad94	-0.045819834
137	0xbd3ac315	-0.0455962
138	0x3db65df7	0.08904641
139	0x3d59a733	0.05313797
140	0x3d5caefa	0.05387781
141	0xbceb02e1	-0.028687896
142	0xbc498134	-0.012298871
143	0xbd9ce20d	-0.07660303
144	0xbd86d6bb	-0.06583925
145	0x3c8e4184	0.017365225
146	0x3d3418c0	0.043968916
147	0x3da3ab5f	0.07991671
148	0x3d8c3205	0.06845478
149	0x3da97e07	0.08275991
150	0xbd79d7bb	-0.060996752
151	0x3d023879	0.031792138
152	0xbd4498bf	-0.047997233
153	0xbd8e1b57	-0.069388084
154	0xbd44dda5	-0.04806294
155	0x3d5b3a3d	0.053522337
156	0xbda08fa0	-0.07839894
157	0x3b112444	0.002214686
158	0xbd32ce38	-0.043653697
159	0xbd01e4ff	-0.03171253
160	0x3cb0d53c	0.021586053
161	0x3d93a16d	0.07208524
162	0xbb33c076	-0.0027427948
163	0x3db9c9c1	0.09071685
164	0xbc5e4c08	-0.013567932
165	0x3d5f7c12	0.054561682
166	0x3d733ae3	0.05938233
167	0xbd871941	-0.06596614
168	0x3d93cd24	0.07216862
169	0xbcb33780	-0.02187705
170	0x3d79483f	0.060859915
171	0x3dd641ad	0.104617454
172	0x3d2bbb0c	0.04192643
173	0xbd77c00c	-0.060485885
174	0x3d7b3610	0.061330855
175	0xbd362a16	-0.04447373
176	0xbdb80cbd	-0.08986805
177	0x3d65c82c	0.056099102
178	0x3d502fd2	0.050826855
179	0xbd3c8d8b	-0.046033423
180	0x3d894391	0.067023404
181	0xbcf02073	-0.029312348
182	0x3d6fe803	0.058570873
183	0x3dca1abb	0.0986838
184	0xbda6ce3a	-0.08144803
185	0x3d8a8ab8	0.0676474
186	0xbd9b06d1	-0.075696595
187	0x3d8dc1d0	0.069217324
188	0x3c86422a	0.016388971
189	0xbc4886ce	-0.012239171
190	0x3d00b658	0.031423897
191	0x3da643bf	0.0811839
192	0x3c3f0372	0.011658536
193	0x3d9b2682	0.07575704
194	0xbd17557d	-0.036946762
195	0xbd642ee5	-0.055708785
196	0xbd7ba0fc	-0.061432824
197	0x3c397d38	0.011321358
198	0xbd69ed70	-0.057111204
199	0x3d7b9b1a	0.061427213
200	0xbcad55ba	-0.021159042
201	0x3db23b45	0.08702711
202	0x3a2ebe79	0.0006665956
203	0x3da4c2d9	0.08044977
204	0x3d980502	0.0742283
205	0x3d452c24	0.0481378
206	0xbcc4793b	-0.023983588
207	0xbd94f42a	-0.07273133
208	0x3d851ad8	0.06499261
209	0xbc346c0e	-0.01101209
210	0x3d9faec9	0.077970095
211	0x3d9ca26d	0.07648168
212	0xbd03adb7	-0.03214809
213	0x3d71af87	0.059005287
214	0xbd286d4d	-0.041119862
215	0x3de2e017	0.11077898
216	0xbd85d303	-0.06534388
217	0xbc97c728	-0.018527582
218	0x3d3ae142	0.04562498
219	0x3d4e00eb	0.050293844
220	0x3cb0a6e1	0.021563949
221	0xbd1ea000	-0.038726807
222	0xbdbe8f5f	-0.093046896
223	0x3d2d1df9	0.042264912
224	0xbc2e3199	-0.010631942
225	0x3cfe433a	0.031037915
226	0x3daa81bd	0.08325527
227	0x3da4ec87	0.080529265
228	0xbd6d3592	-0.057912417
229	0x3d4a4046	0.049377702
230	0xbd877ea1	-0.066159494
231	0xbc3c2060	-0.011482328
232	0xbd0e567f	-0.034750458
233	0x3dc0ba28	0.094105065
234	0x3bc22797	0.0059251296
235	0x3d2841b6	0.04107829
236	0x3d72c3ae	0.059268646
237	0x3d95aad9	0.07307977
238	0x3d275a5e	0.040857665
239	0x3cb95338	0.02262269
240	0xbd9a64c1	-0.075387485
241	0x3d0a81dc	0.03381525
242	0xbc342bda	-0.010996783
243	0xbce77de3	-0.02825827
244	0x3d202c51	0.039104763
245	0xbd1f8316	-0.038943373
246	0x3dc326eb	0.095289074
247	0xbd924b98	-0.071433246
248	0x3d9fbe53	0.07799973
249	0x3d81bad9	0.063344665
250	0x3d99be48	0.075069964
251	0x3bc28ca0	0.005937174
252	0xbd457658	-0.048208565
253	0xbd804108	-0.06262404
254	0xbcff0249	-0.03112902
255	0xbb0d6b96	-0.0021579019

banker_fc.bias f4 [5]
0	0xbd690ff9	-0.0569
1	0x3dd4d2be	0.103917584
2	0xbdafe711	-0.08588994
3	0x3d109878	0.035301656
4	0xbd42740c	-0.047473952

bet_fc.weight f4 [5, 128]
0	0x3d9ca5ae	0.076487884
1	0xbdc0364c	-0.09385356
2	0xbd1f97b2	-0.038963027
3	0x3b95ede0	0.004575476
4	0x3bfb5525	0.007670062
5	0xbce30257	-0.027711077
6	0x3d790021	0.06079114
7	0x3d47c762	0.04877413
8	0x3cec0a85	0.02881361
9	0xbd79f32f	-0.061022934
10	0x3d9832a9	0.07431538
11	0x3d0c87a6	0.034309052
12	0xbcd73010	-0.026268035
13	0xbd402a61	-0.046915416
14	0xbd8089ca	-0.06276281
15	0x3b1d0259	0.0023957698
16	0x3ccf5244	0.025307782
17	0xbd6a29a0	-0.057168603
18	0x3d506133	0.050873946
19	0x3d624286	0.055239223
20	0xbc696bf7	-0.014246932
21	0xbd4a2e25	-0.049360413
22	0xbcf2e90c	-0.029652141
23	0x3c30cf7f	0.010791658
24	0x3db59552	0.08866371
25	0x3d772bfe	0.06034469
26	0xbd58fb31	-0.05297393
27	0xbcd4cd2b	-0.025976738
28	0xbd6141b6	-0.054994307
29	0xbd821d1e	-0.0635321
30	0xbcd75c50	-0.026289135
31	0xbd8bd4e0	-0.06827712
32	0xbce6ee1a	-0.028189708
33	0xbd9cfa6d	-0.076649524
34	0xbb9b4e1c	-0.004739536
35	0xbdcb2a98	-0.099202335
36	0xbc7cc479	-0.015427702
37	0xbd96a695	-0.07355992
38	0x3c987e86	0.018615019
39	0xbd915fe6	-0.07098369
40	0xbdab3f5b	-0.083616935
41	0x3cd07f72	0.025451396
42	0xbc7599dc	-0.014990296
43	0x3dac4646	0.08411841
44	0xbd8f8303	-0.070074104
45	0xbdb5e782	-0.08882047
46	0x3c812acc	0.015767477
47	0xbdaae3ee	-0.083442554
48	0x3d7c4e46	0.061598085
49	0xbd62e72b	-0.05539624
50	0xbd97601e	-0.0739138
51	0x3d924855	0.071427025
52	0xbdb439fa	-0.08800121
53	0x3cc3e7e1	0.02391428
54	0x3da7867c	0.08179948
55	0xbb917185	-0.0044385814
56	0xbbd88073	-0.006607109
57	0xbca11cfc	-0.019667141
58	0xbccdea0f	-0.025136022
59	0xbd85ec3b	-0.06539198
60	0xbd33dd95	-0.04391249
61	0xbda4faca	-0.08055647
62	0x3d2a21e6	0.041536234
63	0xbcafcb70	-0.021459311
64	0x3cf61a9b	0.030041983
65	0xbdaf8de3	-0.085719846
66	0x3c5b6901	0.013391734
67	0xbdb1143b	-0.08646437
68	0xbb0efdba	-0.0021818713
69	0x3b6a4540	0.0035746843
70	0xbca32e14	-0.019919433
71	0xbd800ded	-0.06252656
72	0x3da42ccc	0.08016357
73	0xbd2d5b9a	-0.042323686
74	0x3b91af14	0.0044459198
75	0x3d166203	0.036714565
76	0x3c06230e	0.008187069
77	0xbd97149d	-0.073769785
78	0x3d9995b4	0.07499257
79	0x3b31b9f4	0.0027118893
80	0xbd160dfe	-0.036634438
81	0xbcbc02b2	-0.022950504
82	0xbb3a34a4	-0.0028412724
83	0x3d3c5a12	0.045984335
84	0x3da9caeb	0.08290657
85	0xbd7de790	-0.061988413
86	0xbd97580d	-0.07389841
87	0xbd8dd0ee	-0.06924616
88	0x3d11a46b	0.03555719
89	0xbc6debe0	-0.014521569
90	0xbd0cb677	-0.0343537
91	0x3c95307e	0.0182116
92	0xbc865e21	-0.016402306
93	0xbd9257ba	-0.07145639
94	0x3d930b32	0.0717987
95	0xbc248d38	-0.010043435
96	0x3d242390	0.040072978
97	0xbda1dae2	-0.07903077
98	0xbd04224a	-0.032259263
99	0xbc26666f	-0.010156258
100	0xbc9b3d1e	-0.018950041
101	0xbcf8d19e	-0.03037339
102	0x3d0734f6	0.03300949
103	0xbd0f0cc6	-0.03492429
104	0xbd2c6a9e	-0.042093866
105	0x3d345ef9	0.044035885
106	0xbd0b63d9	-0.03403077
107	0xbd991558	-0.07474774
108	0xbd1f6f1e	-0.03892433
109	0x3d0074dc	0.031361446
110	0x3d823200	0.06357193
111	0x3d154e29	0.036451492
112	0xbd7352f0	-0.059405267
113	0x3d9ec5d5	0.07752577
114	0xbd40546f	-0.046955522
115	0x3d3ddd13	0.04635341
116	0x3d0d2e66	0.034468077
117	0x3d991957	0.07475536
118	0xbd838a72	-0.06422891
119	0xbd455b27	-0.048182633
120	0xbda63b97	-0.081168346
121	0x3da81bd7	0.08208435
122	0xbd8bc0fe	-0.0682392
123	0x3c2556a0	0.010091454
124	0x3d0c85db	0.034307342
125	0x3d4d716e	0.050157003
126	0xbd96e1c1	-0.07367278
127	0xbd662fe1	-0.056198005
128	0xbbb692ef	-0.005571715
129	0x3d32ad75	0.043622453
130	0x3d143110	0.036179602
131	0x3ccfa708	0.025348201
132	0x3bb605e6	0.0055549024
133	0x3cb842aa	0.022492725
134	0xbd84edd9	-0.06490678
135	0xbcc84314	-0.024446048
136	0xbd9019e4	-0.07036188
137	0xbd811b2f	-0.06304013
138	0xbc04f881	-0.008115889
139	0x3cdef9da	0.027218748
140	0xbd1487bd	-0.036262263
141	0xbd53e3a2	-0.05173076
142	0x3be44f34	0.0069674496
143	0x3da51ff6	0.08062737
144	0x3ccc138c	0.024911664
145	0xbc8fe115	-0.017563382
146	0x3c726f84	0.014797095
147	0xbcc7f248	-0.02440752
148	0xbd444ca0	-0.047924638
149	0x3d8bfc91	0.068352826
150	0xbd03f5b7	-0.032216754
151	0xbd187f9e	-0.03723108
152	0x3cc50d60	0.02405423
153	0x3c57cc53	0.013171273
154	0xbd89a47f	-0.06720828
155	0xbc8eddc3	-0.017439729
156	0x3d83e234	0.06439629
157	0x3c966a01	0.018361093
158	0xba70856d	-0.00091751554
159	0xbd53d39d	-0.051715482
160	0xbda24567	-0.07923394
161	0x3dbed049	0.09317071
162	0xbd8c8fa7	-0.06863337
163	0xbab9ee50	-0.0014185403
164	0xbdc203cb	-0.0947338
165	0xbd09ce0c	-0.033643767
166	0xbbde0ba2	-0.006776289
167	0x3cbb986d	0.02289983
168	0x3d2f63bd	0.042819727
169	0x3db6b3be	0.08921002
170	0xbc6d16de	-0.014470784
171	0xbd821233	-0.063511275
172	0x3c7aae22	0.015300306
173	0x3d8d0e6b	0.06887516
174	0xbd4d142e	-0.050068073
175	0x3d6c5151	0.057694737
176	0xbdb2d299	-0.087315746
177	0x3d81f446	0.063454196
178	0x3d3f7fce	0.046752743
179	0xbdc836fe	-0.09776114
180	0xbd1666e8	-0.036719233
181	0x3a8472a5	0.0010104968
182	0x3cae0f37	0.02124749
183	0xbbafb502	-0.005362154
184	0xbc3e5788	-0.011617549
185	0x3c0086e6	0.007844662
186	0x3d2cc8bb	0.04218362
187	0xbd066828	-0.032814175
188	0x3c9c975b	0.01911514
189	0x3c229e9c	0.009925511
190	0xbda0ee2c	-0.07857928
191	0xbc79e23d	-0.015251693
192	0x3d28f70a	0.04125122
193	0xbcc88e53	-0.024481928
194	0xbd434d85	-0.04768135
195	0xbd1d3724	-0.038382664
196	0xbdb7e823	-0.089798234
197	0x3ccef0cc	0.025261305
198	0xbd980822	-0.07423426
199	0x3c121580	0.008916259
200	0xbdb8d80f	-0.09025585
201	0xbced4298	-0.028962418
202	0xbd26b456	-0.040699326
203	0x3d18fafc	0.037348732
204	0x3d6f5fa6	0.058440827
205	0xbba6727d	-0.005079566
206	0xbcd1cd18	-0.025610492
207	0x3c2a7e86	0.010406142
208	0x3d0f23a9	0.034946118
209	0x3d95fee8	0.0732401
210	0xbda073cd	-0.07834587
211	0xbda09f90	-0.07842934
212	0x3d06c6a8	0.032904297
213	0x3b518667	0.003197098
214	0xbc5f0d32	-0.013613986
215	0x3d9739aa	0.073840454
216	0xbd4f1e04	-0.050565735
217	0x3d9727ff	0.073806755
218	0x3d8782b0	0.066167235
219	0xbbd39fc9	-0.006458257
220	0xbda25bf8	-0.07927698
221	0x3ce8d8e8	0.028423741
222	0x3d3e9102	0.04652501
223	0x3db4fb57	0.08837002
224	0xbd6098a3	-0.054833066
225	0xbd00c3aa	-0.0314366
226	0xbd07d2e3	-0.0331601
227	0x3d6d20b3	0.057892513
228	0x3d878ab4	0.066182524
229	0xbd389148	-0.045060426
230	0xbccdb314	-0.025109805
231	0xbca3540c	-0.019937538
232	0x3db4415f	0.08801531
233	0x3c648102	0.0139467735
234	0x3d9274a4	0.07151154
235	0x3db4985b	0.08818122
236	0x3d4d5ffd	0.05014037
237	0x3d8b1bdd	0.06792424
238	0xbdb6d110	-0.08926594
239	0xbdbfb9c9	-0.093616076
240	0xbd83310c	-0.06405839
241	0xbafd4292	-0.0019322208
242	0xbb847aa1	-0.004042939
243	0xbd81dac2	-0.06340553
244	0x3b88f093	0.0041790693
245	0x3cbe9cff	0.023268221
246	0xb8420ff3	-4.626806e-05
247	0x3cdf70b9	0.02727543
248	0x3cfdb453	0.030969774
249	0x3d5f6764	0.05454196
250	0xbcfdcbf3	-0.03098104
251	0xbd7a39cc	-0.061090276
252	0x3d606aa4	0.0547892
253	0xbd2948b5	-0.041329104
254	0x3cc48795	0.023990432
255	0xbdc57d33	-0.096430205

bet_fc.bias f4 [5]
0	0x3d2adf22	0.041716702
1	0xbc9f66a3	-0.01945812
2	0x3d4da521	0.050206307
3	0xbc3c2cc8	-0.011485286
4	0x3d842f07	0.06454282
