ppo_models/ppo_model_value.pth (torch, 80616 bytes, 9 tensors)

fc.0.weight f4 [128, 15]
000000 59 05 62 be fd d6 a7 bb 1e 85 42 3e a7 ed 73 3d
       -0.22072352 -0.005122064 0.18996093 0.059552815
000010 e8 9d 3f 3e 0b 81 70 3d bf 99 1b be d0 49 0d 3e
       0.1871258 0.058716815 -0.15195368 0.13797688
000020 a4 5d 3b be c4 4d 4f 3e 4d 5e 7a be 20 2c 6e 3e
       -0.1829744 0.20244509 -0.24450035 0.2325902
000030 60 08 38 bc c2 e3 08 3e cc d6 38 3e 0b 18 bb 3d
       -0.0112324655 0.13368133 0.18050689 0.09135445
000040 50 f2 11 3e b9 62 fd 3d ea da 31 be 83 b0 0b 3e
       0.14252591 0.123723455 -0.17368665 0.13641553
000050 33 34 5c bd d6 25 d7 3d 8e a7 68 3e 88 2f 2f be
       -0.05376072 0.105052635 0.22720167 -0.17107975
000060 a3 85 fe bc d4 7b b2 3d 8e 59 6b 3e b8 8f 0e 3e
       -0.031069582 0.087150246 0.22983381 0.13922012
000070 50 db 7c 3d 72 b2 54 3e d3 2c 02 be 0f f7 6d 3e
       0.06173259 0.20771196 -0.12712412 0.23238777
000080 43 bb 15 3e f2 8b 83 3d 31 19 11 3e fe 80 74 bd
       0.14622216 0.06423177 0.14169766 -0.05969333
000090 02 f8 33 3e 00 e0 6a be dc e0 65 be da 5b 85 3e
       0.17575076 -0.22937012 -0.22449058 0.2604664
0000a0 3c 76 43 be a0 53 28 be b6 66 1f be 70 10 20 bc
       -0.19088072 -0.1643815 -0.15566525 -0.009769544
0000b0 e0 69 7d be e4 a7 05 be 7c 23 8f 3d e4 7b ba bc
       -0.2474742 -0.13052326 0.0698919 -0.022764154
0000c0 38 09 5f 3d 6a 75 3b be ad 05 8c 3a e0 41 49 3e
       0.05445215 -0.18306509 0.0010682844 0.19654036
0000d0 16 44 aa 3d a2 6d 07 be 2d 4d 50 be ed d3 77 be
       0.083137676 -0.13225415 -0.2034194 -0.24201937
0000e0 f4 c3 5e be 40 52 80 3c 66 da bb bd 60 24 7b 3d
       -0.21754438 0.01566422 -0.091725156 0.061313987
0000f0 7c 35 77 3e fc 3c 58 3e b2 e2 08 be b3 cd 53 be
       0.24141496 0.21117014 -0.13367727 -0.20683937
000100 76 57 61 be cf 72 86 be 7b fc bd 3d d7 91 3e 3e
       -0.2200602 -0.26259467 0.092766725 0.18610321
000110 9a 62 a9 bd 12 90 32 be 40 4f e9 bc 00 45 7b bb
       -0.0827076 -0.17437771 -0.028480172 -0.0038340688
000120 c2 3c 4c be 3a 72 4c 3e ac 16 31 be 0c b5 9c 3c
       -0.19945052 0.19965449 -0.17293805 0.019129299
000130 d4 ac 82 bd 8f 37 58 bd d2 f3 e8 bd 0c ac 04 be
       -0.063806206 -0.05278736 -0.1137463 -0.12956256
000140 8d 9d 8b 3e 72 ca 71 bd 73 35 2a 3e b8 7c ad bc
       0.2726864 -0.059030958 0.16621952 -0.021177635
000150 56 c2 09 3b 6f 44 f6 3d 00 8d da bc 9c d5 62 bd
       0.0021020374 0.120247714 -0.026678562 -0.055379495
000160 d0 7d 67 bc 72 11 b4 bd 87 be 0b 3e a7 5a 73 3e
       -0.014129117 -0.0879239 0.13646899 0.2376505
000170 34 1f 40 3e 11 e9 fd bd ab 56 11 be c8 2e 4f be
       0.18761903 -0.123979695 -0.14193217 -0.2023269
000180 9d c8 28 be 03 b7 33 3e 10 c1 64 3e 45 51 a4 bc
       -0.16482778 0.17550282 0.22339272 -0.020058284
000190 41 ec 26 3e 64 3c 21 3e d0 82 ad 3c ac b1 f5 bd
       0.16301061 0.15745693 0.02118054 -0.11996779
0001a0 f0 3e b5 bd 80 02 70 bd 63 15 a4 3d be 49 3a 3e
       -0.08849895 -0.058596134 0.08011892 0.18192193
0001b0 99 9a 35 3e a1 44 e8 3c dd 39 90 3d d8 82 fe 3d
       0.17734756 0.028353037 0.070422865 0.124273
0001c0 c1 59 cc bd d8 48 fe bc 0d 5b e5 3d c0 ea 09 3e
       -0.09978057 -0.031040594 0.11199007 0.13468456
0001d0 a7 c6 82 be c0 cf 90 bc 08 23 36 be 64 de 07 bd
       -0.25542185 -0.017677188 -0.17786801 -0.033171073
0001e0 f7 62 4c be 31 36 2c 3c 31 cc bc bc 33 9c 11 be
       -0.19959627 0.010510967 -0.023046585 -0.14219742
0001f0 cc 47 98 bd d9 df 9e bb 9d eb c0 bc 85 a2 05 be
       -0.07435569 -0.004848462 -0.02354985 -0.13050278
000200 8c f9 30 be 20 cb 42 3e 94 69 1e 3e 61 b8 31 be
       -0.17282695 0.19022799 0.15469962 -0.17355491
000210 e6 f2 25 be c6 09 a1 bd 80 42 02 be 85 70 2d 3e
       -0.1620594 -0.07863192 -0.1272068 0.16937454
000220 74 1c 5a 3e 87 c3 5c 3d 93 18 c1 3c 6c 98 8c bd
       0.21299917 0.053897407 0.023571288 -0.0686501
000230 13 8c b6 3d 3d 52 9c bc 8f 1a f1 bd 38 79 4e bd
       0.08913436 -0.019082183 -0.11772644 -0.050408572
000240 a9 10 2e 3e 09 97 16 3d b0 f1 28 3d 6a c9 41 be
       0.16998543 0.036765132 0.041246116 -0.1892449
000250 50 11 16 3e 04 c5 a7 3d c8 2b 04 be ce fd 0d 3e
       0.14655042 0.081918746 -0.12907326 0.1386635
000260 28 b0 5a be a3 07 5b 3e c0 19 4c be 97 fd aa bd
       -0.21356261 0.21389632 -0.19931698 -0.0834915
000270 55 f0 43 be 55 eb 0e 3e c0 85 d2 bb 82 60 78 3e
       -0.19134648 0.1395696 -0.0064246356 0.24255565
000280 b4 75 e0 3d 40 9c c5 3b bd ad 6d be 4c 5c dd 3d
       0.1095995 0.0060305893 -0.23210807 0.1080862
000290 9c d5 16 3e 7c dc 39 3d 62 23 52 be c0 c8 7a 3e
       0.14729923 0.045376286 -0.2052131 0.24490643
0002a0 65 b5 23 be 55 96 5e be 4e f2 31 3e 33 38 58 bd
       -0.15987165 -0.21737035 0.17377588 -0.05278797
0002b0 91 3c 11 3d 58 32 ef 3d 78 e3 75 3c a5 e8 6e 3e
       0.03545815 0.11679524 0.015007846 0.23330934
0002c0 80 2d fc bb 94 7b ce 3d ee 21 e1 bd d0 bc 52 bd
       -0.0076958537 0.100821644 -0.109928 -0.051449597
0002d0 0f 15 2c bd cc 4b 9c bc af f2 c0 3d 4a 96 32 be
       -0.04201227 -0.019079112 0.09421288 -0.17440143
0002e0 04 c5 5d 3d 62 7f f2 3d 56 36 08 be 94 f1 74 3e
       0.054142967 0.118407026 -0.13301978 0.2392028
0002f0 d8 7f 77 bd 8c 64 b1 3d aa 71 82 be 32 cc 20 3e
       -0.060424656 0.08661756 -0.25477344 0.15702894
000300 a8 96 e5 bc b2 ae 75 3e 70 9b 24 3e a1 56 83 3d
       -0.02802594 0.23992422 0.1607492 0.064130075
000310 be 71 77 be ee 89 0a 3e d7 88 ee bd e2 2c d3 bd
       -0.24164483 0.13529179 -0.11647194 -0.10311295
000320 eb 2d 17 bb 68 9e 04 3e 57 98 70 be 3a 62 46 3e
       -0.002306814 0.12951052 -0.23495613 0.19373408
000330 69 a6 4b 3e 89 7f 10 bd f0 8e d8 3d e3 60 3e be
       0.19887699 -0.035277877 0.10574138 -0.18591647
000340 84 52 fb 3d 02 c1 19 3e 76 6d 0a 3e de 57 f2 bc
       0.12271598 0.15015033 0.13518319 -0.029582914
000350 15 b2 81 be d9 b0 83 3d 19 ce 04 be b1 b8 26 3e
       -0.25331178 0.064302154 -0.12969245 0.16281392
000360 65 8f dc bc ca a9 c0 3d 6a 20 2e 3e dd f7 5c be
       -0.026923845 0.09407385 0.17004552 -0.21578927
000370 ee a4 1f 3c 79 d9 68 be 98 bc 13 be 90 1c 77 bc
       0.009743912 -0.22739209 -0.14427412 -0.015082493
000380 c0 c2 e8 3d 86 09 6e bd 8e fb 41 3e cd d1 85 3e
       0.113652706 -0.05811455 0.18943617 0.26136628
000390 ed a5 20 3d ac cd a1 3d 18 af 09 3e 28 cb 81 3e
       0.03922074 0.07900557 0.13445699 0.25350308
0003a0 4d ee a3 bd 04 b5 96 3d 1d 86 08 be eb 80 d1 bd
       -0.08004437 0.07358745 -0.1333241 -0.10229667
0003b0 52 3f 6e 3e 80 75 42 3d 80 ff 19 bb 48 eb 59 3d
       0.23266342 0.047475338 -0.0023498237 0.053202897
0003c0 36 2b 48 3e 24 1f f8 bd 72 5a 0e 3e 6f 67 46 3e
       0.19547734 -0.121153146 0.1390169 0.19375394
0003d0 6a e2 94 3d ff 32 81 3e 5d ae ba 3d b1 99 44 be
       0.072697476 0.2523422 0.091152884 -0.19199254
0003e0 00 04 42 ba 7c bf 36 3e d3 ab 16 bd b8 fb 0c 3d
       -0.0007401109 0.17846483 -0.036784958 0.034419745
0003f0 cc 90 64 3e 74 e3 17 be fb 4d 5a be dd c2 65 3e
       0.2232086 -0.1483286 -0.2131881 0.22437616

fc.0.bias f4 [128]
000000 d8 f0 22 3e b2 68 7a 3e f7 61 7a be db a6 79 3e
       0.15912187 0.24454 -0.24451433 0.24380057
000010 a0 95 65 3d eb 4f 58 be 9c 5f 86 be 05 9e 19 be
       0.056050897 -0.21124236 -0.2624482 -0.15001686
000020 b9 62 a6 bd f9 2a 1c be a6 cd 20 be 47 59 ae 3d
       -0.081242986 -0.15250768 -0.15703449 0.08513122
000030 04 44 8f 3c 4b f6 14 3e b1 62 2a be 26 54 e1 bc
       0.017488487 0.14547078 -0.1663921 -0.027505945
000040 85 c8 69 bd 37 67 12 3e a1 f1 22 be 3d 40 41 be
       -0.057075996 0.14297186 -0.15912487 -0.18872161
000050 1c c9 8d 3e 49 7f 87 3e 4e 52 70 3e 12 75 c9 3d
       0.27692497 0.26464298 0.23468897 0.098367825
000060 e1 a6 87 3d f8 da 57 3e 8c ca 62 3e e0 0c 25 be
       0.066236265 0.21079624 0.22147578 -0.16118193
000070 3a 30 5c be cb d4 29 be f6 6d bc bd 6b e2 ae bd
       -0.21502772 -0.1658508 -0.09200661 -0.085392796
000080 4b 31 3b be 8e 44 e0 bd d1 71 f8 bc a8 ce 9b 3d
       -0.18280523 -0.10950576 -0.03032771 0.07607776
000090 d4 11 d6 bd be ad b0 bd c8 d3 7b be b8 57 87 bc
       -0.10452619 -0.08626889 -0.24592507 -0.01652132
0000a0 ec ef f3 3d be d4 33 3d bf 3b 3e be 00 2b c1 bd
       0.11910996 0.04390406 -0.18577479 -0.0943203
0000b0 bb 82 1e bc 7a 10 1b 3b b1 66 69 3e da 41 e0 3d
       -0.009674723 0.0023660944 0.2279308 0.1095006
0000c0 53 fd a0 3d 6a 59 cc 3c d0 88 37 3e d4 5a d8 3d
       0.07860818 0.02494498 0.17923284 0.10564199
0000d0 34 f9 38 3e cb 69 fe 3d 20 73 5d 3d 7d fa 7d be
       0.18063813 0.12422522 0.05406487 -0.24802585
0000e0 f4 5b 21 be 42 ae 47 bd d9 3c 13 3e ac 60 80 be
       -0.15757734 -0.04875017 0.1437868 -0.25073755
0000f0 9a be 26 be 2f 89 2e 3e 74 9e b4 3c e3 22 25 3d
       -0.16283646 0.17044519 0.022048213 0.040316474
000100 4a d0 b2 3c 1e 6e 47 be 0b cb 17 be 8b af 77 bd
       0.021827836 -0.194756 -0.14823548 -0.060470145
000110 f6 d6 2a be 99 76 77 be 6d 46 9f bc f6 74 eb 3d
       -0.16683564 -0.24166335 -0.019442761 0.11496918
000120 5d e8 02 3e 6c 0c a4 bd 6f 52 55 be 46 7b 8d 3e
       0.12783952 -0.08010182 -0.20832227 0.27633113
000130 a4 2d 40 be 62 c0 46 3d b2 45 4c 3c f7 7e 7b bd
       -0.1876741 0.048523314 0.0124677885 -0.06140038
000140 9c f7 cc bd 5d a5 1e be 40 09 26 3e 4e 83 27 be
       -0.10008165 -0.15492769 0.16214466 -0.16358683
000150 43 89 1a 3e 72 87 13 3d cd c6 b5 3c 95 53 4d be
       0.15091424 0.036017843 0.022189522 -0.20051415
000160 1b d7 91 3e ec cf 7e be 21 c9 69 bd 56 38 c5 3d
       0.28484425 -0.24884003 -0.057076577 0.09629886
000170 e5 11 23 be 8b de 66 3d 26 97 17 3e 81 32 2f be
       -0.15924795 0.056364577 0.14803752 -0.1710911
000180 d9 2e 04 be 95 cc 99 3d df 38 ba 3d 2a f9 8c 3e
       -0.12908496 0.07509724 0.090928786 0.27533847
000190 b9 b5 9d bd d6 90 4c 3e 32 82 53 3e e9 85 eb bd
       -0.077006765 0.19977126 0.20655134 -0.11500151
0001a0 3b 71 6f bd d6 f5 59 3e f9 05 a7 3c cc ab 0a bb
       -0.058457594 0.21285185 0.02038859 -0.0021159528
0001b0 50 51 3d 3e ac 9c 90 3d 9b 01 4b 3e 24 c0 b3 bd
       0.1848805 0.07061133 0.19824831 -0.08776882
0001c0 0c 9e 16 3d 82 9d 7e be 5e db 18 bc cd 19 20 3e
       0.03677182 -0.24864772 -0.009329645 0.15634842
0001d0 dc 7c d7 bd 6e fc 6e be 7d 74 1d 3e 7f 72 c3 3d
       -0.10521862 -0.23338482 0.15376468 0.09543323
0001e0 94 6a f5 bd 5e f1 1a 3e de 6f 06 be 29 9d 39 3e
       -0.11983219 0.15131137 -0.13128611 0.18126358
0001f0 4f 0b b6 bc ba 8b 6b 3e e3 ce 07 3e c9 9a 97 3d
       -0.02222219 0.2300252 0.13262515 0.0740257

fc.1.weight f4 [128]
000000 db 85 81 3f d0 63 7e 3f e4 7d 7d 3f 34 43 7d 3f
       1.0118974 0.9937105 0.9902022 0.9893067
000010 16 07 80 3f e4 00 82 3f 59 43 80 3f 5e 4c 81 3f
       1.0002162 1.0156522 1.0020553 1.010143
000020 cf 6b 7c 3f 5c cc 7d 3f 82 41 80 3f 0b b3 80 3f
       0.98602 0.9913995 1.0019991 1.005464
000030 6a fc 7c 3f ca 44 7d 3f ed 88 7c 3f 2c 4c 80 3f
       0.98822653 0.9893309 0.9864643 1.0023246
000040 a9 a0 80 3f fe 27 7c 3f c5 fc 81 3f 4a 7d 7c 3f
       1.004903 0.98498523 1.0155264 0.98628676
000050 2f 83 85 3f 13 ab 80 3f 2b 0c 84 3f 16 61 7e 3f
       1.0430659 1.0052208 1.0316213 0.9936689
000060 7a bf 7c 3f ec 10 79 3f 3c dd 81 3f 80 2e 81 3f
       0.9872967 0.97291446 1.014564 1.0092316
000070 de fb 7b 3f f0 d0 81 3f f0 d4 7f 3f 96 45 86 3f
       0.98431194 1.0141888 0.9993429 1.0489986
000080 b4 df 7c 3f e2 ee 7d 3f 16 b2 79 3f 6f ca 81 3f
       0.98778844 0.9919263 0.9753736 1.0139903
000090 a2 d3 82 3f 01 5e 7f 3f df 33 7e 3f d5 a2 82 3f
       1.0220835 0.99752814 0.992979 1.0205942
0000a0 7c cb 7d 3f 9b 64 7c 3f 0b 78 84 3f cc 0f 77 3f
       0.9913862 0.9859101 1.0349134 0.9650848
0000b0 75 5b 7f 3f c6 95 7e 3f 6f 79 84 3f b4 cf 80 3f
       0.9974893 0.99447286 1.0349559 1.0063386
0000c0 3c d6 7d 3f b1 b4 7d 3f 6b d1 80 3f 87 3b 80 3f
       0.9915502 0.9910384 1.0063909 1.0018166
0000d0 6c b8 7f 3f a3 68 80 3f d2 68 85 3f 4d 4d 76 3f
       0.9989078 1.0031933 1.0422614 0.962117
0000e0 58 b9 7b 3f 99 f7 7b 3f 05 aa 80 3f 05 04 7e 3f
       0.9832969 0.9842468 1.0051886 0.99224883
0000f0 49 84 7d 3f 57 fa 7e 3f 03 0c 7c 3f 8a 6f 7d 3f
       0.99029976 0.9960074 0.9845583 0.9899832
000100 f6 3d 82 3f 10 3f 83 3f 18 53 77 3f 7a 7e 86 3f
       1.0175159 1.025362 0.96611166 1.0507348
000110 2e 81 78 3f 40 f8 79 3f 08 95 80 3f 81 28 80 3f
       0.9707211 0.97644424 1.0045481 1.0012361
000120 26 87 80 3f b3 4e 82 3f 59 68 80 3f 03 b0 82 3f
       1.0041244 1.0180267 1.0031844 1.0209965
000130 c0 30 7f 3f fe 26 7b 3f 6c 1b 83 3f 19 3a 80 3f
       0.9968376 0.9810637 1.0242743 1.001773
000140 62 e1 7f 3f a2 52 7a 3f e4 9f 84 3f ee 00 79 3f
       0.9995328 0.9778234 1.0361295 0.97267044
000150 71 31 7f 3f b7 a5 80 3f 41 4a 7b 3f a9 9c 83 3f
       0.99684817 1.0050572 0.9816018 1.0282184
000160 ae 22 85 3f 56 da 7c 3f 86 ab 7e 3f c7 17 7f 3f
       1.0401208 0.98770654 0.99480474 0.99645656
000170 21 65 80 3f 40 2b 7e 3f cb 8d 7b 3f c2 7f 7d 3f
       1.0030862 0.99284744 0.98263234 0.9902307
000180 63 77 7f 3f d2 3d 81 3f 13 16 7d 3f cc ae 82 3f
       0.99791545 1.0096991 0.9886181 1.0209594
000190 39 3b 82 3f c7 5b 81 3f 2c f9 7e 3f 85 2b 7b 3f
       1.0174323 1.0106133 0.99598956 0.9811328
0001a0 11 83 81 3f 30 2a 80 3f b0 5a 81 3f fa 68 7e 3f
       1.0118123 1.0012875 1.0105801 0.9937893
0001b0 7b 2e 80 3f dd 3f 7d 3f 00 7a 80 3f ce 6b 7f 3f
       1.0014185 0.9892557 1.0037231 0.9977387
0001c0 33 30 7a 3f fd 71 80 3f f8 ee 7a 3f da c8 82 3f
       0.97729796 1.0034786 0.9802089 1.0217545
0001d0 72 83 7e 3f 35 5d 80 3f 3a a7 7c 3f 82 8b 80 3f
       0.9941932 1.0028445 0.9869267 1.0042574
0001e0 8b b1 84 3f d8 6f 82 3f ad ef 81 3f c5 a8 7f 3f
       1.0366682 1.0190382 1.0151268 0.99866897
0001f0 c1 06 81 3f cf d6 7e 3f d9 9f 7a 3f 11 bb 82 3f
       1.0080186 0.9954652 0.9790016 1.0213338

fc.1.bias f4 [128]
000000 3d d6 61 3c 57 86 8d bc 4d 24 1d bc 9e 51 51 3b
       0.013783989 -0.017275972 -0.009591174 0.0031939517
000010 7f 13 5e bc 5f 67 cf 3c 42 f0 8b bc f5 01 09 3c
       -0.013554453 0.025317846 -0.017082337 0.008362283
000020 06 c4 67 3c 90 0a bf 3b 98 59 fa ba 40 30 49 bb
       0.014145857 0.0058301166 -0.0019100187 -0.0030698925
000030 55 6b 46 bc ac af f2 3b 38 26 89 bc 84 4b c9 bb
       -0.012110551 0.0074061956 -0.016741857 -0.0061430354
000040 08 df d8 3b 19 e9 bb bc b0 32 f4 39 d8 1d 42 bc
       0.0066183843 -0.022938298 0.00046577072 -0.011847936
000050 7f 2b 0c 3d ba 1f 85 3c 78 60 09 bc 6b 13 12 bc
       0.03422117 0.01625048 -0.008384816 -0.008915762
000060 59 db 07 bc 8d 8c e4 bc dd 59 01 3c d6 e2 ab bc
       -0.008292043 -0.027899051 0.00789496 -0.020982187
000070 c3 c3 31 bc 23 a2 b8 bb 52 d4 54 bc bb 6a b1 3d
       -0.010849896 -0.0056345626 -0.012990074 0.08662935
000080 6e 1f a5 bc e6 9d 00 bc b9 38 03 bd 8d 53 79 3c
       -0.020156588 -0.007850146 -0.032036517 0.015217674
000090 3b e9 c4 bc 0f 37 0f 3c 73 ed 85 3b 4a 1e 95 3c
       -0.024036994 0.008741154 0.004087144 0.01820292
0000a0 39 72 b6 bc 8c 21 02 bc a6 09 b7 3c 4a a7 39 3d
       -0.022271262 -0.0079425685 0.022343468 0.045325555
0000b0 06 40 c4 bb 20 56 d6 ba f8 2f 8c bc 7c 2e 47 3c
       -0.0059890775 -0.0016352572 -0.017112717 0.012157079
0000c0 b8 0b b3 bc 6c 76 29 bb 8c 67 d2 3b 4d 8f 5b 3b
       -0.021856174 -0.0025857938 0.006421035 0.0033502162
0000d0 38 d0 17 3b e8 06 30 ba 3c a9 2b 3d 0e 91 34 bd
       0.002316488 -0.00067148963 0.04190944 -0.044083647
0000e0 b2 18 ec bc 81 67 fb 3b 4f 28 9c 3b 64 b4 04 bc
       -0.02882037 0.0076722507 0.0047655473 -0.008099649
0000f0 31 9f 1d 3c 4b 50 de 3a a3 ef c5 bc 97 96 61 ba
       0.009620474 0.0016961185 -0.02416212 -0.00086055085
000100 dd 01 d2 3c 02 da fa 3c d8 31 b4 bc b0 12 30 3c
       0.025635654 0.030621532 -0.021996424 0.010746643
000110 cd 33 19 bd c4 43 6f bc cc f3 57 bb dd b0 0d bb
       -0.037402917 -0.014603559 -0.003295171 -0.0021620311
000120 c9 1b f3 bb 01 4f 9f 3c b7 e8 12 3b cc 95 02 3c
       -0.0074190837 0.019446852 0.002241654 0.007970285
000130 11 3b d8 3b 33 57 f2 bc 1b cb ba 3c 5f 01 12 bd
       0.006598838 -0.029582595 0.022801926 -0.03564584
000140 e6 b6 0c 39 c6 00 e0 3c ae 9f 0b 3d fa 5f 2b bc
       0.00013419575 0.027344119 0.03408783 -0.010459894
000150 81 1e c7 39 86 e1 26 3c fd a6 20 bc 83 99 d2 3c
       0.00037978965 0.010185605 -0.009805438 0.025707966
000160 bb 57 0d 3d 03 66 8f bc 9f 13 7d bc f2 80 82 3b
       0.034507494 -0.017504698 -0.015446573 0.0039826566
000170 d2 6d 79 3b a7 ee 7f bc a9 a8 03 bd 33 87 81 3c
       0.0038059843 -0.015620864 -0.03214327 0.015811538
000180 40 e8 06 3d 76 86 9c 39 e2 a9 08 3c 1d b7 d0 3c
       0.032936335 0.0002985482 0.0083412845 0.02547794
000190 a3 c7 b3 bb 4f d7 a5 3c a0 f8 cf bc af 7d 06 bd
       -0.005486445 0.020244269 -0.025387108 -0.032834705
0001a0 f4 a8 8b 3b d4 b5 69 3b 3b f7 c9 38 72 38 6b bb
       0.004262084 0.0035661357 9.630477e-05 -0.0035891798
0001b0 3c 06 b7 bb d4 b8 0b 3c b2 76 7d bb 59 aa 1b bc
       -0.00558546 0.008527953 -0.0038675484 -0.009501063
0001c0 4f 1a 0a bd 1e d7 92 3b f0 fb 09 bc b3 48 ec 3c
       -0.033716496 0.0044812104 -0.008421883 0.02884326
0001d0 d5 95 80 bc 26 7d 57 3b 4e 0b 6f bc 7c de 1e 3c
       -0.015696445 0.003288099 -0.014590098 0.009696599
0001e0 eb e2 09 3d 06 f7 6a 3c 76 9a ad 3c 58 38 04 3c
       0.03366367 0.014341122 0.021191817 0.008070074
0001f0 5f a2 fa b9 7b 34 01 3c 41 72 b0 bc f9 4d b5 bc
       -0.00047804692 0.0078860475 -0.021538856 -0.022131907

fc.3.weight f4 [128, 128]
000000 19 a2 05 3d bf 50 a6 3d 3d 7f ca 3c d2 3f 95 3d
       0.03262529 0.0812087 0.024718875 0.072875634
000010 e4 33 8d bd f3 c7 01 3e f4 0c 65 3d b5 bc 0c 3c
       -0.06894663 0.12673931 0.055920556 0.008589913
000020 cf 12 ec bd cb 20 fa 3c 36 20 08 3d 6c 5d a5 3c
       -0.11527025 0.030533215 0.033233844 0.020186149
000030 2c 98 3d 3d 13 25 8c bd 36 ec 7b 3d 59 a3 1b 3d
       0.0462877 -0.06843009 0.061504565 0.037997577
000040 68 f0 e0 bc 10 e7 63 bd 8a d3 6e bd e3 58 09 3d
       -0.027458385 -0.05564028 -0.058307208 0.033532035
000050 0a cd 63 bc 0c b5 f0 3d 3f 23 81 bd be 0d 23 bd
       -0.013903866 0.11753282 -0.06305551 -0.039808027
000060 7a e9 3e bd a5 a7 75 3d 0d c3 d7 bd ba 77 25 bd
       -0.04660938 0.05997433 -0.1053525 -0.040397383
000070 05 eb 75 bd 4d 05 89 3d c9 81 c8 3d 91 5d 9f bd
       -0.060038585 0.06690464 0.097903796 -0.07781518
000080 63 6b 18 3b 5c 90 db 3b ed 89 80 3d 06 16 48 3d
       0.0023257367 0.0067005586 0.06276307 0.04884913
000090 c6 4a 81 bd 51 0d c9 bc aa 46 e2 3d 8c 74 ce 3d
       -0.0631309 -0.024542483 0.11048634 0.10080823
0000a0 d4 8c 82 bd c2 2c e5 3d 2d 37 0e 3e 8e ec 20 3d
       -0.06374517 0.111901775 0.13888235 0.039288096
0000b0 2b c2 ed 3c 9b 01 aa 3b 9d 06 8f bc 6b 3b 61 3d
       0.02902325 0.0051881797 -0.017459208 0.054988306
0000c0 50 d1 eb bc 9f 15 a5 bd f1 1d 68 3d 32 ed 22 bd
       -0.028786331 -0.080607645 0.05666918 -0.03977699
0000d0 7b 4a 9e 3d e0 88 09 3d ff a6 25 3e 25 92 85 3d
       0.0772905 0.0335778 0.16176985 0.065220155
0000e0 b0 b3 d2 3b 9b f1 ba 3d b1 42 00 3e 7e a5 b6 bc
       0.006430112 0.09128114 0.12525441 -0.02229571
0000f0 07 9d c2 3c ad 97 bf bd 88 43 c2 bc 62 9b 04 bd
       0.023756517 -0.09355102 -0.023713842 -0.032374747
000100 04 91 ea bc 1c c9 04 3e f5 14 85 3d f4 08 61 bd
       -0.028633602 0.12967342 0.06498138 -0.05494018
000110 02 23 e3 bc f3 62 bb 3c 72 0b 61 3d 9b 7f b7 3d
       -0.027726654 0.022874331 0.054942556 0.08959886
000120 fc d7 a6 3d 0f 66 aa 3c 11 13 88 bd 71 5f 03 3b
       0.081466645 0.020800618 -0.06644262 0.0020045901
000130 82 31 74 3d ef 92 2a 3d e7 5e 17 3e 7f d3 8a bd
       0.059617527 0.041644033 0.14782296 -0.06778621
000140 8e e7 ff 3d 59 8e c3 bb c9 9b a7 bb ae e9 2a 3d
       0.124953374 -0.005967897 -0.0051150066 0.04172676
000150 8a 95 b5 3d 97 ee 66 b9 7b b9 a4 ba 55 a2 a1 3d
       0.08866413 -0.00022023391 -0.0012567485 0.078922905
000160 3a ed dd 3d 7f c3 1e bd a4 a7 44 bd 73 78 8c 3d
       0.10836263 -0.03876066 -0.048011437 0.06858911
000170 dc 5a 5d 3c 81 0a af 3c f1 44 5b bd ba 30 26 3d
       0.013510432 0.021367313 -0.053532545 0.040573813
000180 b5 a2 ce 3d 9d d9 f1 3c 9a 96 aa bd f4 1e cf bd
       0.10089628 0.029522711 -0.08329506 -0.10113326
000190 4f 96 ce bd 3e e7 9e bd 20 92 f9 bc 8d 2a d5 38
       -0.10087263 -0.0775895 -0.030465186 0.00010164557
0001a0 8b 2b bd 3c ff 12 9c bd 08 d6 9b bd af 90 02 3e
       0.023092052 -0.07620811 -0.076091826 0.12750505
0001b0 a4 85 38 3d 58 f2 05 bd c8 3f 84 ba 6f 66 7a 3d
       0.045049325 -0.03270182 -0.0010089809 0.061132845
0001c0 7f 69 b9 3c 2d cc d9 3d e4 f4 bd 3d db d0 c1 3c
       0.022633312 0.106346466 0.09275225 0.02365916
0001d0 1d 4f 30 3d 31 15 70 bd 23 00 b3 3d 52 14 79 3c
       0.0430442 -0.05861396 0.087402605 0.015202599
0001e0 bb 75 05 3d bd 6a 9b 3d 5e 92 2b 3d 09 f4 95 3d
       0.03258298 0.07588718 0.041887634 0.07321937
0001f0 e9 50 ac 3d df cc e1 3d ce 45 06 3d 06 b0 e4 bd
       0.0841387 0.11025404 0.032781415 -0.11166386
000200 29 d8 47 bb 83 e8 b0 bd ee e3 c9 bd 47 90 aa 3c
       -0.0030493832 -0.08638098 -0.09857927 0.02082075
000210 46 22 57 bd c4 7d 8f bd 86 04 90 bd f1 74 5d bd
       -0.05252292 -0.0700641 -0.07032113 -0.054066602
000220 08 c1 37 3d 0f 03 b1 bc 87 b6 31 3d 86 8f cb bd
       0.044861823 -0.021607904 0.043386962 -0.09939484
000230 36 d2 25 bd eb 3d d0 3a fe a1 03 be 6f b8 d5 bc
       -0.040483676 0.0015887594 -0.12854764 -0.026088921
000240 bc 93 13 be 6f eb ac bd 8d 43 41 bd 7d b2 c9 bc
       -0.14411825 -0.08443343 -0.047183562 -0.024621243
000250 3f 1d 0c be 2b ac a0 bc ed ac ec 3d 4c f2 4d bd
       -0.13683031 -0.019613346 0.115564205 -0.0502799
000260 f4 6c 8d 3d bf 97 0c bc ad b6 83 3a c2 a6 0d 3e
       0.06905547 -0.008581101 0.0010048948 0.13833144
000270 6b 60 6d bd 62 41 84 bd a7 ca c1 3c 25 20 63 bc
       -0.05795328 -0.06457783 0.023656202 -0.013862644
000280 b4 fe 05 bd 99 52 a9 bd 2a ee 8a bc 54 41 9e bd
       -0.032713607 -0.082677074 -0.016959269 -0.07727304
000290 2b e1 58 3d 51 41 05 bc 04 ec d6 bd e6 b5 93 3b
       0.052949112 -0.008133248 -0.10494235 0.004507768
0002a0 bf 99 ca bd 0a 67 01 bd 90 b3 ef bd fc 01 3b bd
       -0.09892606 -0.031592406 -0.11704171 -0.04565619
0002b0 a7 69 a6 3b f2 15 2e bd 2e b4 7a ba 70 ec 2d bd
       0.0050785127 -0.042501397 -0.0009563592 -0.042461812
0002c0 bf 54 66 bd df 21 d8 3d 0f 08 d2 bd 7c 60 0d 3e
       -0.056233164 0.105533354 -0.10255443 0.13806337
0002d0 9b f2 5b bd 75 de bb bd b0 fe c0 bd d1 b6 ab 3c
       -0.053698163 -0.0917329 -0.09423578 0.020961197
0002e0 9e a4 b4 bd 13 f3 22 bc c8 03 1a be 22 ad b5 bd
       -0.08820461 -0.009945649 -0.15040505 -0.08870913
0002f0 b4 f1 85 3d c2 b6 9d bc e3 a0 8c 3d 5a 10 bc 3d
       0.06540242 -0.019252185 0.06866624 0.09182806
000300 60 0a 02 bd ba f8 ef bd 65 6e 58 bd 95 06 a9 bd
       -0.031748176 -0.11717363 -0.052839655 -0.082532085
000310 0d 4f f2 bc 27 33 54 bd 9a 4c ca bd 04 e3 ad bd
       -0.02957871 -0.051806595 -0.09877892 -0.084905654
000320 00 02 33 bd 10 8b 08 be 90 0a 5a 3d de 11 37 bb
       -0.04370308 -0.13334298 0.05323273 -0.0027934234
000330 79 ef e6 bd c6 58 7f 3d 23 eb 19 bb 31 ac 0b 3e
       -0.112761445 0.06234052 -0.00234861 0.13639905
000340 e2 f8 a1 bd fa 47 2d 3d 72 77 2d be ec 63 ce 3c
       -0.07908799 0.04230497 -0.16940096 0.02519413
000350 e0 9d c8 bd e5 09 5f 3d fe 73 5c bc 70 38 1f be
       -0.09795737 0.054452796 -0.013455389 -0.15548873
000360 58 9f 5f bd a0 16 c7 bd e5 ba 78 3d 92 8c d7 bd
       -0.05459532 -0.09721112 0.06072511 -0.105248585
000370 63 7a f7 3c 63 4b 1d bd 65 44 b7 bd ec 74 76 bc
       0.030209726 -0.038401973 -0.08948592 -0.015042525
000380 37 78 24 be 76 5c 35 3c 39 62 80 3d 81 09 c0 3c
       -0.16061483 0.011069408 0.062687345 0.023442032
000390 2c b4 a0 3d 56 cb 35 3c 54 1d af 3d d9 c2 b5 3c
       0.07846865 0.011095842 0.08550516 0.022187637
0003a0 20 5b e3 bb 58 7a 53 3d 79 73 88 bd c0 54 b2 bd
       -0.006938353 0.051630348 -0.0666265 -0.08707571
0003b0 13 ae 17 3d f4 41 1f 3e 0f 74 f0 b9 85 91 07 3d
       0.037031244 0.15552503 -0.00045862838 0.033097763
0003c0 82 e4 e4 bd ab 6d 12 be 96 a8 f4 bc 8e a6 db bd
       -0.11176397 -0.14299648 -0.029865544 -0.10725127
0003d0 32 2b bb 3c 53 fc 78 bd 87 a0 c9 3c 0d 5b 97 3c
       0.022847746 -0.06078751 0.024612678 0.018476034
0003e0 fd 3d e9 bd a1 0b 82 3c 50 84 13 3e 13 a9 13 be
       -0.113887765 0.015874686 0.14405942 -0.14419965
0003f0 c7 62 9c bc cc 1e 42 bd 2f 5b bd bd 5b ae 2a 3e
       -0.01909007 -0.04739265 -0.092459075 0.16668074

fc.3.bias f4 [128]
000000 54 71 86 3d a8 43 0c be a0 4f ed bd b1 34 a1 3d
       0.065645844 -0.13697684 -0.11587453 0.07871378
000010 c0 e0 65 3d a6 d5 7e 3d 9a 94 97 3d 29 77 2f bd
       0.05612254 0.06221547 0.074013904 -0.04283825
000020 5e a4 a6 3c c4 95 e9 3a 79 b0 0e 3c bb 06 96 bd
       0.020342048 0.0017821123 0.008709067 -0.073255025
000030 78 21 8c 3d b4 6d 05 bd e8 35 5b bb 13 0c 81 3d
       0.06842321 -0.032575324 -0.0033448879 0.06301131
000040 3c 10 db 3b d8 51 bd 3b 1f fb 91 3c b6 dd f1 3c
       0.006685285 0.005777579 0.01781994 0.029524665
000050 54 6d 34 bd 73 fa d7 bc 32 10 b2 bd 47 a1 af 3c
       -0.044049576 -0.02636454 -0.08694495 0.021439208
000060 bb fb eb bd 19 88 aa 3d 89 50 5d 3d 7b 9c 9e 3d
       -0.11522623 0.0832674 0.054031882 0.0774469
000070 4e 62 f5 bc 46 7b be bc 90 f4 8f bc 4d 3c aa bc
       -0.029954102 -0.02325214 -0.017572671 -0.020780707
000080 82 98 34 bd 38 2f 9b bd fc 70 bf bc 87 cd bf bc
       -0.044090755 -0.07577366 -0.023369305 -0.023413433
000090 88 8b fd bc 1a e3 70 3d 30 b4 75 3d f5 ce 17 3c
       -0.030950323 0.05881033 0.059986293 0.009265651
0000a0 10 f3 d6 bb ba f7 5a 3d 66 f6 9a 3d ec ac a8 3d
       -0.006559737 0.053458907 0.07566528 0.08236107
0000b0 1b 71 a2 3d 84 1b ee 3a db e0 3f 3d f5 96 de 3c
       0.079317294 0.0018166159 0.0468453 0.027171591
0000c0 af 83 22 3d 03 88 85 3d 57 89 e1 3c f9 ed 49 3d
       0.039676365 0.06520083 0.027531309 0.049299214
0000d0 4f 62 08 be f9 62 79 3d f3 be 00 3d c2 4a a5 3b
       -0.13318752 0.060885403 0.031432103 0.005044312
0000e0 6a 59 3a bc fb 41 aa bd cc 97 76 bd 3f 57 0a 3d
       -0.011373857 -0.08313366 -0.06020336 0.03377461
0000f0 d4 51 5a 3c 1e 7d 0b 3d bc 70 a8 bd d6 48 b0 bb
       0.013325173 0.034054868 -0.082246274 -0.0053797765
000100 b1 ee a9 3d ad 60 86 3d c4 55 81 bd 0a df c7 bd
       0.0829748 0.06561408 -0.063151866 -0.09759338
000110 0c 42 76 bd d8 e0 e3 3c da dc b1 bd 3e c0 c5 3d
       -0.06012158 0.027817175 -0.08684702 0.09655808
000120 8a 69 84 bd e7 e2 e2 bc 68 93 21 3d a2 85 1a 3c
       -0.064654425 -0.027696086 0.03944722 0.009431275
000130 21 b1 36 bc d3 bd 7e 3d d3 22 5c 3c 5d 25 c2 bd
       -0.011150629 0.06219275 0.013436037 -0.09479783
000140 31 0b 87 3c 41 46 52 3d d6 a0 aa bd 0f a1 ad bd
       0.016484829 0.05133653 -0.08331458 -0.08477985
000150 6c 0d 55 bd 48 ea 5f bd 09 21 96 bd be d1 c8 bd
       -0.052014753 -0.054666787 -0.0733052 -0.0980563
000160 9d a4 33 bd b2 fd c0 39 72 22 94 bc 1e db af bd
       -0.04385816 0.00036810111 -0.018082831 -0.08586715
000170 ec de 6b bd 34 b0 54 3c ca 07 86 bc 9e 72 d8 bc
       -0.05758564 0.012981463 -0.016361136 -0.026421841
000180 39 99 ff 3c 6c e6 28 bd 69 56 fb 3b f4 4f 5b bd
       0.031200992 -0.041235372 0.007670213 -0.053543046
000190 e9 3e 7c bd e6 e8 c2 bc 20 f7 9b bd 31 92 3e 3d
       -0.061583433 -0.023792695 -0.07615495 0.046526138
0001a0 37 68 67 bc 62 34 22 bd ef c1 c9 bc c1 a4 9b 3d
       -0.014123968 -0.039600737 -0.024628608 0.07599784
0001b0 01 3d e1 3c 38 32 9b 3d 82 10 e9 bc 88 2b 43 bd
       0.02749491 0.07577938 -0.028450254 -0.047648937
0001c0 3a b5 15 bd d3 2d fb bd c9 fd 5d bd 30 5e 71 3d
       -0.036549784 -0.122646 -0.054197107 0.058927715
0001d0 a2 88 f1 bb 86 09 22 3d cd 92 5c bd b5 eb 13 be
       -0.007371024 0.039559864 -0.053850938 -0.14445384
0001e0 0f 5d 68 3d 53 52 af 3d 23 e6 73 3d a9 86 8c bd
       0.056729373 0.08560624 0.059545647 -0.06861622
0001f0 ad d2 e5 bc 40 df 20 3c 60 28 a9 bd 9c 8f 9b 3a
       -0.02805456 0.009818852 -0.08259654 0.001186836

fc.4.weight f4 [128]
000000 65 e4 77 3f e5 61 7f 3f f4 01 7f 3f 57 01 7c 3f
       0.9683288 0.9975875 0.99612355 0.98439544
000010 4b f3 7d 3f 7c 3a 7b 3f c2 5a 7c 3f 18 41 7d 3f
       0.9919936 0.98136115 0.98575985 0.9892745
000020 50 75 7e 3f 83 d7 7c 3f 17 a4 7d 3f fd 41 7c 3f
       0.99397755 0.98766345 0.99078506 0.9853819
000030 e6 7d 7d 3f 9c 22 79 3f d9 62 81 3f 13 ae 7a 3f
       0.9902023 0.97318435 1.0108291 0.97921866
000040 06 a7 75 3f 50 ba 7e 3f f0 14 7f 3f d4 45 77 3f
       0.9595798 0.9950304 0.99641323 0.96590924
000050 f7 23 80 3f 41 df 7e 3f da fb 7e 3f 73 e0 7f 3f
       1.0010976 0.9955941 0.99603045 0.9995186
000060 15 94 7e 3f 1b 65 7b 3f c0 f9 80 3f 0a 6d 79 3f
       0.99444705 0.9820115 1.0076218 0.97432005
000070 79 9d 79 3f 05 21 68 3f a1 ea 7c 3f 01 50 6b 3f
       0.9750591 0.90675384 0.98795515 0.9191895
000080 c3 9a 78 3f 3f 7b 80 3f fa 17 79 3f d1 13 7b 3f
       0.9711115 1.0037612 0.9730221 0.9807711
000090 42 34 80 3f 45 26 7b 3f 62 68 7b 3f 9d 2d 7f 3f
       1.0015948 0.9810527 0.9820615 0.99678975
0000a0 df e3 80 3f d6 49 7b 3f 4c dd 7f 3f a7 17 7b 3f
       1.0069541 0.9815954 0.9994705 0.98082966
0000b0 65 3e 78 3f b7 2d 79 3f 2b 1f 75 3f 18 7c 80 3f
       0.96970206 0.9733538 0.95750684 1.003787
0000c0 71 60 79 3f d0 5f 78 3f e3 df 7c 3f 93 ed 7b 3f
       0.9741278 0.970212 0.98779124 0.98409384
0000d0 5e c1 7d 3f a3 71 79 3f 2e 3b 7d 3f cf 7e 77 3f
       0.9912318 0.9743902 0.98918426 0.9667787
0000e0 a1 9f 7b 3f b5 60 7b 3f 35 6c 7a 3f ac b4 80 3f
       0.9829045 0.9819444 0.9782136 1.0055137
0000f0 94 28 7b 3f 4f 59 7b 3f 93 25 78 3f dc 1e 7c 3f
       0.9810879 0.9818315 0.96932334 0.9848459
000100 8c cc 79 3f ea 16 7d 3f 04 64 80 3f 6d cb 7a 3f
       0.9757774 0.9886309 1.0030522 0.97966653
000110 4b 8a 7c 3f be 45 7c 3f b1 c7 7f 3f 21 4b 7b 3f
       0.9864852 0.9854392 0.9991408 0.9816151
000120 8d d2 81 3f 56 ea 78 3f 78 31 7c 3f 67 44 7d 3f
       1.014238 0.9723257 0.98512983 0.989325
000130 9c 89 7c 3f 24 17 79 3f 1d ab 7c 3f e8 21 7f 3f
       0.98647475 0.97300935 0.986986 0.9966111
000140 e7 21 7f 3f c1 7c 74 3f b9 c5 7b 3f f6 5b 7c 3f
       0.99661106 0.9550286 0.98348576 0.9857782
000150 bc c5 77 3f cc a0 7e 3f 69 c3 78 3f 50 11 7d 3f
       0.96786094 0.99464107 0.9717317 0.9885454
000160 5a 62 79 3f 0f ce 78 3f 85 01 71 3f 7c 3e 79 3f
       0.974157 0.9718942 0.94142944 0.9736097
000170 11 2a 73 3f 0e eb 7c 3f df 87 79 3f 20 80 77 3f
       0.94986063 0.98796165 0.9747295 0.9667988
000180 65 77 7d 3f 52 17 71 3f 19 18 7e 3f ea df 7d 3f
       0.99010307 0.9417621 0.9925552 0.9916979
000190 49 81 7e 3f c9 a5 71 3f 53 3f 7d 3f c3 bc 79 3f
       0.99416023 0.94393593 0.9892475 0.9755365
0001a0 a9 54 78 3f d9 04 78 3f 9b 9a 7b 3f 40 ef 7d 3f
       0.9700418 0.96882397 0.98282784 0.9919319
0001b0 34 d2 71 3f 9b c3 7d 3f 7e 1e 7b 3f 60 ca 7c 3f
       0.9446137 0.99126595 0.980934 0.987463
0001c0 8c 66 79 3f 3a ef 7d 3f 05 4c 7f 3f 36 32 76 3f
       0.974221 0.99193156 0.9972537 0.96170366
0001d0 d1 a3 7d 3f 84 74 7c 3f b6 62 7b 3f 58 23 7d 3f
       0.9907809 0.9861529 0.98197496 0.98882055
0001e0 84 15 7b 3f d4 3b 81 3f 0d 9b 75 3f 95 99 77 3f
       0.98079705 1.0096383 0.95939714 0.9671872
0001f0 95 7e 7e 3f 65 99 63 3f 4a 1f 7f 3f 3b 2f 81 3f
       0.994119 0.88905936 0.9965712 1.0092539

fc.4.bias f4 [128]
000000 2e 3a ed bc 17 06 41 3b e7 85 f9 3a 36 4c 43 bc
       -0.028958406 0.0029453093 0.0019037098 -0.011920026
000010 36 80 0f bb 07 8e 08 bb 4b 06 ed bc fd 5c 2d 3c
       -0.0021896488 -0.0020836608 -0.028933665 0.010581252
000020 8b 4c 5a 3c f5 28 7e bc 3f 0a 89 bc 91 7d 22 bb
       0.013323913 -0.015512695 -0.016728519 -0.0024794082
000030 db 81 ea bc ea a0 95 bc a5 1d 3f 3c f8 f6 85 bb
       -0.028626373 -0.018265206 0.011664783 -0.004088279
000040 18 ff 19 bd 42 4f 26 3b 24 c6 93 bc 86 bb 8e bc
       -0.037596792 0.0025376831 -0.018038817 -0.017423403
000050 eb a2 57 bb cd 7e cd bc 54 b3 fb bc 91 97 40 bc
       -0.0032903503 -0.025084877 -0.030725159 -0.011754886
000060 9e 2e 2a 3b 6e 9e 8e bc 07 61 91 3c 2f ca 93 ba
       0.0025967727 -0.01740953 0.017746462 -0.0011275465
000070 c1 90 33 bd 81 4c 98 bd f4 4f 2a 3c c2 56 a4 bd
       -0.04383922 -0.07436467 0.010395039 -0.0802436
000080 a5 5c c1 bb 07 a7 85 3a 6a 3d b8 bb 55 a6 ce bb
       -0.0059009367 0.0010196873 -0.0056225555 -0.0063064494
000090 d5 94 25 bc bf e9 46 3c c8 d6 23 ba e5 5d 8a bb
       -0.010106285 0.01214069 -0.00062499614 -0.004222619
0000a0 2a a5 94 bc c4 32 da bb 5a 55 2f bc 18 5a 12 bc
       -0.018145163 -0.0066588838 -0.010701502 -0.008932613
0000b0 9a 2b d2 bc 69 4f 25 bc 7a 36 0f bd 17 03 85 3d
       -0.025655556 -0.010089734 -0.034964062 0.0649473
0000c0 a8 9b 5c bc ef 22 57 bc 3d 62 29 bb d2 d1 b2 bb
       -0.013464846 -0.013130887 -0.0025845908 -0.0054571414
0000d0 55 e0 34 3c c6 90 e1 bb 91 ee d6 bb 9d 14 cc bc
       0.011039813 -0.0068837134 -0.006559201 -0.024912173
0000e0 49 66 8e bb 0c 5f 95 bc 53 91 68 bc 6e f3 ab bb
       -0.0043456894 -0.018233798 -0.014194804 -0.005247525
0000f0 3f 5c 92 3c 6f 07 6a bb d1 a3 88 bc b3 da 95 bb
       0.017866252 -0.0035709997 -0.016679676 -0.00457319
000100 13 ed b5 bc 21 23 3a bb 79 1d 17 3c ce 76 e7 bc
       -0.022207772 -0.0028402286 0.009223335 -0.028254893
000110 e7 a0 42 bc d9 50 96 bb fe 00 cb bb 00 85 27 bc
       -0.011879182 -0.0045872745 -0.0061951866 -0.010224581
000120 2e 57 8d bc b7 88 3b bc 49 2d c1 ba f6 2d b3 bc
       -0.017253485 -0.01144617 -0.0014738227 -0.021872502
000130 82 4f 93 bc fc d3 9a bc 9c be a5 bc cb df 2c 3b
       -0.017982248 -0.01889991 -0.020232491 0.0026378508
000140 dd d1 03 3b 00 3c 1f bd 16 f8 32 bc 28 bb 10 3c
       0.0020114102 -0.03887558 -0.010923406 0.008833684
000150 85 f6 bc bc 27 9d 8b 3b c1 c2 33 bc cc a1 67 bc
       -0.023066768 0.0042606774 -0.010971726 -0.0141376965
000160 9c 4c 78 bc 75 25 10 bd c6 56 6b bd 10 9f 41 bc
       -0.015154984 -0.03519197 -0.0574558 -0.011817709
000170 5c e0 4f bd 33 4a 0e bc c7 d0 ca bc d4 4c 20 bd
       -0.050751075 -0.008684683 -0.024757756 -0.03913577
000180 b6 11 1f bd 48 11 73 bd ff b7 a8 bc 18 dd 09 bd
       -0.03883525 -0.059342653 -0.020595549 -0.033658117
000190 3c ee 52 bb e2 c9 27 bd a7 63 d5 bc b5 84 46 bc
       -0.0032185456 -0.040964015 -0.026048495 -0.012116601
0001a0 69 ff dd bc 85 d9 c2 bc 29 c9 a8 bc aa d3 23 bc
       -0.027099328 -0.023785362 -0.020603733 -0.009999195
0001b0 cb 97 6c bd 89 80 a3 bc 95 c0 50 bb 14 07 31 bc
       -0.05776195 -0.019958751 -0.003185307 -0.01080491
0001c0 12 eb a7 bc 7c 47 9f 3b 03 b3 c8 bc fd 92 90 bc
       -0.020497832 0.0048608165 -0.024499422 -0.017648214
0001d0 7b 13 61 ba f9 33 1f bc bd 29 ad bc 57 4e 22 3c
       -0.00085859717 -0.009716981 -0.021138066 0.009906373
0001e0 a9 bd d7 bc d8 4c e6 bb 85 ca 03 bd 12 c3 3d bc
       -0.026335554 -0.0070282035 -0.03217556 -0.011582153
0001f0 95 a1 d4 3b 71 45 dc bd 3a b7 0e 3b fc 99 bc 3c
       0.0064889886 -0.107554324 0.0021776692 0.023022644

fc.6.weight f4 [1, 128]
000000 af 27 26 bc 13 65 97 bd 3d fa a8 bd bb e6 c6 bc
       -0.010141297 -0.07392325 -0.08250854 -0.024279943
000010 bf 81 02 bd 19 aa 13 3d 44 3b 54 bc 0f 2a de bc
       -0.031862017 0.03605089 -0.012953583 -0.027119664
000020 a6 7c b6 3c 71 a2 55 3d b0 5f e7 bb 20 f2 30 3d
       0.022276234 0.05215687 -0.0070609674 0.04319966
000030 db be 19 bd c1 34 8e ba 79 3d 61 3d 1c db 0a 3d
       -0.03753553 -0.0010849462 0.054990266 0.033900365
000040 7b d1 8d 3a 77 d6 94 bd f0 7f 77 bd 79 2e 2a bc
       0.0010819876 -0.072674684 -0.060424745 -0.0103870565
000050 29 ef 86 bd f1 9d 02 3d a6 1c 3f bc f0 f1 c8 bc
       -0.06588585 0.031888906 -0.011664545 -0.024529427
000060 4e e6 85 bd e1 7d dc bc fc eb a3 bd 23 3b 55 bd
       -0.06538068 -0.026915492 -0.08003995 -0.05205835
000070 73 44 ad bb 38 3e 87 bb 1e b3 bc bc 5d 53 f3 bb
       -0.005287701 -0.00412729 -0.023034628 -0.007425709
000080 ee 85 4d bc 4c ca 05 bd 58 22 3a bd 3d f0 a1 3c
       -0.012544138 -0.03266363 -0.04544291 0.019767875
000090 37 e3 fd 3c fb 30 4f 3c 1c 19 64 3d 75 a9 0a bd
       0.030992134 0.012645955 0.05568801 -0.033853013
0000a0 b6 d9 be bd 17 73 57 bd 73 5c 8a bd 2f b7 86 bc
       -0.09318869 -0.052599993 -0.067559145 -0.01644477
0000b0 79 8d 33 3b 82 24 37 3d ea f2 96 bb 16 42 1c bd
       0.0027397557 0.04471255 -0.0046065943 -0.038148962
0000c0 98 fd 12 3c 07 81 8e bc 23 e8 93 3d 0f 22 d4 3c
       0.008971594 -0.01739551 0.07222011 0.025895147
0000d0 38 29 11 3d 2f d6 d4 bc 44 e0 99 3d 81 a9 55 bb
       0.0354397 -0.025981037 0.075134784 -0.0032602253
0000e0 df e5 82 bd 75 74 da bb a7 65 96 bc 26 ff a5 3d
       -0.06391501 -0.006666715 -0.018359018 0.08105306
0000f0 6d e2 7a bc 9b 89 d8 3c 93 44 01 3d 42 2c 69 bd
       -0.015312773 0.026432803 0.031559538 -0.056926973
000100 67 2c 16 bc 63 4e 2d bc f7 e5 9c bd 6d e5 2b bd
       -0.00916586 -0.010577771 -0.0766105 -0.041966844
000110 41 17 b6 3c 1f 3e 06 3d 39 75 8b bd b5 52 12 3c
       0.022227885 0.032774087 -0.06809468 0.008930852
000120 e3 af bf bd b9 b6 21 bc 41 85 58 3d 27 17 92 3a
       -0.093597196 -0.009870225 0.052861456 0.0011145816
000130 f7 70 88 3c f8 a6 1a bc 60 99 d9 3b 62 ef aa bd
       0.016655428 -0.0094392225 0.006640598 -0.0834644
000140 bb 22 a0 bd 30 b6 86 bb 5c fa 6d bd 00 15 3d 3d
       -0.07819124 -0.004111074 -0.05810009 0.046162605
000150 6b ab f0 bb 38 3e 3a bd 42 fc b0 bc 93 be 99 bd
       -0.0073446534 -0.045469493 -0.02160466 -0.07507052
000160 39 ee 1d 3d be af 9d bb dc 51 a0 bb 24 43 2e bd
       0.038557265 -0.00481221 -0.004892571 -0.0425445
000170 ff 78 75 bb 16 16 25 bd 0c a2 e2 bb ff 23 f8 bb
       -0.0037456152 -0.040304266 -0.00691629 -0.0075726504
000180 c7 c8 b8 3b 14 02 0d bc 0e 42 06 bd a3 28 c6 bc
       0.005639169 -0.0086064525 -0.03277784 -0.024189299
000190 30 1d a4 bd 13 e4 a9 bb 46 92 11 bd 67 de 81 bc
       -0.080133796 -0.0051846593 -0.035539888 -0.01585312
0001a0 49 91 0c 3b 91 10 02 bc b2 ad b8 bb d0 40 94 bd
       0.0021448901 -0.00793852 -0.0056359405 -0.072389245
0001b0 07 7f 7f bb 81 93 c8 bb 6c aa 09 3d 7c 6f f5 bc
       -0.0038985626 -0.0061210995 0.033609793 -0.029960386
0001c0 f7 27 40 bc 7d 58 3d bd 7c db 3d bc ff 45 9c bc
       -0.011728278 -0.046226967 -0.011587974 -0.019076345
0001d0 11 48 89 3d bb 2b 9b 3c 37 6b 67 bd 9a 75 d2 bc
       0.06703199 0.01894175 -0.056498732 -0.025690842
0001e0 00 9c 8d bd f0 b2 c7 bd fc 89 f8 bb 02 46 f9 bc
       -0.0691452 -0.097509265 -0.0075848084 -0.03042889
0001f0 79 bf 93 3d cf 94 df ba a9 3e 8d bd 27 da 9c bc
       0.07214255 -0.0017057898 -0.06896717 -0.019146992
