ppo_models/ppo_model_value_1.pth (torch, 80616 bytes, 9 tensors)

fc.0.weight f4 [128, 15]
00000000: 78ce 1b3e b18b bbbc 93c1 0fbb 7f31 8a3d
00000010: c25e 193e 4517 b13d 13bc 8a3d befd 49bd
00000020: ec62 a1bd fdfb 46be dd1b 653e c84f d9bc
00000030: a069 7a3d 1048 283d 0842 e9bd b919 36bd
00000040: 9652 98be 9131 0a3d cf61 343e a5e8 553e
00000050: 2cea 62be 830d 78be 35f1 dcbd 64ec 61bd
00000060: 3adc e1bd 668c 69be ad40 36be 80dc 3dbc
00000070: 34bb c13d 6e66 aabd ca6f 863e dbe9 bebc
00000080: 5178 aabd 1f3c 1fbe df17 ddbd a5d2 593d
00000090: c763 1bbd 2963 4dbc c057 d73b a46a f83d
000000a0: c20f 15be d02c d7bd 6406 633e 79d2 76be
000000b0: 4041 53be 796e 833e 46dc 1bbc d64a 37be
000000c0: 4f22 7a3e aab8 26be 3414 38be 67dc d53c
000000d0: a081 52be 9ad6 0abe b5cc a6bd 7f94 1cbe
000000e0: ce30 6cbe 3c9c a23d 24b4 debd 64d7 d63d
000000f0: 52ef 2f3e 2463 bcbd a991 473e 764e 5d3d
00000100: 3213 7d3e 8f73 09be 6023 8abd 890d f93b
00000110: 1c85 b2bd 8aab c13c 9778 023d 689e 543e
00000120: a0e3 633c d85d 7bbd d0a8 72bd 9f50 37be
00000130: 1443 95bb 56d0 40be 3332 32be 2685 103e
00000140: 4f55 2bbc 5435 52be eaa5 b5bd 404a 8bbd
00000150: b919 89bd aff8 9cbd 8820 8cbc 8a91 15be
00000160: b8a8 a8bc 2e61 d7bd 07f7 8bbd 7c0a 663d
00000170: 163a 02be 771c 2ebe 8b08 ee3d c7e6 8abd
00000180: cec9 31be 8671 1fbe 7854 d9bd d498 393e
00000190: 26b8 71be 9ede 193e 84ad 043e 7881 573e
000001a0: 00fe a43b f755 9e3e 0ec3 993d 0ed1 3b3e
000001b0: 5afb 1b3d a7c8 783e a8cb 8a3e 4484 4ebd
000001c0: aab0 9d3e 109e 203e f15c 7abe d030 9f3e
000001d0: cc5c f73d f0a4 803c 62e7 1a3e 2016 23bc
000001e0: 1f93 34bb a4ab 263e a21e 9f3e 0f9f 4bbd
000001f0: 6143 1fbe 60da 7a3e 2e26 993e 375f a73e
00000200: 0094 acba 7b9f 28be 7ff5 413e 2e68 83be
00000210: 801e 413b 30fc 0ebe eccd 2b3e 24b3 ffbd
00000220: 80b0 0fbe 7d37 b83d f113 063e 856e 4e3e
00000230: eec5 7abe 3b79 30bd d4a8 88be 9451 ffbd
00000240: 7c0f 19be 3453 4b3e 1645 30be 1e2f 283e
00000250: cc99 763e 7ad2 19be 0046 82bd 0475 323d
00000260: 3f26 70bc 0b62 f9bd 863a 843d e3bc 2c3e
00000270: b299 173e 0538 8abe 94e9 14be 4ffa 593e
00000280: b187 a4bd 2a59 d9bd fc8b 88bd 8e64 d7bd
00000290: 2a6e 4abe 75bc 23bb b30a 9c3d d03e 1ebe
000002a0: 21ba d9bd cd77 d93c eb9a 063e e62e 873e
000002b0: 91f8 613e c1ac 80be fb76 43be 051c ac3e
000002c0: ac1b 53be 5889 fd3d 4cf4 bb3d c321 56be
000002d0: 35e4 283d ccd8 cbbd 18a1 d3bc 89f1 0abe
000002e0: 1841 933d 9433 4e3d 1398 80bd 4381 9b3d
000002f0: 081d 44bd 0e5c ab3d bac1 78be 7bd8 7fbe
00000300: a062 2cbe c8f9 5e3d 2cc0 aa3d 758d 5c3e
00000310: fbba a8bd 8b7e 1f3d 6395 fdbd 3ebe af3d
00000320: 7e79 8ebb 7ee1 613c cb6e 83be 3a98 223e
00000330: fd5e 3ebe 7b48 93be c06f 383c c2c3 17be
00000340: 1a52 89bd 2c24 dd3d 43fa 7f3e 7acc 34bb
00000350: 06da 9b3e dc9d 38be c5fd 53be 3b25 1c3e
00000360: a2c1 9cbc 31d1 833d 21d1 71be 75bf c73d
00000370: 33c0 5d3e eaa7 4d3e 440f 7cbd e2ac f2bd
00000380: 8082 3f3e a830 81bc a606 c8bc 4775 84bd
00000390: 9183 373d cb4d 883e 0c6f 95be a598 cd3e
000003a0: e291 2bbd 2049 23bc e8b7 a5be afb8 813e
000003b0: 409d 0dbd d873 633d 5269 203e 7c9e 33bd
000003c0: d7b8 d13d 4c35 453e 35d9 813d 5e13 ad3c
000003d0: 24f2 71bd cdb5 38bd 1ab9 fcbc 22f7 a83d
000003e0: 562f 47be cf09 313e 9526 3f3e 10de 38be
000003f0: a8b9 733d ea07 793e e8c5 7dbd 9a06 78bc
0.1521548 -0.022893758 -0.0021935448 0.06747722 0.14977553 0.086470164 0.067741536 -0.049314253
-0.07880196 -0.19432063 0.2237391 -0.0265273 0.061135888 0.04108435 -0.113895476 -0.044458125
-0.29750508 0.033738676 0.17615436 0.20889528 -0.22159642 -0.24223904 -0.10788194 -0.05515708
-0.11028333 -0.22807464 -0.1779811 -0.011588216 0.09459534 -0.08320318 0.26257163 -0.02330487
-0.0832373 -0.15550278 -0.10795569 0.053179402 -0.037936952 -0.012535849 0.00657174 0.12129715
-0.14556792 -0.10506594 0.22170407 -0.24103726 -0.2063036 0.2567022 -0.0095129665 -0.17899641
0.2442715 -0.16281381 -0.17976457 0.026106073 -0.2055726 -0.13558426 -0.081445135 -0.15291022
-0.23065493 0.079399556 -0.10874203 0.10490301 0.17181137 -0.09198597 0.19489159 0.054029904
0.24714354 -0.13422988 -0.067450285 0.0076004905 -0.08716795 0.023641367 0.031853285 0.20763552
0.0139092505 -0.061368793 -0.059243023 -0.17901848 -0.0045551155 -0.18829474 -0.17401962 0.14113292
-0.010457351 -0.20528156 -0.08869536 -0.068012714 -0.06694359 -0.0766462 -0.017105356 -0.146063
-0.020588264 -0.105165824 -0.06834226 0.056162342 -0.1271747 -0.17003046 0.11622723 -0.067822985
-0.17362139 -0.1557065 -0.10611814 0.18124706 -0.23605403 0.15026328 0.12956816 0.21045482
0.005035162 0.3092496 0.07507907 0.18341467 0.038081504 0.24295293 0.27108502 -0.050419107
0.30798846 0.15685296 -0.24449517 0.31091928 0.120782465 0.015703648 0.15127328 -0.0099540055
-0.0027553511 0.16276413 0.31078058 -0.049712237 -0.15553047 0.24497366 0.2991194 0.3268983
-0.0013166666 -0.16467087 0.18941306 -0.2566542 0.0029467642 -0.1396339 0.16777772 -0.1248534
-0.14032173 0.089949585 0.13093545 0.20159347 -0.24489567 -0.043084364 -0.26691306 -0.12466732
-0.14947313 0.19855958 -0.17213854 0.16424224 0.24082106 -0.15021697 -0.06361008 0.043568626
-0.014657556 -0.12176903 0.06456475 0.1686893 0.14804724 -0.26995865 -0.14542228 0.21286891
-0.080336936 -0.1061271 -0.06667325 -0.10517226 -0.19768587 -0.0024984155 0.07619228 -0.15453649
-0.106312044 0.026546383 0.13145034 0.26402968 0.22067477 -0.251318 -0.19088356 0.33615127
-0.20616025 0.12379712 0.09177455 -0.20911317 0.04123326 -0.0995346 -0.025833651 -0.13568701
0.0719015 0.050342157 -0.06279006 0.07593014 -0.04787925 0.083671674 -0.24292651 -0.24984924
-0.16834497 0.05443743 0.08337435 0.21538337 -0.08238789 0.03893904 -0.12382009 0.08581208
-0.004347979 0.013786672 -0.25670466 0.15878382 -0.18590923 -0.28766236 0.011257112 -0.1482077
-0.06705113 0.10797915 0.24997811 -0.0027587698 0.30439776 -0.18028969 -0.20702274 0.15248577
-0.0191353 0.064363845 -0.23614933 0.097533144 0.2165535 0.20083585 -0.061537996 -0.11849381
0.18702126 -0.015770271 -0.024417233 -0.064676814 0.044803206 0.2662185 -0.29186285 0.4015552
-0.04188717 -0.009966165 -0.32366872 0.25336215 -0.034573793 0.0555304 0.15665177 -0.043852314
0.102403335 0.19258612 0.06340257 0.021127399 -0.059068814 -0.045095254 -0.030849982 0.08250262
-0.19451651 0.17288898 0.18667062 -0.1805346 0.059503227 0.24319425 -0.061956316 -0.015138293

fc.0.bias f4 [128]
00000000: fb20 8abe 76b4 a33d 1031 1fbe d160 d23d
00000010: 7c04 6f3d d06e 57be ac5b 383d a15a 753d
00000020: 057a 08bd 83fd e43c 4987 b03d f706 07be
00000030: 50e7 4d3c fe5a 4cbd bd86 3c3e 75d9 8d3e
00000040: 8d07 dbbd f16d 60be 6b5e 0a3e 0464 2abc
00000050: afc1 51be d63f 1bbd c582 b5bd 1517 b9bd
00000060: a3f7 bf3d 4313 043d 84bd 7cbe f957 383e
00000070: 0205 903d 2fa2 9bbd 7911 033e ec85 6fbe
00000080: ba58 863e c0d8 dabc fad1 213e aa63 d6bc
00000090: 0521 f2bd 53ea abbd 5a52 6d3e cfb0 09be
000000a0: 51dd 3bbd 36b7 8e3e 3a63 163d b133 3abe
000000b0: fb8e 4b3d 06c1 4c3e 8836 313e 4731 e63d
000000c0: 82b1 323c b8bd 0abb 9873 e9bd c9d9 803e
000000d0: d09f 953d 759f f63c a85f 563e 44cd 9bbd
000000e0: 504d 183c 4af5 8f3e 8970 fe3d 102f a83d
000000f0: d402 ed3c bef4 8ebe 2223 793e 1217 183e
00000100: 7783 1cbd 8e13 7cbe abc4 843e 004a 963e
00000110: d94a 71be e21d 533e f5e4 41be 584d 643e
00000120: 5f61 c93c 9388 7cbe 77cd f23d 4871 21be
00000130: 966b 5dbd 2ec0 45bd 65ec 13be 1fb8 6ebe
00000140: ccb5 0fbd 59ad 47be b022 7cbe 65b3 6b3e
00000150: 0c58 6bbe 673c 9b3d 16ab 533d 17bf 95be
00000160: 4f5e 7abd 7acf e53c 7f5e 72be 7f71 6a3e
00000170: e90c 82be 8a19 7fbd 5951 80be ce97 4a3e
00000180: b206 23be 1208 993c 167f 273e 6424 be3d
00000190: baff b8bd e65f 8bbe af11 bdbd f81b 5cbd
000001a0: 924f 823c 3aab 02be e7e2 9a3c 26b2 7fbc
000001b0: beed 053e 2d9d 5a3e 0d87 7bbe fb4c a63e
000001c0: bb29 aa3d 8755 7fbe 8a20 d3bc b64f debd
000001d0: ce30 5c3e 04ef 7ebd 052c 01be a8f8 a2bd
000001e0: 4ebe 2b3e 313a 9fbd 0458 153a 7fab c23d
000001f0: 15e3 823e acbe e4bb 8bba ca3d 0059 84bd
-0.26978287 0.079934046 -0.1554606 0.102723725 0.058353886 -0.21038365 0.0450093 0.059900884
-0.033319492 0.027952915 0.086195536 -0.1318625 0.012567356 -0.049891464 0.18410774 0.2770497
-0.106947996 -0.2191694 0.1351258 -0.010399822 -0.2048404 -0.037902676 -0.08862833 -0.09037606
0.09373405 0.032244932 -0.2468167 0.18002309 0.07032205 -0.075992934 0.12799634 -0.23390931
0.26239568 -0.026714683 0.15802756 -0.02617057 -0.11822704 -0.08394303 0.23175946 -0.13446353
-0.04586536 0.27874154 0.036715724 -0.18183781 0.049696904 0.19995508 0.17305958 0.11239868
0.010906579 -0.002117021 -0.11399001 0.25166157 0.073058724 0.030105332 0.20934927 -0.07607511
0.0092957765 0.28116828 0.12423808 0.082121015 0.028932013 -0.27921098 0.24329808 0.1485255
-0.038211312 -0.24616835 0.25931296 0.29353333 -0.23563708 0.20616868 -0.18934996 0.2229513
0.024582563 -0.24661474 0.118555956 -0.1576587 -0.05405768 -0.04827898 -0.14445646 -0.23312424
-0.035085484 -0.1949972 -0.24622607 0.23017652 -0.22982806 0.0757988 0.051676832 -0.29247352
-0.061125096 0.028053034 -0.2366886 0.22894858 -0.25400475 -0.062280215 -0.25062063 0.19784471
-0.15920523 0.018680606 0.16357073 0.09284285 -0.09033151 -0.27221602 -0.092318885 -0.05373761
0.015907083 -0.1276063 0.018907024 -0.015606439 0.13078973 0.2134902 -0.24563237 0.32480606
0.08308741 -0.2493497 -0.025772352 -0.108550474 0.21502993 -0.06223966 -0.12614448 -0.07957584
0.16771814 -0.07774771 0.0005697014 0.095053665 0.25563875 -0.0069807377 0.098988615 -0.06462288

fc.1.weight f4 [128]
00000000: d195 693f 1a9f 7d3f b13e 753f a2f3 843f
00000010: b58e 8b3f e14c 683f 6781 693f 7516 8c3f
00000020: 05bc 8d3f 34de 7c3f 2643 793f bd77 8b3f
00000030: 57d3 883f 9dca 773f 76e7 803f 3b91 983f
00000040: 66d0 723f a60c 7a3f 94e0 803f 872a 833f
00000050: d790 8a3f 9d2e 733f 5024 7f3f b3f8 823f
00000060: 8083 843f d891 873f 825b 833f 7cd0 853f
00000070: d3a6 7e3f 622c 8a3f bbe1 7d3f 72de 773f
00000080: e49e 883f 6aa7 7c3f 4851 803f e5ad 863f
00000090: 4370 7b3f 53d5 8b3f df02 833f 85c4 8e3f
000000a0: 4e58 6d3f 7632 853f 6a35 7c3f e3dd 733f
000000b0: 430f 873f 67e8 753f ad82 773f c849 783f
000000c0: 7b62 7f3f f7fd 863f 1096 813f b735 7a3f
000000d0: e5c1 853f 588a 813f 23ba 803f 6a9c 8c3f
000000e0: 7aad 803f 61e1 893f 4640 813f 9578 833f
000000f0: 2c6d 833f b235 743f 0e2d 853f d735 733f
00000100: 1333 763f d39d 823f 9e80 7e3f 24d3 933f
00000110: 1789 813f 0032 803f b8a8 823f a9e5 723f
00000120: a2a5 803f 5a49 7a3f 197c 893f 6364 743f
00000130: 4a6d 933f f216 733f 97eb 773f 631a 773f
00000140: 3668 7f3f 99ec 813f e810 7f3f 41de 8b3f
00000150: 7fa6 6c3f 7be4 6f3f 8106 813f 62c2 5c3f
00000160: 80eb 843f 3e94 813f 743d 7c3f 52b9 713f
00000170: 5043 7e3f 8ff7 863f 431d 753f 8142 883f
00000180: b09b 833f b03b 813f d86d 783f af0b 873f
00000190: bd24 773f f153 743f e915 833f f7cd 853f
000001a0: b4d2 8b3f 21c9 843f 7ec1 783f cead 853f
000001b0: 728a 883f dbc4 813f eee9 803f 4592 8b3f
000001c0: 14b3 793f 2233 813f fb81 803f 51ed 893f
000001d0: 3ddd 833f 6a95 843f ee74 6b3f ef74 833f
000001e0: 5833 7c3f ebcd 8a3f 7b6d 843f d64d 7d3f
000001f0: 10d9 853f 0902 863f 5341 873f 5c22 7a3f
0.91244227 0.99070895 0.95798784 1.0386851 1.0902926 0.9074231 0.9121308 1.0944353
1.1073004 0.98776555 0.97368085 1.0895916 1.0689496 0.9679354 1.0070636 1.1919321
0.9484924 0.9767555 1.0068536 1.0247353 1.0825452 0.94993 0.99664783 1.0232147
1.0352631 1.0591383 1.0262301 1.0454249 0.99473304 1.0794795 0.9917256 0.968238
1.067349 0.98692954 1.0024805 1.0521818 0.9821817 1.0924476 1.0235251 1.1153723
0.9271287 1.0406024 0.98519003 0.9526045 1.0551533 0.9605774 0.9668377 0.9698758
0.99759644 1.0546254 1.012392 0.9773821 1.0449797 1.0120344 1.0056804 1.0985234
1.0052941 1.0771905 1.009774 1.0271174 1.0267692 0.9539443 1.0404375 0.9500403
0.96171683 1.0204414 0.99415004 1.154881 1.0119962 1.0015259 1.0207739 0.94881684
1.0050547 0.97768176 1.0740997 0.9546568 1.1517727 0.94956887 0.96843857 0.9652464
0.9976839 1.0150329 0.9963517 1.0927202 0.9244155 0.9370801 1.008011 0.86234105
1.0384369 1.0123365 0.9853127 0.944234 0.9932146 1.0544299 0.95747775 1.0645295
1.0281887 1.009634 0.9704261 1.055044 0.96540433 0.95440584 1.0241061 1.045348
1.0923676 1.037388 0.97170246 1.0443666 1.066725 1.01382 1.007139 1.0904013
0.97538877 1.009373 1.0039667 1.0775548 1.0301892 1.0358098 0.91975296 1.027006
0.98515844 1.0844091 1.0345911 0.98946893 1.0456867 1.0469371 1.056681 0.9770868

fc.1.bias f4 [128]
00000000: 12c8 02bd 609c f9bc 6405 13bc 4142 42bc
00000010: 80c8 153d c13c 573d ba2f eebc 953b ca3d
00000020: 0916 c73d 85a2 f23b 9ae9 60bd 9e31 a93d
00000030: 915b 963b 792a 59bc d3b9 583c f9df c53d
00000040: 4564 bb3d 545a 0dbd b080 81bd e104 8d3d
00000050: 9f71 8ebc 2423 8bbc 7732 2fbd 24cd 0ab8
00000060: edaf 35bd 1f93 733d e1e9 133b 5437 173d
00000070: 2905 20bb 48ca 0eba fd21 87bc 23ff e5bc
00000080: 3f93 bf3d fe84 f5bc 9e09 aabb f921 8cbd
00000090: 1fe4 bf3c dbb9 c43d ec60 dd3c b8f4 b73d
000000a0: aa77 12bd 3c76 563d b8cc 25bd 1c2d 40ba
000000b0: 0249 9f3d a462 0c3c 7445 693c 9faa 453d
000000c0: 41c2 823d b6b8 ec3d 9dac fc3c 2027 103d
000000d0: 6786 1e3d 8a2b 65ba 71ee 363d 4df5 af3d
000000e0: 60c7 81bd 0137 a73d 8c20 8f3d cd51 c33c
000000f0: 466d d0ba 2cc2 11bd 2cd7 9e3d 6378 debc
00000100: 7606 6e3d 37fb ec3c 79ed 05bc 7b40 f53d
00000110: ee6b a5bc d1d0 fd3c 71bf 8abc 3140 543d
00000120: e4ba 0ebb d917 503a 45df e13d a635 7abc
00000130: 1332 103e 96e2 d9bb 3f20 c0bc 877a 3dbc
00000140: 2ef7 703c 369c 03bd 6cdf 46bd 9c82 cd3d
00000150: eb0d 21bd f9a5 66bd 7f11 223e 9ab1 96bd
00000160: a005 313d 6ff3 86bd 4b6e 53bc b254 dd3b
00000170: 7fe1 01bd 9c10 cabc 8302 6bbd 6ae6 d6bc
00000180: 8db0 233d 9221 b93c 1dc1 2f3d 0366 953c
00000190: c3c3 0ebd 9d39 67bb 15ff 643c 4aed d83d
000001a0: 012c 883d 3a2a a4b8 44e2 293b caf5 563d
000001b0: b61b 223d b3ed 7ebc faa2 3ebd ccc2 ce3d
000001c0: b2a2 3ebd f4bf 603d 0926 8ebb 42b7 973d
000001d0: f634 edbc d913 ee3c 1724 49bd 38cc 4d3d
000001e0: c654 acbc 09f4 cb3d d05a 9a3a 286f e33c
000001f0: a73d 5b3d dcbc b33c 7ee4 1a3d 4cc0 1dbd
-0.031929083 -0.030470073 -0.008973453 -0.0118566165 0.036568165 0.052548174 -0.029075492 0.098746456
0.09721 0.0074046277 -0.05491028 0.08261417 0.0045885523 -0.013254755 0.013227898 0.0966186
0.09149984 -0.03450997 -0.06323373 0.06885696 -0.017388163 -0.01698453 -0.042772736 -3.3092816e-05
-0.04435723 0.059466477 0.0022569823 0.036918 -0.0024417138 -0.00054470124 -0.016495699 -0.02807576
0.09354257 -0.029970642 -0.0051891347 -0.06842417 0.023424206 0.096057616 0.027023755 0.08982223
-0.03575865 0.05235885 -0.04047844 -0.00073309406 0.07777597 0.00856844 0.01423775 0.04825842
0.06384707 0.11558668 0.030844027 0.035193563 0.038702395 -0.00087421446 0.04466099 0.08591709
-0.06336856 0.08164788 0.0698863 0.023842717 -0.0015901707 -0.035585567 0.077558845 -0.027157014
0.05811163 0.028928382 -0.008174294 0.11975189 -0.020193066 0.03098336 -0.01693699 0.05181903
-0.0021778876 0.0007938124 0.110289134 -0.01527158 0.14081602 -0.0066493256 -0.023452876 -0.011564857
0.01470737 -0.032131396 -0.048552915 0.100346774 -0.039319914 -0.056310628 0.15826987 -0.073580936
0.043218255 -0.065894 -0.012904714 0.0067544812 -0.03170919 -0.024666123 -0.057375442 -0.026232917
0.039963294 0.022599015 0.042908777 0.01823712 -0.03485466 -0.0035282143 0.013976832 0.10592134
0.06649018 -7.827995e-05 0.0025922218 0.052480496 0.03957721 -0.015559602 -0.046542145 0.10095748
-0.046541877 0.05487056 -0.0043380302 0.074080005 -0.028955918 0.029062198 -0.049106684 0.050243586
-0.021036517 0.099586554 0.0011776332 0.027762964 0.053525593 0.021940641 0.037815563 -0.038513467

fc.3.weight f4 [128, 128]
00000000: e30a 1bbe 59fe 5c3d fa10 873d 4602 d3bc
00000010: 2f07 0d3e dbc9 223e dcde 803e 1801 84be
00000020: cd1f 88be 7347 643e eedb 63be 7e65 92be
00000030: 19d7 babc 86a7 653d 9403 4abe a0a5 8b3d
00000040: c567 47be 07b8 0b3e b421 d53b 91d1 ecbd
00000050: 2f2c 29be 54df b53d 9d0c 953e 89f4 a03e
00000060: 9e22 3f3e 06c4 73be 41c0 e9bd 42eb ecbd
00000070: 27ca 9b3d f7be 40be d6e8 3abe 29ec ab3d
00000080: 5fd2 82be fef3 613d 5778 213e afe8 a73e
00000090: 598e 89be 27e6 89be af2e 1dbe b44b cebe
000000a0: febd 52bd c96e d03c 0b9e 273e 8525 3bbe
000000b0: 30b1 1f3d e4cb fcbb 98b7 a5bd 80d9 24bd
000000c0: a686 9abe 5042 1cbe 734f 87be d96f 47be
000000d0: b071 48be 0e4c 2ebd 1540 9bbe 0292 9cbe
000000e0: 7069 8b3e 9dbc 99be 033f 123d 1e1a 93be
000000f0: f2e1 22be 32c0 97bd d6fb 99be 799f a8bd
00000100: d5c2 9cbd 820e 8dbe c2e9 69bd edef 8cbe
00000110: 798a 9d3c a485 82be d8a0 463e 9ad8 eebd
00000120: b259 61be 909b 3bbe b38d 7fbe 64c6 e83d
00000130: c508 acbe 6097 5cbe a6b8 883c 584e 833d
00000140: 3ee5 14be 4851 1dbe 0340 613e 1906 afbe
00000150: 4310 463e f186 d0bd a677 89bd 3693 493e
00000160: 6bcb 81be 709e 00bc d50b 8dbe 890c 53bd
00000170: ddb9 1abe 9959 873e 28d4 613e 19b5 d03d
00000180: 0f78 a8be 0f06 1cbe ca7e d2bc 0204 4fbe
00000190: e0e1 003e d0c0 423e 613a 82be a611 7ebe
000001a0: 4180 9cbe 1694 933e 89e9 5bbe d41a 78be
000001b0: 8c08 73be 4d69 c9bd b2cd c8bd 14a4 65be
000001c0: 22f9 4ebe 2929 75be 308d 503e 906f a3be
000001d0: cd79 303d 0c8f d6bd 6ba2 bc3d a2d2 68be
000001e0: 9252 42be 00c6 44be f896 7f3e dfed 21be
000001f0: 3ed7 81be bfec 96be 6e08 b7bd 0e38 8bbe
00000200: 6da7 0dbd 4a79 f93d 9ee4 86bd b774 48bc
00000210: fa4c ac3d 40be ccbd 175e 0b3d fa30 97bb
00000220: 6824 e13d 7b68 ebbb 6728 993d a2c1 d73c
00000230: ac12 45be 3050 993d 7291 703d e185 35bc
00000240: b438 b43d b9ea 0a3d cbad a43c c132 3a3c
00000250: ae09 0b3d b114 b839 0d7a 0bbe 226e e4bd
00000260: 6228 183d 5f3a 4b3d 10c0 ed3d 27c0 963b
00000270: 3f8d 08bc af5f 543d 1384 9c3d 1333 bdbd
00000280: 83e1 a93d 9762 dcbc 78a3 183d 2902 96bc
00000290: b42d b8bc cb2f f7bc 5bce 023e c848 75bd
000002a0: a942 18be e157 2fbe d945 36bd d852 aa3d
000002b0: 6462 c8bc 5b12 d43b 4cb1 163d ede8 153d
000002c0: f566 ff3d 0817 783c 7087 c63c f89e 44bc
000002d0: 62ed a13d 9b88 283c 2161 163d afb8 8e3d
000002e0: de23 cbbc b486 353d 06cb 50bb 4150 4bbd
000002f0: 3754 f1bc c344 24bc ec1c 9e3d df9d 89bd
00000300: 6f01 96bd 599b 29bd 7361 363d 5bc3 f3bb
00000310: f1ee 7ebb 504f d93c b45b c8bd 652c 37bd
00000320: 8550 9c3c 593a e93c 7612 b1bc de2f a7bc
00000330: fad6 153d 141f 7e3d 7e91 2abd 171f 6cbc
00000340: c559 813c 4eff 5e3d 4f58 773c 6041 01bd
00000350: 39c8 03be b52b 943d 949d b2bd e528 2ebd
00000360: e4f6 fb3c 9740 97bd 7727 a2bc 3490 2f3b
00000370: 33be 2d3c 264d bdbd 30fa ffbd 1d4a f73c
00000380: 0325 4a3d 1d6d 203c 5840 2fbc 13f2 193e
00000390: 5758 e9bb 8028 ccbd db77 f73d 22f6 a73d
000003a0: 082e 013e 749a 01bc 1254 f83d 2878 da3c
000003b0: 062f a73c f9e9 e93d 9481 55bb 7f8f 1e3d
000003c0: 8961 f83b 2322 ce3d d906 6e3d c662 923d
000003d0: 3fb3 11be cb7c 173d 1a6a a63d 703d 893c
000003e0: 1367 8d3d b176 d13d e627 12bc 2770 11bd
000003f0: 7797 c9bc 6c1f d1bc b648 4dbd 8443 003e
-0.15140872 0.053953502 0.06595035 -0.02575792 0.13772272 0.15897314 0.25170028 -0.25782084
-0.26586762 0.2229288 -0.22251865 -0.28593057 -0.022807645 0.056067966 -0.19727927 0.068187
-0.19473179 0.1364442 0.006504262 -0.11563409 -0.16520761 0.08880487 0.29111186 0.31436566
0.18665549 -0.23805246 -0.11413623 -0.11568309 0.07606917 -0.18822847 -0.18252882 0.08394653
-0.25551125 0.05516433 0.15768562 0.3279471 -0.26866415 -0.26933405 -0.1534984 -0.40292132
-0.051450722 0.025443451 0.16368882 -0.18276031 0.03898734 -0.0077147353 -0.08091658 -0.040246487
-0.30180854 -0.15259671 -0.26427802 -0.1947626 -0.19574618 -0.042553 -0.30322328 -0.30580145
0.2722888 -0.30026713 0.035704624 -0.28730863 -0.15906504 -0.07409705 -0.30074948 -0.08233542
-0.07654349 -0.2755013 -0.057107694 -0.275268 0.019231068 -0.25492585 0.19397295 -0.11662407
-0.22006872 -0.18321061 -0.24956398 0.11365965 -0.3360044 -0.2154212 0.01668961 0.06411427
-0.14540574 -0.15363038 0.21997075 -0.3418434 0.19342141 -0.10181988 -0.06712274 0.19685063
-0.25350508 -0.007850274 -0.2754809 -0.051525626 -0.15109964 0.26435545 0.22053587 0.10190792
-0.32904097 -0.15236686 -0.025695223 -0.20216373 0.12586164 0.19018865 -0.25435165 -0.2481142
-0.305666 0.28823918 -0.21475805 -0.24228984 -0.23733729 -0.09834538 -0.09804858 -0.22425872
-0.20212224 -0.23941483 0.20366359 -0.31921053 0.04308491 -0.10476503 0.09210666 -0.227366
-0.1897681 -0.19216156 0.24959934 -0.15813397 -0.2535953 -0.29477498 -0.08937155 -0.27191204
-0.034583498 0.12181337 -0.06586574 -0.012234858 0.084131196 -0.09997225 0.034025278 -0.0046139928
0.10993272 -0.007184086 0.07478409 0.026337449 -0.19245404 0.07485998 0.058732457 -0.0110792825
0.08799878 0.033915255 0.020102402 0.01136464 0.03394478 0.0003511063 -0.13620777 -0.11153819
0.037147887 0.049616214 0.11608899 0.004600543 -0.008334457 0.051849063 0.07642379 -0.09238257
0.08294966 -0.02690248 0.03726527 -0.018311577 -0.02248273 -0.030174157 0.12774031 -0.059883863
-0.14869179 -0.17123367 -0.044500206 0.083165824 -0.024460979 0.0064719147 0.036790177 0.03659909
0.12470809 0.01514221 0.024234504 -0.012000792 0.07906605 0.0102864755 0.036713723 0.06968819
-0.024797376 0.044317916 -0.0031859293 -0.049637083 -0.029459102 -0.01002616 0.0772036 -0.06719565
-0.07324492 -0.041407917 0.04452653 -0.0074390597 -0.0038899744 0.026527077 -0.09783116 -0.044720072
0.019081363 0.028470205 -0.021615248 -0.020408567 0.03658197 0.062041357 -0.04164266 -0.014411709
0.015789876 0.054442696 0.015096738 -0.031556487 -0.12869348 0.07234899 -0.08721462 -0.04251947
0.030757375 -0.073853664 -0.019794209 0.0026788833 0.010604429 -0.092432305 -0.12498891 0.030186707
0.049351703 0.00979164 -0.010696493 0.1503375 -0.0071211266 -0.09968662 0.120834075 0.08201243
0.12615216 -0.00791036 0.1212541 0.026668623 0.020408165 0.1142158 -0.0032578455 0.038711067
0.0075799865 0.10065105 0.058112 0.07147746 -0.14228533 0.036984246 0.08125706 0.016752928
0.069044255 0.10227717 -0.008920645 -0.035507347 -0.024608357 -0.025527678 -0.05011817 0.12525755

fc.3.bias f4 [128]
00000000: 717a 56be bdd9 b6ba 4a34 0bbd fa8a 953c
00000010: 7987 bcbe 3f06 6c3d 6621 2e3c 46c0 64be
00000020: 3430 9c3c 741f 89bd eaaa a13d 41ef 5b3c
00000030: 3ba7 eebd c9ea f23d e0ae 29bd 8056 9c3d
00000040: e426 d7bc 69da 8dbe 2f3a 42be 7964 1ebd
00000050: f6b0 8c3d 153b 3dbc 820a 9c3c db2a 80bd
00000060: 6d5f bf3b d0cd 833d f68e 79bd 45bd d33d
00000070: 1c22 9e3e 2bcc 483d c951 afbe e6b2 9a3d
00000080: 912a f33d 31d0 81bd 59d9 b1be c258 6f3d
00000090: c71d 05bd 1010 6abd 4c8e bf3a fa2c 7b3c
000000a0: 7882 2cbc 9d25 163d aac8 533d 8412 e73d
000000b0: cc46 933e dfe2 cb3d 84cc 0dbd 07a5 45bd
000000c0: 0164 0f3d 5d31 043a e311 10be a0fe 333c
000000d0: 6046 be3c 3067 aa3d 2ced 583d 81af c53a
000000e0: 71b4 723e a49e 88be 37cd 823d a9c3 01bd
000000f0: cb47 72be 5333 d83d fc8a 4ebd b5b3 a4bc
00000100: e1f3 093e 9543 153e 77ae 79be e8d7 3c3d
00000110: d4b7 c03d 0c10 4e3e fde8 c43d a8f4 2c3e
00000120: 6552 503d f109 62bd b7c4 5ebe c50f 803c
00000130: e3fe 0a3d 6ef1 243d d89c 393d 0010 c23d
00000140: 14e6 98be 182f a83d 0f25 c23d d01a 043d
00000150: 2fc1 50be 032a b7bc 28a4 c53d 5aa1 f2bc
00000160: b0c2 ae3d e073 1bbd 3422 05bd e7ec 893d
00000170: 7dd1 aa3b b84f 053d a85c 5c3d b3d2 0c3d
00000180: 3c98 d6bc 058d f6bc a039 d93d 6a91 013d
00000190: 15ec 113d 65a9 313c 0084 28bc 497e 9ebe
000001a0: d68b 7abe a66e 78bb 9d92 9f3c 782e 8fbc
000001b0: 2989 b33c 22a1 cb3c d240 b93d e37c 6b3d
000001c0: ecde 073d f06a 963e b5e5 a33e 0197 9fbe
000001d0: 88a4 893c 7f10 57be 2253 8c3e 1162 af3d
000001e0: af05 ba3e 56a1 97bc 68b4 bcbe 94a1 d23d
000001f0: aff1 5a3d 5187 f8bc 5191 47bd 625f 453d
-0.20945145 -0.0013950389 -0.033985414 0.018254746 -0.36822107 0.057623144 0.01062808 -0.22338971
0.019065954 -0.06695452 0.078939274 0.013423742 -0.116529904 0.11861188 -0.04142654 0.07633686
-0.026263662 -0.27705696 -0.18967508 -0.038670037 0.0686969 -0.011549731 0.01904798 -0.06258174
0.005840233 0.0643574 -0.060927354 0.10338835 0.30885398 0.049022835 -0.34242085 0.075536534
0.11873353 -0.063385375 -0.34736136 0.058434255 -0.0324991 -0.057144225 0.0014614551 0.0153305475
-0.010529153 0.036656965 0.05170504 0.112828285 0.2876495 0.099553816 -0.03461887 -0.048253085
0.03500748 0.0005042756 -0.14069323 0.010986 0.023226917 0.08320463 0.05296056 0.0015082211
0.23701645 -0.26683533 0.06386798 -0.031680737 -0.236602 0.10556664 -0.050425515 -0.020105222
0.13471939 0.14576562 -0.2438296 0.04610434 0.094100624 0.20123309 0.096147515 0.16890204
0.050859828 -0.055185262 -0.21754728 0.01563252 0.033934485 0.040269308 0.045315593 0.09475708
-0.29863036 0.082121074 0.094797246 0.032252133 -0.20386194 -0.0223589 0.09650451 -0.029617954
0.085332274 -0.037952304 -0.03250332 0.06734639 0.005212961 0.03254673 0.0537993 0.034380626
-0.026195638 -0.03009654 0.10606694 0.03163282 0.035625536 0.010843609 -0.0102853775 -0.30955723
-0.24467406 -0.0037907748 0.01947909 -0.017478213 0.021915989 0.024857108 0.090455666 0.057492148
0.03317158 0.29378462 0.3201119 -0.31169894 0.016802087 -0.21002387 0.27407175 0.085636266
0.3633246 -0.018509548 -0.3685639 0.10284725 0.053453144 -0.030337961 -0.04872257 0.048186667

fc.4.weight f4 [128]
00000000: af6c 723f 217a 493f 4c41 5a3f af18 6a3f
00000010: db78 4e3f f0cc 353f 3ac8 703f cff2 6a3f
00000020: 4805 663f 6e69 5d3f 0230 633f 7870 5c3f
00000030: e6fe 443f 5649 4c3f c8e1 653f 5a4a 5e3f
00000040: 86f7 6a3f c1e1 543f cc94 713f b14b 493f
00000050: 0fe9 373f fd53 533f 88de 4a3f c6b4 5a3f
00000060: 9342 6d3f 54df 6c3f 1927 683f b383 3d3f
00000070: ec9e 2e3f 768d 5a3f ea3a 783f eddc 3a3f
00000080: a51e 463f 4ab0 743f 1dc0 663f 8987 753f
00000090: 176d 673f a066 5f3f 11c1 5f3f 91d9 543f
000000a0: c787 663f 1463 633f 14c4 643f 91da 793f
000000b0: cd50 3d3f 808a 513f 16cc 503f ead3 653f
000000c0: e475 493f 4f6a 643f a6e0 5d3f 046f 743f
000000d0: 6a58 623f f604 593f 9df6 5a3f 3ae1 703f
000000e0: 22b7 2f3f 77b4 5b3f 781c 683f 4efb 5a3f
000000f0: 8e12 663f 047d 503f f792 633f 5d82 483f
00000100: e1de 433f 6340 363f 19f8 6f3f 0265 6b3f
00000110: 05b3 613f 8b22 293f 9428 4f3f 00af 423f
00000120: 8137 5f3f 3cac 733f 2d62 733f c1fd 543f
00000130: b233 423f af53 683f db75 3a3f 12d1 563f
00000140: 5ed4 683f 8d09 633f a45a 673f 6322 623f
00000150: 8244 6b3f 8224 3b3f 674c 623f b5db 803f
00000160: 5b05 4f3f 0818 7d3f 2ee8 473f e7de 603f
00000170: 57c3 6d3f 9b75 6a3f a49c 603f 677a 6c3f
00000180: 8b96 7d3f 47bd 573f ddf8 513f d60f 603f
00000190: 8dd3 663f 7d9e 833f c02c 503f 4fc2 5f3f
000001a0: 8faa 703f b0a6 693f b5d1 503f c596 5f3f
000001b0: cc1f 653f 2401 5d3f e92d 5d3f 9017 713f
000001c0: e693 713f 4657 343f 80c7 3c3f e88e 3b3f
000001d0: 65fe 5a3f 55aa 6d3f 9f1f 333f c99f 6f3f
000001e0: 7ec0 2e3f 9eb7 633f b157 253f bc43 663f
000001f0: d354 5e3f 697b 723f 0921 5e3f 5649 763f
0.9469709 0.7870198 0.85255885 0.91443914 0.8065316 0.71015835 0.9405552 0.91776747
0.8985181 0.86489 0.8874513 0.86109114 0.76951444 0.797994 0.8979764 0.868322
0.9178394 0.83156973 0.9436767 0.7863112 0.71839994 0.8255003 0.79245806 0.8543209
0.9267971 0.9252827 0.9068466 0.7402908 0.68211246 0.853721 0.96964896 0.72993356
0.7739051 0.95581496 0.9013689 0.95909935 0.9040083 0.8726597 0.8740397 0.8314448
0.9005093 0.88823056 0.8936169 0.9759913 0.7395142 0.8185196 0.8156141 0.8977648
0.7869551 0.89224714 0.8667091 0.95481896 0.8841616 0.84773195 0.8553255 0.9409367
0.68638813 0.8582224 0.9066844 0.8553971 0.8987206 0.8144076 0.88896126 0.7832392
0.7651196 0.71191996 0.9373794 0.91951 0.8816379 0.66068333 0.8092129 0.7604828
0.8719407 0.95184684 0.9507168 0.831997 0.7586013 0.9075269 0.72836083 0.83912766
0.90949047 0.8868645 0.9037268 0.8833372 0.9190141 0.7310258 0.8839783 1.0067049
0.80867547 0.98864794 0.78088653 0.8784012 0.9287619 0.915857 0.87739015 0.9237427
0.99057835 0.8427319 0.8202036 0.87524164 0.9016655 1.0282742 0.81318283 0.87405866
0.9401025 0.9126997 0.8156999 0.8733943 0.89501643 0.86329865 0.8639818 0.9417658
0.943663 0.7044567 0.7374191 0.7326493 0.85544425 0.9283803 0.69970125 0.9360319
0.6826247 0.8895205 0.6458693 0.89947104 0.8684818 0.9471956 0.8676916 0.9620565

fc.4.bias f4 [128]
00000000: c36d 4b3d 0efd 5ebe 445a 29be 5e4a 25bd
00000010: 3d53 2a3e 4f47 90be c7bb dabc e0cf 9b3d
00000020: 6542 7cbd 6ed2 e9bd a46e f5bd e13b 1abe
00000030: b43e 393e 4b3a 4abe b025 6ebd e2ba fcbd
00000040: 485d 1cbd 09b5 2c3e 5b8b 353d 6ebe 78be
00000050: 0f77 98be 56a4 3dbe fe40 e03d 94ef 06be
00000060: 5b0e b0bd 7e82 13be 9ee7 15bd 2bcb 88be
00000070: 6499 9dbe 13d8 20be cc2d cd3c 8dae 94be
00000080: 4985 73be 6164 d9bc cf9c c63d 7f95 ebbc
00000090: 4325 cfbd 4167 c5bd edcd 10be f265 64be
000000a0: 23db 65bd 02af 84bd cdbe 3ebd 1881 5dbd
000000b0: 9969 7ebe 7fbe 51be 4751 58be a82e 4cbd
000000c0: 2820 77be 0d4a 77bd d27f 203e 55c8 5cbc
000000d0: c2ce b7bd 30a2 33be 4b53 39be 4c77 4d3c
000000e0: 3cf4 9dbe 94ac f43d 7d13 c2bd 346c 2abe
000000f0: c1fa c83d ff24 4abe 6860 e5bd 9018 6abe
00000100: f95c 56be 37bb 93be 56bd 783d 9e7d d9bd
00000110: 2fb8 dbbd d91f 96be ec34 52be 2658 80be
00000120: 9aa2 1dbe 0599 2bbd 251d 0b3d 258f 4cbe
00000130: 3766 82be 878d 96bd 51d9 93be 8252 e5bd
00000140: 14a2 b83d f60f eebd 6154 4cbd 33dd 03be
00000150: c88b af3d 9851 88be bb9b ccbd e00c b83d
00000160: b4af 45be da2d 933d 4162 68be 78c9 12be
00000170: 0b61 42bd 658f 1bbd 92e5 c6bd fe35 6bbc
00000180: ebdf 0cbd eedf 2abe 057a 32be 3a25 ccbd
00000190: 3964 a1bd efeb 623d bdd5 1abe d1a3 f63d
000001a0: bfb6 583d 5969 82bd b2f8 40be 9718 f7bd
000001b0: b36b a7bd e4a4 00be 3502 29be 496a 76bd
000001c0: 7bb8 eabd 1442 94be b7de 86be 4cd2 843e
000001d0: 0771 19be fef2 8e3d 96eb 8fbe 6d53 80bd
000001e0: 21c8 a1be b3dc a0bd 7082 ab3e 1adf edbd
000001f0: 0701 c1bd e069 63bd 5db5 f8bd 84e0 b6bd
0.049665224 -0.2177622 -0.1653834 -0.040354125 0.16633315 -0.28179404 -0.026700867 0.076080084
-0.061586756 -0.114170894 -0.11983994 -0.15061904 0.18090326 -0.197488 -0.05814141 -0.123403326
-0.038174897 0.16865934 0.044322353 -0.24291393 -0.29778334 -0.1851972 0.10949896 -0.1317733
-0.08596488 -0.14405248 -0.03659784 -0.26717505 -0.3078109 -0.15707426 0.025046252 -0.29039422
-0.23781313 -0.026537122 0.096978776 -0.028757809 -0.10114529 -0.09638835 -0.14141054 -0.22304514
-0.05611719 -0.064786926 -0.04656868 -0.05407819 -0.2484497 -0.20482825 -0.21124755 -0.049849182
-0.2413336 -0.060373355 0.1567376 -0.013475497 -0.08974983 -0.17542338 -0.1809818 0.01254065
-0.308504 0.11946979 -0.09476373 -0.16642839 0.098134525 -0.19740675 -0.11200029 -0.22860932
-0.20933904 -0.2885377 0.06072744 -0.10619663 -0.107284896 -0.29321173 -0.20528 -0.25067252
-0.15394059 -0.041893978 0.03396334 -0.1997648 -0.2546861 -0.07351213 -0.28876737 -0.11197378
0.09015289 -0.11624138 -0.049885157 -0.1287735 0.08571583 -0.2662475 -0.09990641 0.08986831
-0.19305307 0.0718648 -0.22693731 -0.14334667 -0.04745583 -0.03797855 -0.09711756 -0.014356134
-0.034393232 -0.16686985 -0.1742936 -0.09968038 -0.07880444 0.055400785 -0.15120597 0.12042964
0.052908655 -0.0636775 -0.1884487 -0.12065237 -0.08174839 -0.12562901 -0.16504748 -0.060159955
-0.11460968 -0.28956664 -0.26341793 0.25941694 -0.14984523 0.06979941 -0.28109425 -0.06265912
-0.31598 -0.07854595 0.33497953 -0.11614819 -0.09424024 -0.055520892 -0.12143967 -0.08929542

fc.6.weight f4 [1, 128]
00000000: 467e 7dbd 8cad e03a 2062 18bb dc29 82bc
00000010: 79d2 83bc fac6 4a3b ae2a f43c e049 31bd
00000020: d2b6 a0b8 9e91 4e3b 3483 62b9 572a cc3b
00000030: 1302 213a 7921 19bb c91a 0c3c 27f2 3aba
00000040: a3a9 bebc 7c1c 91bc 2a42 193d b0e5 d2bb
00000050: 45e3 a8bc 9233 21bb 6af1 3abb cb73 bab9
00000060: 3bb7 513c d2f1 6fbc 56c2 22bc 59ac 2fb9
00000070: 8cf9 ddba 5487 d7bb a412 a43d 257c 14ba
00000080: 5247 e23a 7336 323d 6fb1 c03c f898 843d
00000090: 4669 96bb 862d 08bb a215 d73a 1473 073b
000000a0: 4e08 853b d379 e83b fa01 c2bb bccc 943d
000000b0: 064b c0ba be6a 8dbb 6994 b0bc f768 77bc
000000c0: 0d71 acbb f26e a43a 24e8 e9bc 53e5 5d3d
000000d0: e7cf acba 53fa f2ba 63b1 43bb 2027 243d
000000e0: 5a7c a739 9465 c5bc f0bf c33b f280 66bb
000000f0: 1b09 02bd cf1e 0dba 2b7b 363c 66d2 30ba
00000100: bea0 19b9 c364 483a da01 5bbd 6473 243d
00000110: 3f0d 91bc ece9 b6b9 d497 b93c aaf8 03ba
00000120: 8565 8ebc 6ef8 0abd 7c5c 593d 7592 abba
00000130: ce4a b1ba 8400 203b b333 f439 e2ea acba
00000140: 3765 d73c fca9 acbb 49e3 763b b2a2 773b
00000150: 877c e93c c89c 133b 4fa4 4cba a838 ebbd
00000160: 6575 dc3b 15b2 abbd dea3 31bb d27f 22bc
00000170: 92d9 45bc 552b 903c ed51 24bb ac28 df3c
00000180: b76a 96bd 18f6 6dbb 4af9 b43b 1212 343b
00000190: 41d5 abb9 230d f4bd a6d7 f43c 48c9 3c3c
000001a0: 6296 79bd b04c ebb7 8867 5f3b 4f6a fb3a
000001b0: 1ec8 b13b 4852 3d38 3038 223d e5bf efbc
000001c0: c36d 19bd 0634 83ba 3712 89ba aa5b febb
000001d0: 84d2 4a3b 4c6e 063d 3d02 33bb 4d89 0ebb
000001e0: 6d75 0abb b35c 313b 9944 0abc 8493 8dbb
000001f0: b490 2e3b 132a 1ebd aaeb 2f3b ccdc 26bd
-0.061888 0.0017141565 -0.0023251846 -0.0158891 -0.016091572 0.0030941353 0.029805508 -0.043283343
-7.6634475e-05 0.00315199 -0.00021601917 0.0062306332 0.00061419717 -0.0023365899 0.008551308 -0.00071314204
-0.023274248 -0.017713778 0.037416615 -0.0064360723 -0.020616183 -0.0024597389 -0.0028525242 -0.00035562957
0.012800033 -0.014645057 -0.009934029 -0.00016753505 -0.0016935333 -0.0065774117 0.08011368 -0.0005664251
0.0017263687 0.043508958 0.023522107 0.06474489 -0.0045901863 -0.0020779087 0.0016409645 0.0020667957
0.004059828 0.0070946007 -0.005920646 0.072656125 -0.0014670796 -0.004315703 -0.021555142 -0.015100709
-0.0052625 0.0012545271 -0.028553076 0.05417378 -0.0013184518 -0.0018537737 -0.002986037 0.040076375
0.0003194537 -0.024096288 0.0059738085 -0.0035172072 -0.031746965 -0.0005383314 0.011137764 -0.0006745219
-0.00014651098 0.0007644409 -0.053468563 0.040149108 -0.017706512 -0.0003488803 0.022655405 -0.0005034307
-0.017382393 -0.033928327 0.053066716 -0.0013089912 -0.0013526322 0.002441437 0.00046577826 -0.0013192559
0.02629338 -0.005269287 0.0037672094 0.0037786183 0.028501762 0.0022523869 -0.00078064663 -0.11485416
0.0067278617 -0.08383576 -0.002710573 -0.00991817 -0.012075799 0.017598787 -0.0025073246 0.027241074
-0.07344573 -0.0036310013 0.0055228816 0.002747659 -0.00032774548 -0.11916568 0.029887985 0.011522599
-0.06093443 -2.8049893e-05 0.003408881 0.0019181463 0.005425467 4.5137742e-05 0.039604366 -0.029266307
-0.037458193 -0.0010010011 -0.0010457699 -0.007762392 0.003094823 0.03282003 -0.0027314567 -0.0021749318
-0.002112712 0.002706331 -0.0084392065 -0.0043205637 0.0026636543 -0.038614344 0.0026843348 -0.040737912
